playground/classic_controls/discrete/cartpole/pg/model.pth (torch, 11771 bytes, 8 tensors)

_net.0.weight f4 [32, 4]
0	0x3e99511c	0.29944694
1	0x3ea5f732	0.32415158
2	0xbeb37168	-0.3504746
3	0xbe35c905	-0.17752464
4	0x3dd07f68	0.10180551
5	0xbe9ae93c	-0.3025607
6	0x3e838b59	0.2569225
7	0xbef17a65	-0.47163692
8	0x3e7f1378	0.2490977
9	0xbe9e3390	-0.30898714
10	0x3e9f7110	0.31140947
11	0x3f1e3e73	0.6181404
12	0xbe9f6d4b	-0.3113807
13	0x3e1b3521	0.15156986
14	0xbedf2dfd	-0.43589774
15	0x3e912642	0.283495
16	0x3e9e8064	0.3095733
17	0xbe907ad1	-0.282187
18	0xbed8e6cd	-0.42363587
19	0xbefb7400	-0.49111938
20	0xbe859ea4	-0.26097596
21	0xbef52629	-0.47880676
22	0xbedf7a2d	-0.436479
23	0xbf024849	-0.5089155
24	0xbdd992fd	-0.10623739
25	0xbe951789	-0.29119518
26	0xbed60677	-0.41801807
27	0xbe6e40ce	-0.23266909
28	0x3d556354	0.05209668
29	0x3eee5eee	0.465568
30	0x3ea1e4a3	0.31619748
31	0x3efd8bb0	0.49520636
32	0xbec9ab11	-0.39388326
33	0xbeb8af1c	-0.36071098
34	0xbf004b56	-0.50114954
35	0xbe8ba265	-0.27272335
36	0x3ec96a7c	0.39339054
37	0x3ed97349	0.42470768
38	0x3c64bac1	0.013960541
39	0xbec792c8	-0.38979173
40	0x3b1ee8fe	0.002424776
41	0x3eec34d8	0.46134067
42	0xbde7b46e	-0.11313711
43	0x3ee0c342	0.4389897
44	0x3ebdaf74	0.37047923
45	0x3d66d89d	0.056358922
46	0xbe1e9799	-0.15487517
47	0x3e1f42ee	0.15552875
48	0x3d9b1eae	0.07574211
49	0x3e6e7c3b	0.23289578
50	0x3b095326	0.0020954101
51	0x3f1cde07	0.61276287
52	0x3e3bb1a6	0.18329486
53	0x3e7600d5	0.24023755
54	0xbe129f69	-0.14318623
55	0xbe02170a	-0.12704101
56	0x3eb30efc	0.3497237
57	0x3ed5917f	0.41712567
58	0x3e837ad3	0.25679645
59	0x3d007a9b	0.031366926
60	0x3f107153	0.5642292
61	0xbd473966	-0.048638724
62	0xbdf1240b	-0.11774453
63	0x3dc2ed69	0.09517939
64	0xbe1cf27f	-0.1532688
65	0x3f08c3ed	0.5342396
66	0x3d3aa235	0.04556485
67	0x3f151f9a	0.58251345
68	0xbdecfaff	-0.11571311
69	0xbe2c1ae3	-0.16807131
70	0x3f12f14c	0.5739944
71	0xbe53fe7b	-0.20702545
72	0xbd8d4a48	-0.06898934
73	0xbd481eec	-0.048857614
74	0x3e55542d	0.20832892
75	0x3f1937d3	0.59850806
76	0xbeac8ce8	-0.33701253
77	0x3e0c4944	0.13699824
78	0xbf1970e9	-0.5993791
79	0xbf171448	-0.5901532
80	0x3eb212df	0.34780023
81	0x3ea706be	0.3262233
82	0xbecf91ce	-0.40540928
83	0xbea8c017	-0.32959053
84	0x3d1b3e20	0.037901044
85	0xbf1a8362	-0.60356724
86	0x3f1956cc	0.59898067
87	0xbe440b14	-0.19144851
88	0x3e0c991d	0.13730283
89	0x3f1424fd	0.5786894
90	0xbedf5122	-0.43616587
91	0x3ed93aa8	0.42427564
92	0xbe82105b	-0.25403103
93	0xbe1cf91d	-0.15329404
94	0x3f10a399	0.5649963
95	0xbd9b96d4	-0.075971276
96	0xbb3734ce	-0.0027955058
97	0x3d0fe1c1	0.035127405
98	0x3f2f0f3c	0.6838262
99	0x3f1719ce	0.5902375
100	0xbec99831	-0.39373925
101	0xbe7ed29d	-0.2488503
102	0xbea6395e	-0.32465643
103	0x3ebd7687	0.37004492
104	0xbe840aca	-0.2578948
105	0xbde6b32e	-0.112646446
106	0xbec4b866	-0.38421935
107	0xbf2e3429	-0.6804834
108	0xbe99c44d	-0.30032578
109	0x3ed4d28e	0.4156689
110	0xbef7864c	-0.48344648
111	0xbf06e468	-0.5269227
112	0xbe507c49	-0.20359911
113	0x3eb0b144	0.34510243
114	0xbf08ae3b	-0.53390855
115	0xbe45e165	-0.19324262
116	0x3e8dbe57	0.2768428
117	0xbd6af53b	-0.057362776
118	0xbea60cb3	-0.32431564
119	0xbf1b3292	-0.6062404
120	0x3e5e7b8b	0.21726815
121	0x3de23ee7	0.11047154
122	0x3f1c509a	0.6106049
123	0x3f208308	0.6269994
124	0xbe85646d	-0.2605318
125	0x3de3b9b6	0.11119406
126	0x3f0a1b0d	0.53947526
127	0x3ddd87b6	0.108169004

_net.0.bias f4 [32]
0	0x3d0fe76b	0.035132807
1	0x3ce57975	0.028012017
2	0x3d3b80fe	0.045777313
3	0xbec3d3a8	-0.38247418
4	0xbc49589f	-0.012289195
5	0x3e69f166	0.22845992
6	0x3e808021	0.25097755
7	0xbe0f5cee	-0.14000294
8	0x3ecd03a1	0.4004183
9	0x3e6f46b1	0.2336681
10	0xbe16a6dd	-0.14712091
11	0xbea17432	-0.31533962
12	0x3e811abf	0.25215718
13	0x3e969a2f	0.29414508
14	0xbea01328	-0.31264615
15	0x3ec66b5e	0.3875379
16	0x3e67a5d0	0.22621846
17	0x3ed4f0fc	0.41590106
18	0xbda18ade	-0.07887815
19	0x3db6f30f	0.089330785
20	0x3e6a78c5	0.22897632
21	0xbeb4f123	-0.35340223
22	0x3e8028f5	0.25031248
23	0xbe681d6b	-0.22667472
24	0xbefb8bea	-0.49130183
25	0x3e01e00f	0.12683128
26	0xbdf3b2c8	-0.11899334
27	0x3ec4fbb5	0.38473287
28	0x3edbdb87	0.42940924
29	0x3ef08551	0.46976712
30	0xbe84e6f3	-0.2595745
31	0x3e849c4a	0.2590049

_net.2.weight f4 [32, 32]
0	0x3d7ca9b3	0.061685275
1	0x3e1f1f2e	0.15539238
2	0x3b8ff879	0.004393634
3	0xbe2d9c2d	-0.16954108
4	0x3d8b1ce4	0.0679262
5	0x3ea09ffd	0.3137206
6	0x3de01e7c	0.109433144
7	0xbe953725	-0.29143634
8	0x3d1f97f6	0.03896328
9	0xbd17eeb8	-0.037092894
10	0x3b55fd5b	0.0032652232
11	0xbe901225	-0.28138843
12	0xbd864d89	-0.065577574
13	0x3de52c5c	0.111901015
14	0xbdbc5616	-0.09196107
15	0xbe1ab745	-0.15108974
16	0xbd636573	-0.05551667
17	0xbcf91501	-0.030405523
18	0xbe45f8ce	-0.19333193
19	0x3eb435fc	0.35197437
20	0xbdab684f	-0.08369505
21	0x3d4a1863	0.049339663
22	0x3cdd913c	0.027046792
23	0x3e07d65b	0.13265364
24	0xbe68ac9c	-0.22722095
25	0xbd248a5b	-0.04017101
26	0x3e84eb51	0.25960782
27	0x3e2bd383	0.16779904
28	0x3d8c4967	0.06849938
29	0x3e26b009	0.1627809
30	0xbd25b8f8	-0.040459603
31	0x3c51913e	0.012790976
32	0xbd4892b8	-0.048968047
33	0xbe199012	-0.14996365
34	0x3dedbc72	0.11608209
35	0xbd646f21	-0.055770043
36	0xbde04e7d	-0.109524705
37	0xbe8f37e0	-0.27972317
38	0x3d48e1d7	0.049043503
39	0x3e055904	0.13022238
40	0x3da00956	0.07814281
41	0x3e082a3a	0.13297358
42	0x3d9ad2d8	0.075597465
43	0x3df1c745	0.11805586
44	0x3da7a891	0.08186448
45	0x3dc2bf05	0.0950909
46	0xbbfd1431	-0.0077233543
47	0x3dfd1a2b	0.12358507
48	0x3db74e1c	0.08950445
49	0x3d994670	0.07484138
50	0x3d5ce88f	0.053932723
51	0xbd8265bb	-0.0636706
52	0xbe38d507	-0.18050013
53	0x3c2e4f5a	0.010639036
54	0xbc350a7b	-0.011049862
55	0xbe3ca563	-0.18422465
56	0x3e61f00b	0.22064225
57	0xbd0e34c7	-0.0347183
58	0xbe90ca1d	-0.282792
59	0xbd9d33c0	-0.07675886
60	0xbda54582	-0.08069898
61	0xbe67a6e5	-0.22622259
62	0x3e1cb378	0.15302837
63	0xbe14abf8	-0.14518726
64	0xbd29561d	-0.04134189
65	0x3db66f83	0.08907988
66	0xbe37a96d	-0.17935725
67	0xbe1e66a1	-0.15468837
68	0x3d0a126a	0.033708967
69	0x3cb43452	0.021997605
70	0x3dd264b1	0.102731116
71	0xbe1b1897	-0.15146099
72	0xbd360423	-0.04443754
73	0x3e2fbc26	0.17161617
74	0xbd88004e	-0.06640683
75	0x3d9224ae	0.07135902
76	0xbd0f828b	-0.035036605
77	0x3dab59c7	0.08366733
78	0x3c0bb2f1	0.00852655
79	0x3d9337dd	0.071883895
80	0x3e2da172	0.16956118
81	0x3d57d2da	0.052691318
82	0xbde8b123	-0.11361911
83	0x3d3f8cf4	0.046765283
84	0xbc4f8b28	-0.012667455
85	0x3b882eab	0.004155954
86	0xbce90b53	-0.028447783
87	0xbda622f1	-0.08112133
88	0x3bbaa725	0.0056961947
89	0xbd183fdd	-0.03717028
90	0x3e4b4796	0.19851527
91	0x3de389c0	0.11110258
92	0x3e46f1ff	0.19428252
93	0xbd7d3c0c	-0.061824843
94	0xbd6130af	-0.05497807
95	0x3da404ad	0.08008704
96	0xbd52fe6d	-0.05151217
97	0x3e55ddf3	0.20885448
98	0xbcb90196	-0.022583764
99	0xbe683cfe	-0.22679517
100	0x3e85ffee	0.2617182
101	0x3e78889e	0.24270865
102	0x3e67a6fa	0.2262229
103	0xbd75f0d8	-0.06004414
104	0x3dea603c	0.114441365
105	0x3e32b80b	0.1745302
106	0x3d3ed416	0.04658898
107	0x3d909f99	0.07061691
108	0xbe2054e9	-0.1565739
109	0xbd74c01d	-0.059753526
110	0xbe040d65	-0.12895735
111	0x3e086d5a	0.13322964
112	0xbd876ecc	-0.0661293
113	0xbd95bf0f	-0.07311832
114	0xbe1e94e2	-0.15486482
115	0x3e327369	0.17426838
116	0xbdfe7280	-0.12424183
117	0x3bd54f19	0.0065096733
118	0xbe064355	-0.13111623
119	0xbda03387	-0.07822328
120	0xbd2736dd	-0.040823806
121	0xbd573865	-0.052544016
122	0x3d394189	0.045228515
123	0x3e828333	0.25490722
124	0x3daff711	0.08592046
125	0x3de3d081	0.11123753
126	0xbe360031	-0.1777351
127	0x3e50f528	0.2040602
128	0x3dd48da5	0.10378579
129	0x3e699b85	0.22813232
130	0xbe42f6ab	-0.19039409
131	0xbe1dd1ab	-0.15412013
132	0xbd94b560	-0.07261157
133	0x3e33f387	0.17573367
134	0xbd4839ff	-0.048883434
135	0xbe92c5cc	-0.28666532
136	0x3e3fb615	0.18721803
137	0xbe1f38ef	-0.15549062
138	0xbbf496e9	-0.007464279
139	0x3daa298c	0.08308706
140	0xbcb6917f	-0.022286175
141	0xbde24437	-0.11048167
142	0xbd746ef9	-0.059676144
143	0xbd963d46	-0.07335906
144	0x3d883607	0.0665093
145	0xbc8c3556	-0.017115276
146	0xbd51f1d6	-0.051256023
147	0x3ca29286	0.019845258
148	0x3e29f983	0.16599087
149	0xbe509246	-0.20368299
150	0x3e3a041e	0.18165633
151	0x3d705290	0.058672488
152	0x3d7593e0	0.059955478
153	0xbd109915	-0.03530224
154	0x3e4e6c4c	0.201585
155	0x3e679309	0.22614683
156	0x3dedc4d8	0.116098106
157	0xbcb5e092	-0.02220181
158	0xbe64def6	-0.22350678
159	0x3e26aa24	0.16275841
160	0xbd6beded	-0.05759995
161	0x3e2fac3d	0.17155547
162	0xbd971092	-0.073762074
163	0xbc6b59e9	-0.014364698
164	0xbc8bcd3f	-0.017065642
165	0xbd9e5c35	-0.07732431
166	0xbe0e86c7	-0.13918601
167	0x3d97535f	0.07388949
168	0xbdde3df3	-0.108516596
169	0xbd0b6e09	-0.034040485
170	0xbcf6ddd5	-0.030135075
171	0x3e5f3331	0.21796872
172	0xbd7f03dd	-0.062259544
173	0xbe27a5ec	-0.16371888
174	0xbd570b0c	-0.05250077
175	0x3c8163bc	0.015794627
176	0xbcf8a70d	-0.030353094
177	0xbd1d01f5	-0.038331944
178	0x3c765017	0.015033743
179	0xbe0f7d03	-0.14012532
180	0x3d41274a	0.04715661
181	0x3e4bdc93	0.19908361
182	0xbb492949	-0.0030694774
183	0x3e35c663	0.1775146
184	0xbddf40bb	-0.10901018
185	0xbde723b0	-0.11286104
186	0x3e5a92fa	0.2134513
187	0xbdd784b9	-0.10523362
188	0xbd81125d	-0.06302331
189	0x3c53021a	0.012878919
190	0x3dd2391c	0.10264799
191	0xbe91c45d	-0.28470126
192	0xbb372872	-0.0027947691
193	0xbe20377f	-0.1564617
194	0x3e7059f5	0.23471816
195	0x3e609d15	0.21934922
196	0xbe0319ae	-0.12802765
197	0x3d588d68	0.05286923
198	0xbe16ac5c	-0.14714187
199	0x3dbe76a8	0.09299976
200	0xbc4f5565	-0.012654637
201	0x3e29a018	0.16564977
202	0x3d7b7166	0.061387442
203	0xbdd2dda3	-0.1029618
204	0x3dc2904d	0.095001794
205	0x3dc35b47	0.09538894
206	0x3e525f8b	0.20544259
207	0xbe016588	-0.12636387
208	0xbdc029e9	-0.09382994
209	0xbdf481ce	-0.11938821
210	0x3e5b9971	0.21445252
211	0xbe14bdc8	-0.14525521
212	0xbc7b48ff	-0.015337228
213	0xbc6331cb	-0.013866852
214	0x3d97f374	0.07419482
215	0x3d84e898	0.06489676
216	0xbcda4dfa	-0.02664851
217	0xbe2f381b	-0.17111246
218	0xbe5e180c	-0.2168886
219	0xbdcd9825	-0.10038785
220	0x3d6ffbcf	0.058589753
221	0xbde81a86	-0.11333184
222	0x3e91cfc3	0.28478822
223	0x3c67b203	0.014141562
224	0x3df840f7	0.12121766
225	0x3e56181e	0.20907637
226	0xbe07bd56	-0.1325582
227	0xbe323255	-0.17402013
228	0xbd40e76f	-0.047095712
229	0x3e47305f	0.19452046
230	0x3e3eee1b	0.18645518
231	0xbea27c68	-0.3173554
232	0x3e337ebd	0.17528816
233	0xbd676617	-0.056493845
234	0xbd916787	-0.070998244
235	0x3ddf16fb	0.10893055
236	0xbe189bc5	-0.14903171
237	0x3b57b22f	0.0032912602
238	0xbe0af3a2	-0.13569501
239	0xbe01ab2d	-0.12662955
240	0xbd3281cf	-0.043580826
241	0x3db8f246	0.09030585
242	0xbe0a8029	-0.13525452
243	0x3d8b0af7	0.06789201
244	0x3e09d52d	0.13460226
245	0xbde4418c	-0.111453146
246	0xbe3acf60	-0.1824317
247	0xbd9b34ba	-0.07578416
248	0xbe694065	-0.22778471
249	0x3dedd309	0.116125174
250	0x3e5574df	0.20845364
251	0x3df5b8b6	0.119981214
252	0xbcf61838	-0.030040845
253	0xbcc3a1c2	-0.023880843
254	0xbcfe5469	-0.03104611
255	0x3e2a21b9	0.16614427

_net.2.bias f4 [32]
0	0xbdaa121f	-0.083042376
1	0xbe544201	-0.20728303
2	0x3e22591a	0.15854302
3	0x3c871553	0.01648966
4	0x3e68692c	0.2269637
5	0x3d1e39b5	0.038629252
6	0xbe19cae5	-0.15018804
7	0xbd198a39	-0.037485335
8	0xbd5022ab	-0.050814312
9	0xbe3da0a8	-0.18518317
10	0x3b441f2e	0.002992581
11	0x3dd28424	0.1027911
12	0x3e784cd7	0.24248062
13	0x3d4fe362	0.05075396
14	0x3e237c4a	0.15965381
15	0x3e31f825	0.17379816
16	0x3cf7d488	0.03025271
17	0x3c48a89b	0.01224723
18	0xbdcfab70	-0.10140121
19	0x3e08e875	0.13369925
20	0x3d37a66a	0.04483644
21	0x3d65b944	0.056084886
22	0x3c0601ad	0.0081791105
23	0xbdb94739	-0.09046788
24	0x3d26feae	0.040770225
25	0xbdc1bb3e	-0.09459542
26	0xbe26e0c9	-0.16296686
27	0xbe4e8d5f	-0.20171116
28	0xbd336585	-0.04379799
29	0xbd17d8e9	-0.037072096
30	0xbc8a2ed2	-0.016868029
31	0xbd3d56df	-0.046225425

_net.4.weight f4 [32, 32]
0	0x3d075383	0.033038627
1	0xbdfd6089	-0.12371928
2	0x3ca9654c	0.020678185
3	0xbdf2c1f9	-0.118534036
4	0xbd934a9c	-0.07191965
5	0xbe2db011	-0.16961695
6	0xbdcefdf1	-0.10107029
7	0x3e27c0d0	0.16382146
8	0x3b000d43	0.0019539155
9	0xbd89e8cc	-0.067338556
10	0x3e35ea50	0.17765164
11	0xbe9f1923	-0.31073865
12	0x3d5f92f6	0.054583512
13	0x3e229520	0.15877199
14	0x3df576df	0.119855635
15	0x3d5044ec	0.05084698
16	0x3d32eaf0	0.043681085
17	0x3d5809df	0.05274379
18	0xbe340b92	-0.17582539
19	0x3e502691	0.20327212
20	0x3cfc899d	0.030827338
21	0x3e374577	0.17897592
22	0xbe76397f	-0.2404537
23	0x3d67555c	0.05647789
24	0x3e8a49a9	0.27009323
25	0x3a219ae3	0.00061647425
26	0xbd48b297	-0.04899844
27	0xbd044c4d	-0.03229933
28	0xbb101e03	-0.0021990545
29	0x3e0f0dab	0.13970058
30	0xbdcb7795	-0.09934918
31	0xbe9c6f4d	-0.30553666
32	0xbe751845	-0.2393504
33	0xbe1ff892	-0.15622166
34	0xbe0272ba	-0.12739077
35	0xbdf18d16	-0.11794488
36	0x3acf14c5	0.0015799036
37	0x3c8c923c	0.017159574
38	0x3e8f59c5	0.27998176
39	0xbdc72d0b	-0.09725388
40	0x3e019c70	0.12657332
41	0x3d5dab88	0.054118663
42	0x3db9e414	0.090767056
43	0x3e7dbe34	0.24779588
44	0xbd946b08	-0.07246977
45	0xbe88e202	-0.2673493
46	0xbdba85e5	-0.091075696
47	0x3d71ec69	0.05906335
48	0x3c67e4eb	0.014153699
49	0xbdc6088b	-0.09669598
50	0x3de65065	0.11245803
51	0xbd7a83ea	-0.06116096
52	0x3e55d517	0.20882069
53	0xbe446a59	-0.19181193
54	0x3de08707	0.109632544
55	0xbdbab0c8	-0.091157496
56	0xbd5cd742	-0.053916223
57	0x3d425af2	0.047450013
58	0xbc8be53f	-0.017077086
59	0x3e906823	0.2820445
60	0xbd058546	-0.032597803
61	0xbe075caa	-0.13218942
62	0xbcc64ebe	-0.02420747
63	0x3e51e040	0.20495701
64	0x3d0d4c9e	0.034496896
65	0xbd1ca0b4	-0.038239196
66	0xbdd1e46c	-0.10248646
67	0x3d66d4b7	0.056355204
68	0xbe1cf597	-0.1532806
69	0x3ddf8f3c	0.10915992
70	0x3e00ec71	0.12590195
71	0xbdc65f1e	-0.09686111
72	0x3e1c277b	0.15249436
73	0x3dcf8a5c	0.10133812
74	0xbdb102d1	-0.08643115
75	0x3e7e4482	0.24830821
76	0x3c9cec16	0.019155543
77	0xbd18cfa4	-0.037307397
78	0xbea594b2	-0.32340008
79	0xbe1eff7f	-0.15527152
80	0x3e41f5bd	0.18941398
81	0xbe400fc8	-0.1875602
82	0xbdbe01c3	-0.0927768
83	0x3b195e64	0.0023402208
84	0x3e2f9f0f	0.1715052
85	0xbe80c875	-0.25152937
86	0x3e0cdb47	0.13755523
87	0xbce2db22	-0.027692381
88	0xbe29a3b4	-0.16566354
89	0xbd901254	-0.07034746
90	0x3d5c1e93	0.053740095
91	0x3e7b3835	0.2453316
92	0x3d6ff942	0.05858732
93	0xbc7efc5a	-0.015563095
94	0x3dc3c372	0.095587626
95	0x3e80d003	0.251587
96	0xbdea77e1	-0.11448646
97	0x3dfc95d3	0.12333264
98	0xbe294b9b	-0.16532747
99	0xbcaa4afa	-0.020787705
100	0x3d3d72ce	0.046252064
101	0x3d80b5bd	0.06284664
102	0x3d0ad7d5	0.03389724
103	0xbc6c0ad3	-0.014406878
104	0x3e5f8c17	0.21830784
105	0x3e412489	0.18861593
106	0x3d988613	0.07447448
107	0x3e2ec382	0.17066768
108	0x3d63cdb6	0.055616103
109	0xbe2185f5	-0.15773757
110	0xbdc8e917	-0.09810083
111	0xbe0469df	-0.12931012
112	0x3e693a2e	0.227761
113	0x3de5aed7	0.11214989
114	0xbe06cadf	-0.13163327
115	0xbe022762	-0.12710336
116	0x3df8ac88	0.12142283
117	0xbd33a975	-0.04386278
118	0x3e43cf22	0.19121984
119	0x3df0d20e	0.11758815
120	0xbe6465b1	-0.22304417
121	0x3d9fe456	0.078072235
122	0x3d80b3f3	0.062843226
123	0x3e077527	0.13228284
124	0xbe2052c0	-0.15656567
125	0xbe256a71	-0.16153885
126	0xbdc89351	-0.097937234
127	0x3e2cc853	0.16873293
128	0x3dc97fed	0.09838853
129	0xbe2d0368	-0.1689583
130	0xbd91c9a3	-0.07118537
131	0xbc6b883a	-0.014375741
132	0x3c9c92e6	0.019113015
133	0x3dab7475	0.08371822
134	0xbdb87450	-0.0900656
135	0x3e7eb963	0.24875407
136	0xbe40c4b3	-0.18825035
137	0x3da2ae62	0.07943417
138	0x3e50c199	0.20386352
139	0xbea04f9b	-0.31310734
140	0x3e2a9f3d	0.16662307
141	0x3e3226fe	0.17397687
142	0x3d8efadd	0.06981442
143	0x3e133e7d	0.14379306
144	0xbe211d14	-0.15733749
145	0x3de5d2d8	0.11221856
146	0x3d633073	0.055466127
147	0x3e6f2e11	0.23357417
148	0xbe002e2d	-0.12517615
149	0x3b901272	0.00439673
150	0xbcb80e65	-0.022467801
151	0xbe451dab	-0.19249599
152	0x3e010bf6	0.12602219
153	0x3d92713b	0.07150503
154	0xbe0817a0	-0.13290262
155	0xbe37702b	-0.17913882
156	0xbdbaca14	-0.091205746
157	0x3e74baac	0.23899335
158	0x3e239993	0.15976553
159	0xbdb6ed7d	-0.08932016
160	0xbe04caca	-0.12967983
161	0xbdff8505	-0.12476543
162	0xbb833325	-0.0040038996
163	0xbe2cf7d6	-0.16891417
164	0xbe02ae76	-0.12761864
165	0xbcc862fa	-0.024461258
166	0xbd77f1a1	-0.06053317
167	0x3ceae4b7	0.028673513
168	0x3db0c43b	0.08631178
169	0x3e031eed	0.12804766
170	0x3c1c90bb	0.009555991
171	0x3e54e8a8	0.20791876
172	0x3d630540	0.05542493
173	0xbe09eece	-0.13470003
174	0xbe8c85f8	-0.2744596
175	0xbdd04c43	-0.10170796
176	0x3e612d4a	0.21989933
177	0xbd7c43ce	-0.0615881
178	0x3c145d7a	0.00905549
179	0x3c5b53ee	0.01338671
180	0x3d80a9b8	0.06282371
181	0xbde55227	-0.1119731
182	0x3d15990b	0.036522906
183	0x3d89653a	0.067087606
184	0xbd911945	-0.07084898
185	0xbe2e6c35	-0.17033465
186	0x3c851a5b	0.016247919
187	0xbd0ff712	-0.035147734
188	0xbcc8477b	-0.024448147
189	0x3d8d04c2	0.06885673
190	0xbd6e6c17	-0.05820855
191	0x3e7553b4	0.23957711
192	0x3e4646bc	0.1936292
193	0x3d7ca1cb	0.061677735
194	0xbd98b29c	-0.07455942
195	0x3e3bb432	0.18330458
196	0x3d402d16	0.046917997
197	0xbb00a6db	-0.0019630704
198	0xbde6232d	-0.11237178
199	0x3e2f1462	0.17097619
200	0x3d95baaf	0.07310998
201	0xbde53dae	-0.11193405
202	0x3df4edb5	0.119594015
203	0xbe211e2f	-0.1573417
204	0x3e1f672d	0.15566702
205	0x3e2901f8	0.16504657
206	0x3cfafa11	0.03063682
207	0x3d9ce15d	0.07660172
208	0xbd981ab7	-0.074269705
209	0x3c827c39	0.015928375
210	0xbe1bf5fe	-0.15230557
211	0x3c80d89c	0.015728287
212	0x3c990890	0.01868084
213	0x3d37b232	0.044847675
214	0xbe137e32	-0.14403608
215	0xbd82f903	-0.063951515
216	0x3e45dd30	0.19322658
217	0x3d1d5c66	0.038418196
218	0x3c7f28d2	0.015573697
219	0xbdf0862b	-0.117443405
220	0x3e12fe1b	0.14354746
221	0xbda57cb2	-0.08080424
222	0x3dde35bf	0.10850095
223	0xbe8f7255	-0.28016916
224	0xbd8f6183	-0.07001021
225	0xbcac9b0b	-0.021070024
226	0xbc4a88df	-0.012361734
227	0x3df22e86	0.1182528
228	0x3c47f42e	0.012204213
229	0xbe380f6b	-0.17974631
230	0xbd13f24b	-0.03611974
231	0x3d63c13d	0.05560421
232	0xbc986238	-0.018601522
233	0xbe0771ea	-0.13227049
234	0x3e56a63f	0.20961855
235	0xbe790618	-0.24318731
236	0x3d9baa1b	0.076008044
237	0x3e3a6b29	0.18204941
238	0x3e069a51	0.13144805
239	0x3e2ae98c	0.16690654
240	0xbe7854fd	-0.2425117
241	0x3e437aa6	0.19089755
242	0xbd22fec4	-0.039793745
243	0xbdca9649	-0.09891946
244	0xbae3f977	-0.0017393072
245	0x3e19f99e	0.15036628
246	0xbdfa453c	-0.12220237
247	0xbd0eea5d	-0.034891475
248	0x3de5793a	0.11204763
249	0xbdf0510a	-0.11734207
250	0x3caf7265	0.021416852
251	0xbe883043	-0.2659932
252	0x3c87910a	0.016548652
253	0xbd9917fc	-0.07475278
254	0xbe3146fd	-0.17312236
255	0xbe9505fe	-0.29106134

_net.4.bias f4 [32]
0	0x3ddc76f7	0.10764878
1	0x3dc79216	0.097446606
2	0x3d5db1cd	0.054124642
3	0x3d426f56	0.04746946
4	0x3bcf9fda	0.0063361945
5	0xbd94d5cc	-0.07267341
6	0xbd86ced0	-0.06582415
7	0x3d997bcb	0.07494315
8	0x3e2822fe	0.16419598
9	0xbe26a794	-0.16274863
10	0x3e29d629	0.16585602
11	0x3d43a6e6	0.04776659
12	0xbe2dfcfd	-0.16991039
13	0xbe3e71fa	-0.18598166
14	0xbdf3def6	-0.11907761
15	0x3d63b15a	0.055589058
16	0xbcc41fd7	-0.023940964
17	0xbd87f08a	-0.06637676
18	0xbcc50991	-0.024052413
19	0x3dd262bd	0.10272739
20	0x3dede1ef	0.11615359
21	0x3de6995b	0.11259719
22	0xbdbae302	-0.091253296
23	0x3d2665d0	0.04062444
24	0x3e039861	0.12851097
25	0x3c4294e8	0.011876322
26	0xbc325b14	-0.0108859725
27	0x3de5a710	0.11213505
28	0xbe26b7c7	-0.16281043
29	0xbc568893	-0.013094085
30	0xbdd41db3	-0.10357227
31	0x3e0de7a1	0.1385789

_net.6.weight f4 [2, 32]
0	0x3e8013f4	0.25015223
1	0xbe5d8025	-0.21630915
2	0xbdf2ab8c	-0.11849126
3	0xbd3413cd	-0.043964196
4	0x3c8b9c56	0.01704232
5	0xbe1a35c3	-0.15059571
6	0x3e15fc30	0.14646983
7	0x3e8d42be	0.27589983
8	0x3e09efd9	0.13470401
9	0xbd077828	-0.033073574
10	0x3e42f06b	0.19037025
11	0xbe11d0a7	-0.14239751
12	0xbe5deaa5	-0.21671541
13	0xbdddd6f9	-0.108320184
14	0xbe00d3db	-0.12580816
15	0x3e435d3e	0.19078538
16	0x3e54a2de	0.20765254
17	0xbe343452	-0.17598084
18	0xbc4daa40	-0.012552798
19	0xbe5b0419	-0.21388282
20	0x3e0ed84f	0.13949703
21	0xbd5216cb	-0.05129127
22	0x3d0388dc	0.03211294
23	0x3e0417d3	0.12899713
24	0x3e23b0c6	0.15985402
25	0xbbc85408	-0.006113533
26	0xbe190f77	-0.14947306
27	0x3d18dc43	0.037319433
28	0x3d92e9cb	0.07173499
29	0xbe338cc6	-0.1753417
30	0x3e826f6a	0.25475627
31	0x3d998e83	0.07497885
32	0x3c946bdf	0.018117843
33	0x3d3b3436	0.04570409
34	0x3e0cdc2c	0.13755864
35	0x3e4b36ec	0.1984517
36	0xbe7ea083	-0.24865918
37	0xbbc119c5	-0.0058929645
38	0xbb513f23	-0.0031928502
39	0xbe6fec46	-0.23429975
40	0xbc455513	-0.012044209
41	0x3e0fbd2c	0.14037007
42	0xbd297cc8	-0.041378766
43	0x3d081517	0.033223238
44	0x3e1f7e42	0.15575507
45	0x3df551d0	0.11978495
46	0x3d93ff9b	0.07226487
47	0xbdbcd035	-0.092194
48	0x3d855326	0.0651
49	0x3b7adf58	0.0038280096
50	0x3e133fd1	0.14379813
51	0x3c55003c	0.013000544
52	0xbdb434a6	-0.087991044
53	0xbe84e1ac	-0.25953424
54	0xbe34341d	-0.17598005
55	0xbce441d0	-0.027863413
56	0xbd7a9862	-0.06118048
57	0xbdf094d0	-0.11747134
58	0x3ea977cf	0.3309922
59	0x3d46198e	0.048364215
60	0x3e5f28aa	0.21792856
61	0x3e7d09de	0.24710795
62	0xbe6db031	-0.23211743
63	0xbe30499d	-0.17215581

_net.6.bias f4 [2]
0	0xbd7c8bca	-0.06165675
1	0x3dbd7249	0.09250314
