playground/classic_controls/discrete/cartpole/pg/model.pth (torch, 20295 bytes, 6 tensors)

net.0.weight f4 [64, 4]
0	0x3ec91f90	0.39281893
1	0x3ed74186	0.42042178
2	0x3bb1af30	0.0054224953
3	0xbe222fcc	-0.15838546
4	0x3f01ae8a	0.5065695
5	0x3ea3fe5b	0.32029995
6	0x3f0e91c7	0.5569119
7	0x3c5e4bab	0.013567845
8	0x3e271a35	0.16318591
9	0xbe6578a8	-0.22409308
10	0xbf0c4a1c	-0.5480058
11	0xbefad991	-0.48994115
12	0xbd6cabb8	-0.05778095
13	0x3ec60ba6	0.38680762
14	0xbf1f3452	-0.6218921
15	0xbf0039b9	-0.5008808
16	0xbed57de2	-0.41697603
17	0xbec61e63	-0.38695058
18	0xbe732661	-0.23745109
19	0xbe257cfb	-0.16160958
20	0xbdfb6497	-0.12275045
21	0xbe4b5e34	-0.19860154
22	0xbdef5b89	-0.11687381
23	0x3da256ab	0.07926687
24	0xbed52ae6	-0.4163429
25	0xbe295808	-0.16537488
26	0xbee8cc95	-0.45468584
27	0xbe938e15	-0.28819337
28	0x3e90526b	0.2818788
29	0x3d05d5bf	0.032674547
30	0x3ee59fe0	0.44848537
31	0x3e029a3e	0.12754151
32	0x3ea3ee9e	0.32017988
33	0x3e3883d2	0.18019035
34	0xbe8ce69c	-0.2751969
35	0xbeb21458	-0.34781146
36	0x3ee49442	0.44644362
37	0xbecfe353	-0.40603122
38	0xbf08d5c1	-0.5345116
39	0x3de79d31	0.11309279
40	0xbe8edfed	-0.27905217
41	0xbdd9c35c	-0.10632965
42	0xbf04e0e6	-0.5190567
43	0xbe17cdf7	-0.14824663
44	0x3ecb8429	0.39749268
45	0x3e118e40	0.1421442
46	0x3d32cd3d	0.04365276
47	0xbe823896	-0.25433797
48	0x3e85d59a	0.26139528
49	0xbe4f5e33	-0.20250778
50	0xbbebc97a	-0.0071956487
51	0x3e8618f8	0.26190925
52	0x3cb9ca93	0.022679603
53	0xbe574f56	-0.21026358
54	0x3e8f79c9	0.28022602
55	0x3ec6eb29	0.38851288
56	0x3eaccb66	0.3374893
57	0xbe46e5e1	-0.1942363
58	0xbe744f48	-0.23858368
59	0xbf0e4343	-0.55571383
60	0xbdcd0d4b	-0.10012301
61	0x3e19f937	0.15036474
62	0xbd4fdf33	-0.05074997
63	0xbe9fdafe	-0.31221765
64	0x3e94cb03	0.29061136
65	0x3eb5cd33	0.35508117
66	0xbec5dfbc	-0.38647258
67	0xbdebfd1d	-0.11522887
68	0xbeeacb64	-0.458583
69	0xbdc8aa60	-0.097981215
70	0x3eb15c25	0.34640613
71	0x3eec278a	0.46123916
72	0x3ebb0136	0.3652436
73	0x3ee00f49	0.43761662
74	0x3ea7b6ba	0.32756597
75	0x3f0816b0	0.5315962
76	0xbc6afc18	-0.01434233
77	0x3e766ac8	0.24064171
78	0xbe27707b	-0.16351502
79	0xbd458268	-0.04822007
80	0xbee48ef5	-0.44640318
81	0x3d202713	0.039099764
82	0x3f0e5b9a	0.5560852
83	0x3e1183f9	0.142105
84	0x3e3e9c26	0.18614253
85	0x3e4cce93	0.20000677
86	0x3e806f14	0.25084746
87	0xbe83d7ce	-0.25750583
88	0xbd2c51d8	-0.04207024
89	0xbe518fc0	-0.20464993
90	0xbf18a2c4	-0.5962336
91	0xbece2603	-0.40263376
92	0xbaea862c	-0.001789277
93	0x3d6e9319	0.058245752
94	0xbf16f799	-0.58971554
95	0xbeb82e1e	-0.35972685
96	0xbec26a08	-0.3797152
97	0x3e6bdd97	0.23033749
98	0xbec93287	-0.39296362
99	0x3ec91f81	0.39281848
100	0xbe15dcea	-0.14635053
101	0x3d957345	0.072973765
102	0xbf0c0b9e	-0.54705226
103	0xbf055c74	-0.520942
104	0xbe48a288	-0.19593251
105	0xbd350caa	-0.04420153
106	0x3e968550	0.29398584
107	0xbeef8b48	-0.4678595
108	0xbe8377f4	-0.25677454
109	0x3e6d2ecc	0.23162383
110	0x3ee89a48	0.45430207
111	0x3ea726e5	0.32646862
112	0xbdf9ed2c	-0.1220344
113	0x3ecddef4	0.40209162
114	0x3ea8c017	0.32959053
115	0xbec9c9aa	-0.3941167
116	0x3bb5af1b	0.005544556
117	0xbeab4fd4	-0.33459342
118	0x3e11cd05	0.14238365
119	0x3e425177	0.18976389
120	0x3eefd179	0.46839502
121	0xbe44530d	-0.19172306
122	0xbe840671	-0.25786164
123	0x3ee5649b	0.44803318
124	0xbed38d61	-0.413188
125	0xbe7f8876	-0.249544
126	0xbebf3cac	-0.37350976
127	0x3ea825bd	0.32841292
128	0xbe029cc9	-0.12755121
129	0x3ea9cc28	0.3316357
130	0xbe1b6626	-0.15175685
131	0xbf040960	-0.51576805
132	0x3c6dc239	0.014511638
133	0xbefb7c5d	-0.4911832
134	0xbef1baae	-0.47212738
135	0xbf0f53be	-0.55987155
136	0x3dbb45a6	0.09144144
137	0xbf03034e	-0.5117692
138	0x3d239688	0.03993848
139	0xbf057d1e	-0.5214404
140	0xbb6201a4	-0.0034485841
141	0x3df85b2e	0.12126766
142	0x3eed4dae	0.46348327
143	0x3efd0493	0.49417552
144	0xbe53a65d	-0.20668931
145	0x3e1280e7	0.14306985
146	0x3e99effa	0.300659
147	0xbefb8391	-0.49123815
148	0xbeaaa1cc	-0.33326566
149	0x3ee38c15	0.44442812
150	0xbefb19cf	-0.49043128
151	0xbda94a02	-0.08266069
152	0xbe5f9ebf	-0.218379
153	0x3e7070c7	0.23480521
154	0x3e3ab1d3	0.18231897
155	0x3d995104	0.07486156
156	0x3e93d414	0.2887274
157	0xbdc94283	-0.09827139
158	0xbf0aec09	-0.5426641
159	0xbe8a3e45	-0.27000633
160	0xbef076e9	-0.4696572
161	0xbe8ca6ba	-0.27470952
162	0xbedb52c6	-0.4283659
163	0xbeccec11	-0.40023854
164	0x3e97c7db	0.29644665
165	0x3dafad5a	0.08577986
166	0xbe39931d	-0.18122526
167	0x3ec00b83	0.37508783
168	0xbd3529f2	-0.044229455
169	0x3ee8e6ed	0.45488682
170	0x3e0353f1	0.1282499
171	0x3d341714	0.04396732
172	0xbe70c046	-0.23510846
173	0x3dd94767	0.10609322
174	0xbebd5475	-0.36978498
175	0x3ed12b16	0.40853184
176	0xbea75903	-0.32685098
177	0x3a30d99f	0.0006746295
178	0xbe6c3dfb	-0.23070519
179	0x3ea456ea	0.3209756
180	0x3e1f6c06	0.15568551
181	0xbedf5571	-0.43619874
182	0x3f1a8b75	0.60369045
183	0x3df38e6c	0.11892399
184	0xbe9cbb9d	-0.30611888
185	0x3ec5b08b	0.38611254
186	0x3efd292d	0.49445477
187	0x3f074bb0	0.52849865
188	0xbeb9422b	-0.36183295
189	0x3ec06531	0.37577203
190	0x3da8cb03	0.082418464
191	0xbdf3265e	-0.11872552
192	0x3e09d5e2	0.13460496
193	0xbec3d502	-0.3824845
194	0x3c0c8bd9	0.008578264
195	0xbdb0a721	-0.08625627
196	0xbdc8ccb1	-0.09804667
197	0x3db7a3be	0.08966778
198	0xbf1c9fc2	-0.6118127
199	0xbe01be25	-0.1267019
200	0xbd37f864	-0.044914618
201	0x3e4f8fd9	0.20269717
202	0x3e14e1c9	0.14539255
203	0x3eb85ad7	0.36006805
204	0x3d318112	0.04333598
205	0x3ed9d91d	0.42548457
206	0xbe9fd084	-0.31213772
207	0xbdb9c1c7	-0.09070163
208	0x3ee890b7	0.4542291
209	0x3d5297a4	0.051414147
210	0x3eb22bb1	0.3479896
211	0x3ed67127	0.41883203
212	0xbed4b480	-0.4154396
213	0x3ed57663	0.41691884
214	0xbe339c01	-0.1753998
215	0xbe0e3828	-0.1388861
216	0xbd9d94ea	-0.07694419
217	0x3e63e458	0.22255075
218	0xbf0195c7	-0.5061917
219	0xbe8caee0	-0.2747717
220	0xbe730b9c	-0.23734897
221	0x3e806bd3	0.25082263
222	0xbcbf2623	-0.023333615
223	0x3dfd67b9	0.12373299
224	0xbe097326	-0.13422832
225	0x3d93eb55	0.072226204
226	0x3ee14089	0.4399455
227	0x3e87a3f3	0.2649227
228	0x3e83d317	0.25746986
229	0x3ed574d6	0.416907
230	0x3e981099	0.29700163
231	0x3ec39097	0.3819625
232	0xbe9160b0	-0.2839408
233	0xbe6202cf	-0.22071384
234	0x3e468561	0.19386818
235	0x3eb24d9c	0.34824836
236	0x3e1f1da2	0.15538648
237	0xbee8dbba	-0.45480138
238	0xbdc49bb0	-0.096000075
239	0x3e64ae26	0.22332057
240	0x3e28905e	0.16461322
241	0xbebbf54c	-0.36710584
242	0x3e270f37	0.16314398
243	0xbe016f33	-0.12640075
244	0xbe2667ed	-0.16250582
245	0xbe3323d9	-0.17494144
246	0xbda50bbc	-0.08058879
247	0xbdcb8d77	-0.09939092
248	0x3d2a3858	0.04155764
249	0xbef4eb14	-0.478356
250	0xbf17765b	-0.5916497
251	0xbe81f089	-0.25378826
252	0x3e352577	0.17690073
253	0x3e8e7e8b	0.2783092
254	0xbe61b860	-0.2204299
255	0xbeb32a89	-0.3499339

net.0.bias f4 [64]
0	0x3e985181	0.29749683
1	0xbd783b56	-0.060603462
2	0xbe0e7180	-0.13910484
3	0xbc4464e5	-0.011986946
4	0xbe477c80	-0.19481087
5	0xbe5a38fc	-0.213108
6	0xbe6eea3c	-0.23331541
7	0xbe81523f	-0.2525806
8	0x3e9d120f	0.3067784
9	0x3d48e0b6	0.049042426
10	0x3d1a7458	0.03770861
11	0x3eb1cebe	0.34728044
12	0x3ec33636	0.38127297
13	0xbd4b46ff	-0.049628254
14	0xbec012aa	-0.3751424
15	0x3ebb8039	0.36621264
16	0x3eac0057	0.3359401
17	0x3efd969a	0.49528962
18	0x3dcfc9ff	0.101459496
19	0xbe6a686f	-0.22891401
20	0x3e4598e5	0.19296606
21	0xbeea1b7f	-0.45724103
22	0xbd783b2a	-0.0606033
23	0x3eacfe5b	0.33787808
24	0x3d0a727e	0.033800595
25	0x3d68c45f	0.0568279
26	0xbed2e543	-0.41190538
27	0xbeb83dd7	-0.3598468
28	0xbed645d5	-0.41850153
29	0x3e9627cb	0.29327235
30	0xbe07fd1b	-0.13280146
31	0xbd75c4a1	-0.060001973
32	0x3d6e6a28	0.058206707
33	0x3eceeba2	0.4041415
34	0xbedaffd3	-0.42773303
35	0x3d9f46af	0.07777154
36	0xbed62452	-0.41824585
37	0x3ea94ee1	0.33067992
38	0xbee4436b	-0.44582686
39	0xbe08f8bf	-0.13376139
40	0xbdba4431	-0.09095038
41	0xbdc22806	-0.0948029
42	0xbeca7a2b	-0.39546332
43	0xbe5f513a	-0.21808329
44	0x3d7f9981	0.062402252
45	0x3ec46c2c	0.3836378
46	0xbec6b7b6	-0.38812035
47	0x3e6826d5	0.22671063
48	0xbe22bc61	-0.15892173
49	0x3e557d8e	0.20848677
50	0xbdd4294c	-0.10359439
51	0xbe66e93c	-0.2254991
52	0xbeeeda4a	-0.46650916
53	0xbef4bc93	-0.4780012
54	0x3e855a52	0.2604547
55	0xbe8b1b4a	-0.27169257
56	0xbd3c0343	-0.045901548
57	0xbeadcd5c	-0.3394574
58	0x3ea79dc0	0.3273754
59	0x3e4797f0	0.19491553
60	0x3efa5002	0.48889166
61	0x3ed3ce1d	0.4136819
62	0xbe7f21f3	-0.24915294
63	0xbcf53e71	-0.029937001

net.2.weight f4 [64, 64]
0	0xbdc2fb12	-0.09520544
1	0xbde96b90	-0.11397469
2	0x3e0ec320	0.13941622
3	0xbd8e8000	-0.06958008
4	0x3cd58c9e	0.026068028
5	0xbdb98c8a	-0.09060009
6	0xbd0ac328	-0.03387752
7	0xbdb00fe1	-0.08596779
8	0x3da48b29	0.08034355
9	0xbccf04f5	-0.025270918
10	0x3ad4c574	0.0016233162
11	0x3dca5d2d	0.09881053
12	0xbdc1c698	-0.09461707
13	0xbe0c037e	-0.13673207
14	0xbd2c6102	-0.0420847
15	0x3dd8530c	0.10562715
16	0x3dafc4c4	0.08582452
17	0xbe073553	-0.13203935
18	0xbe1b8bf3	-0.15190105
19	0x3d8da914	0.06917015
20	0xbd4d969c	-0.05019246
21	0xbcbc0277	-0.022950394
22	0x3e2fe84f	0.17178462
23	0xbd109170	-0.03529495
24	0xbe1bfa90	-0.15232301
25	0xbb8581b3	-0.0040742992
26	0xbdae60c3	-0.085145496
27	0x3c2fffdc	0.010742154
28	0xbd1e9c28	-0.03872314
29	0x3d273b66	0.04082813
30	0xbe10bde7	-0.14134942
31	0x3dc4911e	0.095979914
32	0x3c4d5e25	0.012534653
33	0x3c9affc8	0.018920794
34	0xbd84dd7d	-0.06487558
35	0xbdd6678a	-0.10468967
36	0x3dbcfa99	0.09227485
37	0x3cd9096c	0.02649375
38	0x3dad6bdc	0.08467838
39	0x3c57c805	0.013170247
40	0xbce0db97	-0.027448459
41	0x3c001eeb	0.007819871
42	0xbd27dc8c	-0.040981814
43	0x3da3f50a	0.08005722
44	0xbd6f7e46	-0.058470033
45	0xbe0ec55c	-0.13942474
46	0xbd2b4284	-0.04181148
47	0xbd6191ea	-0.055070795
48	0x3de77b24	0.11302784
49	0x3b3f5bd2	0.0029199016
50	0xbd825f86	-0.06365876
51	0xbaeadf8a	-0.0017919403
52	0xbd1d9b0e	-0.03847795
53	0x3d83925d	0.06424401
54	0x3d8b0990	0.06788933
55	0xbde4866d	-0.11158452
56	0xbe20d82c	-0.15707463
57	0x3bcc4fdd	0.0062351064
58	0xbb264b26	-0.0025374382
59	0x3bcca5b6	0.00624534
60	0x3dc29a88	0.09502131
61	0x3d61c531	0.055119697
62	0x3e2f59fc	0.1712417
63	0x3e0f2ce0	0.13981962
64	0xbd2dfb03	-0.04247571
65	0x3d9df0e0	0.07711959
66	0x3e4252cb	0.18976896
67	0x3d84a292	0.0647632
68	0xbc40bbd2	-0.01176353
69	0xbd3502bf	-0.044192072
70	0x3d9a69a4	0.075396806
71	0x3d73e356	0.059542976
72	0xbb82ee52	-0.003995695
73	0xbd21634c	-0.039401338
74	0x3c039feb	0.008033733
75	0xbb12197e	-0.0022293027
76	0xbc9f86e7	-0.019473506
77	0xb8cf61c0	-9.8887365e-05
78	0x3da5ab76	0.08089344
79	0x3d28c4c7	0.041203286
80	0x3dcae817	0.09907549
81	0xbd9087aa	-0.07057126
82	0xbdadde1c	-0.084896296
83	0x3d85baca	0.06529768
84	0xbdcc8ce6	-0.09987812
85	0x3d693d02	0.056942947
86	0x3e5021fb	0.20325463
87	0xbc5365c4	-0.012902681
88	0xbdd32a7c	-0.103108376
89	0x3e43ffc9	0.19140543
90	0x3dc3facf	0.09569322
91	0x3d0a6642	0.033788927
92	0x3e0209bf	0.1269903
93	0xbdb30036	-0.087402746
94	0xbd4972e2	-0.049181826
95	0x3d64eb15	0.055888254
96	0x3de07051	0.10958923
97	0xbc4f945c	-0.012669649
98	0xbbd03a85	-0.0063546323
99	0xbe50d918	-0.20395315
100	0x3d5fc3e4	0.054630175
101	0xbbfc084d	-0.007691419
102	0xbcf6cf0f	-0.03012803
103	0xbce356b6	-0.027751308
104	0x3da1f118	0.07907313
105	0xbcac6864	-0.021045871
106	0x3d38a9e6	0.045083903
107	0xbdbdde42	-0.09270908
108	0xbd85e3c4	-0.065375835
109	0x3ace4d8c	0.0015739664
110	0xbce6cd77	-0.028174145
111	0xbd414a2d	-0.04718988
112	0x3e00a7ec	0.12564057
113	0x3d2056bc	0.039145216
114	0xbd6880c1	-0.056763414
115	0xbbcc88b8	-0.006241884
116	0x3d8cee57	0.06881397
117	0xbdec0c37	-0.11525767
118	0x3cfacf00	0.030616283
119	0xbd414d5c	-0.047192916
120	0xbe4eb257	-0.20185219
121	0x3bb25437	0.005442168
122	0x3dc052a3	0.09390762
123	0xbcaf6275	-0.021409253
124	0x3d3db708	0.04631713
125	0xbc5a4928	-0.013323106
126	0xbc72322b	-0.014782469
127	0x3dffabb4	0.12483922
128	0xbbdba4a3	-0.006702976
129	0xbd761a59	-0.06008372
130	0x3dc89432	0.09793891
131	0x3cb1b995	0.021694938
132	0x3d53f9fc	0.051752076
133	0x3c3db2ee	0.011578305
134	0x3df9e3b3	0.12201633
135	0x3ce8e547	0.02842964
136	0x3dd00d62	0.101588026
137	0x3d444747	0.047919538
138	0xbc2b09d2	-0.010439353
139	0xbd35ba86	-0.044367336
140	0x3dad806f	0.084717624
141	0xbdf663d3	-0.12030759
142	0x3e34c66b	0.17653815
143	0xbd94bbb2	-0.072623625
144	0x3dd1990f	0.10234272
145	0xbd5beb71	-0.05369133
146	0xbd9bbe3d	-0.076046444
147	0xbdc6dab8	-0.09709686
148	0xbd9f833c	-0.07788703
149	0x3d074949	0.033028875
150	0x3c4deac5	0.01256818
151	0x3e226c0a	0.15861526
152	0xbdaa905e	-0.08328317
153	0x3e38fe31	0.18065716
154	0x3dfdb669	0.123883076
155	0xbdde00ba	-0.10839982
156	0x3dcea32a	0.10089715
157	0xbd06244e	-0.032749467
158	0xbe03e7f0	-0.12881446
159	0xbd63acdb	-0.05558477
160	0xbd343683	-0.0439973
161	0x3e3456a4	0.17611176
162	0x3d701d05	0.058621425
163	0x3c6e4af9	0.014544242
164	0xbcf44354	-0.02981726
165	0xbd8e2080	-0.06939793
166	0x3c6f9e5f	0.014625161
167	0x3e41db38	0.18931282
168	0x3e11e2c6	0.14246663
169	0x3d2c44ce	0.042057805
170	0x3cda29ea	0.026631314
171	0xbe0f1f74	-0.13976842
172	0xbdfbccaf	-0.122949
173	0xbdde8e81	-0.10867024
174	0x3cda2d50	0.026632935
175	0xbb33967e	-0.0027402933
176	0xbd6ac259	-0.05731425
177	0xbcbff549	-0.02343239
178	0xbe1e0b11	-0.15433909
179	0x3dc05534	0.09391251
180	0xbdea1bbd	-0.11431072
181	0xbb17ca32	-0.002316129
182	0x3d5d96e3	0.054098975
183	0xbdd632a6	-0.10458879
184	0xbe3a95fd	-0.18221278
185	0xbb97afd1	-0.0046291132
186	0x3d2c00d5	0.04199298
187	0x3df55080	0.11978245
188	0x3c99ef3e	0.018790837
189	0x3d30701b	0.043075662
190	0xbd07a480	-0.033115864
191	0x3d153895	0.036430914
192	0xbdce88a1	-0.10084654
193	0xbd121ac7	-0.035670068
194	0x3d0515b8	0.032491416
195	0xbdaac84a	-0.08338983
196	0x3d6279c0	0.05529189
197	0xbddcf588	-0.10789019
198	0xbc32e735	-0.010919382
199	0x3defa063	0.11700513
200	0xbd95b646	-0.073101565
201	0x3c53639d	0.012902168
202	0xbe07067c	-0.13186067
203	0x3b2cb7ed	0.0026354745
204	0x3d90d682	0.07072164
205	0x3e1e7f77	0.15478311
206	0xbe146ac4	-0.14493853
207	0xbd60cce8	-0.054882914
208	0xbc5bc90f	-0.013414635
209	0x3dc302dd	0.095220305
210	0x3d0ab5cf	0.033864792
211	0xbc11f0f1	-0.008907543
212	0xbc483e05	-0.012221818
213	0x3dd85d5f	0.10564684
214	0x3c096e39	0.008388096
215	0x3c0dcc24	0.008654628
216	0xbd476527	-0.04868045
217	0xbda7e347	-0.081976466
218	0x3d834933	0.06410446
219	0x3dc6a746	0.096998736
220	0x3d30ea5d	0.043192256
221	0x3ca16893	0.019703185
222	0x3def406c	0.11682209
223	0x3c24bef3	0.0100552915
224	0x3c3baf08	0.011455305
225	0xbddfc051	-0.10925353
226	0x3ccd34c6	0.025049578
227	0xbbf8ccfc	-0.0075927954
228	0x3da7f69a	0.082013324
229	0x3d6d08bf	0.05786967
230	0x3c87589f	0.01652175
231	0x3d4ad1d6	0.04951652
232	0xbe349210	-0.17633843
233	0x3d364c8d	0.0445066
234	0x3d83cbb2	0.06435336
235	0x3dbdd2a2	0.09268691
236	0x3db73292	0.089451924
237	0xbd77e179	-0.06051776
238	0xbd3912e2	-0.045184024
239	0x3d662a53	0.056192707
240	0x3d9c82ea	0.076421574
241	0xbe20939d	-0.1568131
242	0xbd07e1e3	-0.033174407
243	0xbd6cecb4	-0.057842925
244	0x3d6d233d	0.057894934
245	0xbda68511	-0.08130849
246	0xbe1f06f9	-0.15530004
247	0x3c8610ba	0.016365398
248	0xbcefa079	-0.029251324
249	0x3e2f0626	0.17092189
250	0x3d62ff40	0.055419207
251	0xbde0d5bb	-0.10978266
252	0xbcef68bf	-0.029224752
253	0x3d8561e2	0.0651281
254	0xbda05cda	-0.0783021
255	0x3d35e7b1	0.04441041

net.2.bias f4 [64]
0	0x3ddbadb8	0.107264936
1	0x3d8f80f3	0.07007017
2	0x3bf48af4	0.0074628536
3	0xbc9b93dc	-0.018991403
4	0x3cc0f86f	0.023555962
5	0xbdb070aa	-0.08615239
6	0xbb64703a	-0.0034856931
7	0x3dad2362	0.08454014
8	0xbc79dcd6	-0.015250405
9	0xbbce334c	-0.006292736
10	0x3d4852fb	0.04890726
11	0x3caaf988	0.020870939
12	0x3d00ce26	0.0314466
13	0xbd140572	-0.036138006
14	0x3ce41ee7	0.027846767
15	0x3dc9e371	0.09857834
16	0xbd75902f	-0.059951957
17	0x3d3a6330	0.04550475
18	0xbdc406ed	-0.095716335
19	0x3cbecbc1	0.023290517
20	0x3d14d9f9	0.036340687
21	0x3dab7931	0.08372725
22	0x3ca8dc5f	0.020612894
23	0x3c1c9a20	0.009558231
24	0xbd5fc1e5	-0.05462827
25	0x3d7bca5f	0.061472293
26	0xbd6a6638	-0.05722639
27	0xbdbff3ac	-0.093726486
28	0x3daa47b4	0.083144575
29	0xbd9dbb2c	-0.07701716
30	0xbd26a043	-0.04068018
31	0x3cbb68c2	0.0228771
32	0x3ddcdcba	0.10784288
33	0xbd811fee	-0.06304918
34	0xbdb7f93b	-0.08983084
35	0xbd8d0922	-0.068865076
36	0x3d88ab8e	0.066733465
37	0x3d8e1230	0.06937063
38	0xbccc7910	-0.02496007
39	0xbd8db9e0	-0.069202185
40	0xbc9119be	-0.01771247
41	0xbcffe7f5	-0.031238535
42	0xbd76ff8a	-0.060302295
43	0xbce33090	-0.027733117
44	0x3da2e45c	0.07953712
45	0x3d642753	0.055701565
46	0x3d08b56d	0.033376146
47	0x3de8e697	0.113721065
48	0x3d750e00	0.059827805
49	0x3da6cd8a	0.08144672
50	0x3db1b845	0.08677725
51	0x3d8c26db	0.068433486
52	0xbccbe483	-0.024889236
53	0x3d975121	0.07388521
54	0xbaf91f27	-0.0019006477
55	0xbb2ee22b	-0.00266851
56	0x3dd8e701	0.105909355
57	0xbd720db6	-0.059095107
58	0xbd8a388e	-0.06749068
59	0xbcea5347	-0.028604163
60	0xbd2d3303	-0.042284977
61	0xbdb3fcc1	-0.08788443
62	0xbdbf433c	-0.09338996
63	0x3d4cd8e0	0.050011516

net.4.weight f4 [2, 64]
0	0x3d0552a7	0.032549527
1	0x3e2519c3	0.16123109
2	0x3e1854b0	0.14876056
3	0xbd85ae88	-0.0652743
4	0xbd146427	-0.036228325
5	0xbe072e2a	-0.13201204
6	0x3e319bf2	0.17344645
7	0xbbc9223d	-0.0061381147
8	0x3e3071f4	0.1723097
9	0xbdf301c4	-0.11865571
10	0xbe2e4909	-0.17020048
11	0x3ddaff04	0.106931716
12	0x3cd4dcf1	0.02598426
13	0x3d27cde5	0.04096784
14	0xbbd13166	-0.0063840626
15	0x3d5bc9f8	0.05365941
16	0xbdc045d2	-0.09388317
17	0xbde1d0d1	-0.11026157
18	0x3cc6832d	0.024232471
19	0x3e231858	0.15927255
20	0xbcfbfaed	-0.0307593
21	0xbdc4224b	-0.09576853
22	0xbd7c70c2	-0.06163097
23	0xbdd77fa1	-0.1052239
24	0xbbf195a8	-0.0073725767
25	0x3d333898	0.043755144
26	0x3db95c83	0.09050848
27	0x3dfb3ff3	0.12268057
28	0x3da3948d	0.07987318
29	0xbe0c48e2	-0.13699678
30	0xbde93339	-0.11386723
31	0x3db7ec1c	0.08980581
32	0x3dc11cc7	0.09429317
33	0x3e24c303	0.16090016
34	0x3d0d1a65	0.034449
35	0x3e25473b	0.16140454
36	0xbdf9bfc1	-0.12194777
37	0x3dc1c810	0.09461987
38	0xba88d263	-0.0010438677
39	0x3e45560f	0.1927111
40	0xbc63f066	-0.013912296
41	0x3ad2bcaf	0.0016077961
42	0x3c883c91	0.016630443
43	0xbda673e5	-0.08127574
44	0x3e0c6e4d	0.13713951
45	0x3e2a9166	0.16657028
46	0x3dff1c56	0.124565765
47	0xbc13401e	-0.008987455
48	0x3e217fe1	0.15771438
49	0x3e130ac4	0.14359576
50	0xbe18cdc3	-0.14922242
51	0xbe0107e5	-0.12600668
52	0xbd944ba2	-0.07240988
53	0xbdada3a9	-0.08478481
54	0xbcacdf58	-0.021102592
55	0x3d8aad81	0.067713745
56	0xbbcccb7e	-0.006249844
57	0x3da22adf	0.07918333
58	0x3dc27fd1	0.09497035
59	0x3cc8ec97	0.024526877
60	0xbd870fd2	-0.06594814
61	0x3dbc9eac	0.09209952
62	0x3dc24c1d	0.09487174
63	0x3e1a10f7	0.15045534
64	0xbdb90df1	-0.09035862
65	0xbc742aaf	-0.014902755
66	0x3c7f0b4d	0.015566659
67	0x3dc13fd1	0.09436
68	0x3cefa9e8	0.029255822
69	0xbd5e27d0	-0.054237187
70	0xba2d6d96	-0.0006615756
71	0x3e0af815	0.13571198
72	0x3c46a69f	0.0121246865
73	0x3e16cf67	0.14727555
74	0x3b4175b2	0.0029519615
75	0xbd81791a	-0.063219264
76	0x3e4d0f86	0.20025453
77	0xbe3002ab	-0.17188518
78	0xbe1ff908	-0.15622342
79	0xbe49ba93	-0.19700079
80	0x3d229217	0.039690103
81	0x3d3c305d	0.04594456
82	0xbe109f30	-0.14123225
83	0xbe205c24	-0.15660149
84	0x3e2ea5c8	0.17055428
85	0xbcb8de4a	-0.022566933
86	0x3e176587	0.14784823
87	0x3e09e5c4	0.13466555
88	0x3d93042f	0.07178532
89	0x3debe49b	0.115182124
90	0xbe065f75	-0.13122351
91	0xbe2a6134	-0.16638643
92	0xbe172b2b	-0.14762561
93	0x3e372d6f	0.17888425
94	0x3e259e0b	0.1617357
95	0xbe63c34a	-0.22242466
96	0xbd0498b0	-0.032372177
97	0xbe541c1c	-0.20713848
98	0xbdd9404d	-0.106079675
99	0x3d44f87c	0.048088536
100	0x3dc7ff4f	0.09765493
101	0xbd0eac79	-0.03483245
102	0x3e48281f	0.19546555
103	0xbe39eac6	-0.18155965
104	0xbe14fd15	-0.14549668
105	0x3d672dbd	0.056440104
106	0x3defcbc1	0.11708785
107	0x3db61a73	0.088917635
108	0xbdd4e75d	-0.103956915
109	0xbe4ccf58	-0.2000097
110	0xbe1878b4	-0.14889795
111	0x3df4682b	0.11933931
112	0xbdc54342	-0.09631969
113	0xbcae2944	-0.021259911
114	0x3e53ff5f	0.20702885
115	0x3d8b394b	0.06798037
116	0x3dd8db8f	0.105887525
117	0x3de3c495	0.111214794
118	0x3ca075b7	0.01958738
119	0xbd09f432	-0.03368015
120	0xbd91c48c	-0.071175665
121	0xbe0642f6	-0.13111481
122	0xbdca0c55	-0.098656334
123	0x3e1d80bf	0.15381144
124	0x3e38f79b	0.18063204
125	0xbda32fd1	-0.07968105
126	0xbe1667dd	-0.14688058
127	0xbe3f419c	-0.18677372

net.4.bias f4 [2]
0	0x3d9af157	0.07565563
1	0x3dc29e6d	0.095028736
