playground/classic_controls/mountaincarcontinouus/a2c/model.pth (torch, 4795 bytes, 7 tensors)

actor.0.weight f4 [64, 2]
00000000: 802c d2bd f688 993e d56b 7abe 1b45 e33e
00000010: ab0f c3be 6a1f b43e a50a 54bf d4c5 01bf
00000020: 0a06 bfbe 2e41 90be 1040 303e 2ab2 e63e
00000030: 88d7 4f3d 990d a43e 3924 0fbf 1b51 0d3f
00000040: 9192 8cbe d5f4 ca3e cdc2 1bbf fbe2 f9be
00000050: 8021 743e 3c0b 0cbe 1ccf 03bf d005 56be
00000060: d1dd 5cbf bf34 213f 10b7 6f3e a11a 023f
00000070: 06d4 c63e 5456 b4be b1ab 213e 62fc 11bf
00000080: a17f b83e 4d0f 13bf dc4e 7dbe 32a9 ac3e
00000090: a2c8 0f3f 8a6c 27bc c8ac 8a3d 3277 8f3e
000000a0: 9739 83be a4ae 09be 3609 bb3e f0a6 f3be
000000b0: 3268 90be d515 d43e 7dc1 22bf 1a6d cf3e
000000c0: ff28 39be 7e36 9b3d 29e8 2fbe d344 1bbe
000000d0: cb2f 4bbf 1aef f63e b08d eebd 6839 503e
000000e0: 0d7e 62bf aa73 86be 041f 92bd 88a7 773e
000000f0: 8514 5fbe 48e2 033f 4d15 dfbe 36ab 97be
00000100: d8a8 b1be ab8c d43e 46dc 1abf a395 aebc
00000110: ce1f a7be 00a1 10be 51d1 0b3e ce03 0abf
00000120: 4a79 c73e 9d74 003f 4966 0d3f 00dc 703c
00000130: 3fa4 c8bd f2b8 c4be d0c0 7f3d 3df5 08bf
00000140: 460f 0a3f 7c33 19bf 950a 1a3f 78c5 82bd
00000150: e385 143f eac0 cf3e 042c a53e a896 febe
00000160: 7d4b 283f feb8 c13e fb8e 56bf 36bb 3ebf
00000170: 2048 f2be 28f0 1bbe 22d4 41be 3d75 1b3f
00000180: fb3d f5be 9229 e4bd 87f3 0d3f 2d54 14be
00000190: a205 803e e4e7 00bf 610d 37bf eb12 33bf
000001a0: bc54 15bf 672c 263e 60eb 4ebe b490 6e3e
000001b0: ec73 e3be 159c 0d3e e037 d33d 697a e63d
000001c0: 00a5 fa3d 0a55 f13e 165c e23e ec9e 51be
000001d0: d0ba 8c3e 5863 58be 2da8 2a3f 80c9 113c
000001e0: 5c18 813e 47b5 ca3e b8b0 a8be 07f2 d1be
000001f0: 34cd 583e 727c a63e 9520 8dbe b811 d73e
-0.10262394 0.29987305 -0.24455197 0.4438866 -0.3809789 0.35180217 -0.8282874 -0.50692487
-0.37309295 -0.28174728 0.17211938 0.45057803 0.050742656 0.32041624 -0.55914646 0.5520188
-0.2745557 0.39639917 -0.6084412 -0.48805985 0.23840904 -0.1367616 -0.514879 -0.20900655
-0.86275965 0.6297111 0.23409677 0.5082188 0.38833636 -0.35222113 0.15788151 -0.5702573
0.36034873 -0.5744522 -0.24737114 0.33722836 0.56165516 -0.010218749 0.06771237 0.28020626
-0.25629875 -0.13445526 0.36530465 -0.475883 -0.28204495 0.41422907 -0.6357649 0.40512925
-0.18082045 0.07578753 -0.17178406 -0.15162973 -0.793698 0.48229295 -0.116481185 0.20334399
-0.8847359 -0.2626012 -0.07134822 0.24185002 -0.21785171 0.5151715 -0.4357094 -0.2962281
-0.3469913 0.4151357 -0.6049236 -0.021311587 -0.32641453 -0.14123917 0.13654067 -0.53912055
0.38959724 0.5017794 0.552342 0.01470089 -0.097969525 -0.38422352 0.06243974 -0.53499204
0.53929555 -0.59844184 0.60172397 -0.063853204 0.58016795 0.4057687 0.32260144 -0.49724317
0.65740186 0.3783645 -0.8381192 -0.7450441 -0.47320652 -0.15228331 -0.18928578 0.60725766
-0.4789885 -0.111407414 0.5544972 -0.14485236 0.25004297 -0.50353837 -0.7150479 -0.6995074
-0.5833242 0.16227876 -0.20206976 0.23297387 -0.4442438 0.13829072 0.10313392 0.11253817
0.122385025 0.47135192 0.4421088 -0.2047078 0.27486277 -0.21131647 0.66662866 0.008898139
0.25213897 0.3959143 -0.32947326 -0.41004965 0.21172029 0.3251682 -0.2756392 0.42005706

actor.0.bias f4 [64]
00000000: b9e5 aabe 15a1 453f 777a 0d3f 0886 333f
00000010: 2300 df3e 6487 18be d13f ef3e b0b1 4e3f
00000020: fa49 613f 6e87 013f 08d6 b5bd 8a2e 14bf
00000030: 1198 73bc 7a49 4d3f 269c 66be fc2b 0c3f
00000040: 8af0 0c3f 9ef9 d7be 0976 6e3e f0ff abbd
00000050: 2f72 333f e0a2 22bd a783 213f 1688 f8be
00000060: 4e9b 3e3f caca 003d 16a7 f53d 0418 cdbe
00000070: b9a5 1d3e 0530 0f3f 0217 c63e 7a31 b93e
00000080: 439c 023f 58a4 b1bd 8769 093f d757 5f3d
00000090: 90cb 37be 3c15 4fbe c7ee 153f 11a8 2ebf
000000a0: 99a4 143f d883 e83d 4896 ee3d 61ce 9f3e
000000b0: d11e d8be 8ce6 333f a38b c5be 618a ae3e
000000c0: 0059 173f 32c6 113f 806a e03b 1071 0d3f
000000d0: 5e3e 913e ece4 0ebf cfd4 253f 4da0 173f
000000e0: 1262 ebbe 30f5 693d 3b2a b4be c885 95bd
000000f0: 6055 4d3f eb8a 0f3f a6e2 74be 5f57 333f
-0.3337839 0.77198917 0.5526499 0.7012639 0.43554792 -0.14895397 0.46728376 0.8073988
0.88003504 0.50597274 -0.08878714 -0.5788351 -0.014867798 0.8019024 -0.22520503 0.54754615
0.55054533 -0.4218263 0.23287214 -0.083984256 0.70096105 -0.03970611 0.6309151 -0.48541325
0.74455726 0.031443395 0.1199476 -0.40057385 0.1539525 0.55932647 0.3868943 0.3617056
0.51019686 -0.08673924 0.53676647 0.05452713 -0.17948747 -0.20222944 0.5856747 -0.682252
0.58063656 0.11353272 0.116497576 0.31212142 -0.4221101 0.7027366 -0.38583097 0.3408995
0.5912018 0.5694305 0.0068486333 0.55250645 0.28367895 -0.5581806 0.64777845 0.59228975
-0.4597326 0.057118595 -0.3518847 -0.073009074 0.80208397 0.56071347 -0.23914585 0.7005519

actor.2.weight f4 [2, 64]
00000000: 4c08 4a3d f916 c83b ead2 c43d aaae e2bc
00000010: e32a 813c 3c56 07bd 4491 c13d 71ed 8f3c
00000020: 2db6 253d fe60 69bc b617 e93d 7a14 f83d
00000030: ac22 603d 324d fc3b 705e 1cbd 4f6e c53d
00000040: fd90 693d 7898 fbbc 23c0 873d d4f0 983d
00000050: ed9c 723d 0040 e1bd a3ae 113d cc82 fd3d
00000060: 3c44 88bd 29a6 2abd 17b7 efbd 38a9 dfbc
00000070: 705e 973c c33c f9bd e3a7 093d 1509 ad3d
00000080: c345 1bbd 2ede 913d 8ef5 953c c0cd 6d3d
00000090: 00eb 6fba e013 11bc 8825 fd3c bc85 b6bd
000000a0: 4f04 b0bd 74fb 353d 8446 3f3d f4ef c53d
000000b0: c47e c33d 2eb5 5ebd 3454 2b3d 0768 33bd
000000c0: 4c47 1dbd 1d3f 09bd a231 b7bd c0e6 babb
000000d0: 0706 833d 1000 fb3d abe8 5cbd d8ce e33c
000000e0: 8011 7dbb 8e94 f53d 2ee2 c63d c6ac e8bd
000000f0: bd85 0c3d c880 713d 086a 11bd 112e 05be
00000100: dec1 cdbd 26f6 32be 3f92 71bd e0a9 1dbe
00000110: ce94 82be 50e9 edbd 1309 20be 1f0b 53be
00000120: 19f2 50be 0aa4 78be 300d d9bd 282c 393d
00000130: 08b5 8cbe a384 70be 000c 75bd 31ad 90be
00000140: 1be6 9cbc d06f c03d 4f86 413d 2836 953d
00000150: e938 81be 5885 fe3c e818 3ebe a8f7 d23c
00000160: 5845 e3bd 8e0e 37bd 37a7 48be 78f1 3ebd
00000170: ecdb 60be 1f16 f93b 909c b5bd b17a 08be
00000180: 3a0f 39be d086 83bd 0d78 45bb 50d8 c03d
00000190: 86a9 ed3d d86a 98bc 6371 60be 0034 333b
000001a0: b84b 59bd 60c5 1d3c c0d8 a03b 8842 c53c
000001b0: 30a9 f9bc 0176 34be c0f8 e03d 7b4d 15be
000001c0: ccfe 21bd e56d 4a3c 40b2 4dbd 5b40 edbd
000001d0: bd45 0f3c 3e87 e53d 26c4 2dbe 5a56 dcbb
000001e0: c0f4 533b f0fd 31bd 10e8 d73d e693 a13d
000001f0: d3c5 39be 5830 1bbd b695 fc3d e996 85be
0.04932432 0.006106254 0.09610541 -0.027671177 0.01576752 -0.033041224 0.09451535 0.017569276
0.04045694 -0.014244316 0.113814756 0.121132806 0.054720566 0.007699632 -0.038176 0.0964018
0.057023037 -0.030712351 0.06628444 0.07467809 0.059231687 -0.10998535 0.035566937 0.12378463
-0.0665364 -0.04166237 -0.117048435 -0.02730237 0.018477648 -0.121697925 0.033607375 0.08448998
-0.037908327 0.071224555 0.018305566 0.058057547 -0.0009152144 -0.008854836 0.030901685 -0.089122266
-0.08594572 0.044429258 0.04669811 0.09664908 0.09545663 -0.054372005 0.04182835 -0.04380038
-0.038398072 -0.033507455 -0.089450136 -0.005703777 0.06397634 0.12255871 -0.053932827 0.027808592
-0.0038615167 0.11991225 0.09711109 -0.11361079 0.03430723 0.058960706 -0.03550151 -0.13005854
-0.10046743 -0.1747671 -0.05897736 -0.15396833 -0.25504154 -0.116167665 -0.15628462 -0.20609711
-0.20404853 -0.24281326 -0.105982184 0.045208126 -0.27481866 -0.23488097 -0.059825897 -0.28257135
-0.019152692 0.093963265 0.047247227 0.0728572 -0.25238732 0.031069443 -0.18564188 0.025752857
-0.11097211 -0.044691615 -0.19595037 -0.046617 -0.21958894 0.007601514 -0.088677526 -0.13328053
-0.18072215 -0.06422198 -0.003013137 0.09416258 0.116046 -0.018605635 -0.21918254 0.0027344227
-0.053050727 0.009629577 0.004908651 0.024079576 -0.030476183 -0.1762314 0.10984945 -0.14580338
-0.039549634 0.012355302 -0.05021882 -0.115845405 0.008744654 0.11207436 -0.16969356 -0.006724161
0.0032341927 -0.043455064 0.10542309 0.078895375 -0.1814187 -0.0378879 0.123332426 -0.26091698

actor.2.bias f4 [2]
00000000: 2b1c 1ebd f22e 15be
-0.03860108 -0.1456869

critic.0.weight f4 [64, 2]
00000000: cccc 013e e0bd d4bc 1ecd d5be 07d7 0ebf
00000010: 1bcc 90be 9ca4 7d3e 2d2b 81be 1f2f ea3e
00000020: ce8d eabe e52d 34bf 200c d13c b51d 81be
00000030: af1e 5bbc c72a 91be 39c0 ddbe f608 d9be
00000040: f858 ea3e 6b3a 12bf f273 01bf 5551 1abf
00000050: 853d 043f 5a92 033e 42cd a83e 9020 8c3e
00000060: 7339 07bf 402d f7be 96ce b23e 1c1a e3be
00000070: fb85 b4be a974 ca3e 4a26 0fbf 3f2f af3d
00000080: b4ef 20be 0897 26be 9aa9 f63e 7a84 ec3e
00000090: eec6 0f3e e1aa 3abf 41db 95be a04f 29bf
000000a0: 5459 5dbe 008d 6fbb 9e03 413e 0283 933e
000000b0: c73c 80be 3250 273f 2b16 bbbe 817e 17be
000000c0: e438 1dbe 3c02 2d3e e329 383f e225 1c3f
000000d0: 9390 d4be ead6 b33e b830 b6be 0814 b93d
000000e0: f31d 003f b05d f7bd 8be7 1d3f a937 013f
000000f0: 58ed b3bd 4758 053f cc0b 643e a2cc 533e
00000100: f9d8 a83d bde6 d8be 7030 07be 1a78 94be
00000110: 3deb 1f3f 98b6 813e 86df e63e ef18 31bf
00000120: 6a90 9fbe bd83 c0be 4f30 02be 9676 dcbe
00000130: f807 95be 8024 263f 4feb bcbe 683e 203e
00000140: 2cc3 2ebf 034e c93e 4206 b5be 539f fe3e
00000150: 8015 1b3c 5bec 973d 298d 0a3f 61a8 c1be
00000160: 10c2 393d 5001 36bd 787d 243f 077f 013d
00000170: e6f6 31bf fff6 0fbf 0852 663e d0fe 0c3d
00000180: 7532 153f ca96 a23e 9d69 1a3f 1801 7fbe
00000190: 82b5 f33e 5284 a13e 220a 133f 5785 14bf
000001a0: 6d20 91be b46d 843e 696c 31bf 5fc6 ce3e
000001b0: 70c9 efbd 9fac 8dbe 799b 203f 9c9f 383e
000001c0: d78b e43e ddbb 4abe 40d1 e33d a4b1 2dbe
000001d0: 56e6 d93e caf0 f83e 4e00 b23e 7a73 01bf
000001e0: 0a6a d93e 9f97 e3be b1ef 34bf 6aa4 a43e
000001f0: 344a f1be 7b31 773d 2b9e 9c3e c8b2 273f
0.1267578 -0.025969446 -0.41758054 -0.55796856 -0.2828072 0.24769825 -0.25228253 0.45739076
-0.45811313 -0.7038253 0.025518477 -0.25217977 -0.013374015 -0.2835295 -0.43310717 -0.4238965
0.45771003 -0.5712039 -0.50567544 -0.6028035 0.5165637 0.12848797 0.329691 0.27368593
-0.52822036 -0.4827671 0.34923238 -0.44355857 -0.3525847 0.3954213 -0.559178 0.08553933
-0.1571644 -0.16268551 0.4817627 0.46194822 0.1404073 -0.7291699 -0.2926884 -0.66137123
-0.21616107 -0.0036552548 0.18849036 0.2881089 -0.2504637 0.65356743 -0.3654035 -0.14794351
-0.15353733 0.16895384 0.71938914 0.60995305 -0.4151655 0.35124904 -0.35584044 0.09037024
0.500457 -0.12078416 0.6168143 0.50475556 -0.08785504 0.52087826 0.22270125 0.2068353
0.08244509 -0.4236354 -0.13202071 -0.2899788 0.6246832 0.2533462 0.4509241 -0.6917867
-0.31164867 -0.37600508 -0.12713741 -0.43059224 -0.29107642 0.64899445 -0.36898276 0.15648806
-0.6826656 0.3931733 -0.35356337 0.4973093 0.009465575 0.07418128 0.54121643 -0.37823775
0.045351088 -0.044434845 0.6425395 0.031615283 -0.6951736 -0.5623626 0.2249223 0.034422696
0.58280116 0.31755668 0.60317403 -0.24902761 0.47599417 0.31546265 0.57437336 -0.5801596
-0.2834505 0.25864947 -0.69306046 0.4038572 -0.11708343 -0.27670762 0.6273723 0.18029636
0.4463794 -0.19798227 0.11123896 -0.16962296 0.42558545 0.48621207 0.34765857 -0.5056683
0.42463714 -0.44451615 -0.7067824 0.32156688 -0.47126925 0.060349923 0.30589423 0.65507174

critic.0.bias f4 [64]
00000000: 939c 0dbf ad91 c9bd 8ec4 4ebc b90d 0b3c
00000010: 1a69 c6be 7a0e 5ebe 03b6 273f a34c ed3e
00000020: 33e1 033f 0484 30be 0c09 cf3e 3353 2bbf
00000030: 3788 90be c723 84be a5a7 1c3f a2f8 ab3d
00000040: 8d49 a0be 28bd 073e 7ca0 203f 535e f5b9
00000050: 341a 47be 644d a63e 87a2 b13e cb85 383b
00000060: fca8 2abe 76ca e83e 875a e6be a16a 93be
00000070: 5ebc 0cbf 66a8 f1be a71e dcbe 3540 ba3e
00000080: 642a 943d 5de2 45bd c9ca e5be 77be 8fbe
00000090: 193d 993e b6d6 88bd 1db4 063f d502 923e
000000a0: 02c0 f5bb af7c 383e 16e6 023e 0c1b 8a3e
000000b0: 2893 23be 7150 943e 315b 2dbf 9005 39bd
000000c0: 40a2 d53d 34ff 29be f69a 7dbe dcf9 1c3f
000000d0: 847c 9a3e 06e2 b0be f6da 7cbe f0aa 003e
000000e0: 67f7 073e de26 c0be 60e6 bfbd c889 f5bd
000000f0: 0854 45be 8f81 edbe b8b5 263f c971 873e
-0.5531704 -0.098422386 -0.0126201045 0.008487158 -0.3875206 -0.2168521 0.655121 0.46347532
0.515155 -0.1723786 0.4043659 -0.66923827 -0.28228924 -0.25808546 0.61193305 0.08397032
-0.31306115 0.13255751 0.6274488 -0.00046800319 -0.1944359 0.3248092 0.3469431 0.0028155919
-0.16666025 0.45466965 -0.44990942 -0.2879229 -0.54974926 -0.4719879 -0.42992136 0.3637711
0.07234648 -0.04831158 -0.44881275 -0.28075 0.29929426 -0.06681578 0.5261858 0.28517786
-0.0074996958 0.18016313 0.12783083 0.2697376 -0.15974104 0.28967622 -0.6771727 -0.04517132
0.10431337 -0.16601259 -0.24766144 0.61318755 0.30173123 -0.34547442 -0.24692902 0.12565207
0.1327797 -0.37529653 -0.093701124 -0.1198917 -0.19270337 -0.46387908 0.6512103 0.26454

critic.2.weight f4 [1, 64]
00000000: 16f4 c03d af95 403d abbe d5bc 9463 753d
00000010: d258 ccbd ba81 a5bd 25ff 513d fc7b 34bc
00000020: 9527 d0bd ca10 b9bd 4918 dd3d 325b b7bd
00000030: 31f0 10bb a801 953c cc87 dbbc aa1f f7bc
00000040: 2065 d23d 4431 c1bd c9dd 923d dd1b b9bc
00000050: e8b4 ef3c 54cb e2bc dd3b a53d 0a71 8cbd
00000060: c0ba 613d 88f2 0abd 8c38 183d f435 863d
00000070: 7670 bb3d 54aa a53d 42d4 cebd 7429 dfbc
00000080: c62c 23bc c055 41bc b485 2e3d c85a 35bd
00000090: 956e 903d 7848 cabb 2501 c7bd 000e abbc
000000a0: c35b 5f3d dc4b d4bd 8c33 ed3d d8e7 f3bd
000000b0: 2210 9a3d 1a94 853c f2e0 af3d d6b5 ca3d
000000c0: 3cb2 36bd a830 c5bd 84a0 babd 2cb9 6bbc
000000d0: 824d c9bd a423 ec3d 145a 623d c011 67bb
000000e0: f85b e23d 7858 aabc 2af2 e2bd d060 a13d
000000f0: fe6f 8d3d 292d 183d 65f7 bb3d 5a46 e13d
0.09421556 0.04701775 -0.026091894 0.05990942 -0.09977879 -0.08081384 0.051268715 -0.011015888
-0.101638 -0.090364054 0.10795648 -0.08952941 -0.0022115821 0.018189266 -0.026798151 -0.030166466
0.10273194 -0.09433225 0.071712084 -0.022596294 0.029261068 -0.027684845 0.08068059 -0.06857498
0.05510974 -0.033922702 0.037163302 0.065532595 0.091523096 0.08089128 -0.10099079 -0.027241446
-0.009959405 -0.01180023 0.042607978 -0.04427603 0.07052342 -0.0061731897 -0.09717015 -0.0208807
0.05453087 -0.103660315 0.115820974 -0.11909455 0.07522608 0.016305972 0.08587827 0.09897964
-0.04460357 -0.09628421 -0.09112647 -0.01438741 -0.098292366 0.115302354 0.055261686 -0.0035258383
0.11052698 -0.020794138 -0.110813454 0.07879794 0.069061264 0.037152443 0.09178046 0.109997466
