playground/classic_controls/discrete/cartpole/a2c/model.pth (torch, 4039 bytes, 5 tensors)

base.0.weight f4 [64, 4]
0	0xbf1b5533	-0.6067688
1	0xbf8b4f9a	-1.0883667
2	0xc0338c35	-2.8054326
3	0xbf6a647c	-0.91559577
4	0xbfb9ad23	-1.4505962
5	0xbee33675	-0.44377485
6	0xbd6058d5	-0.054772217
7	0xbef96066	-0.4870636
8	0x3dc9bc61	0.098503835
9	0x3f018122	0.50587666
10	0x3d05c25f	0.03265607
11	0x3dffa59d	0.1248276
12	0x40169dcc	2.3533812
13	0x3f21e084	0.6323321
14	0x3f9fe041	1.2490312
15	0x3f41115e	0.75417125
16	0x3fdbbf46	1.7167747
17	0x3f49cf26	0.7883171
18	0x3f495832	0.786502
19	0x3ebffae3	0.374961
20	0x3f226ceb	0.63447446
21	0xbd94fa99	-0.0727436
22	0x3ed6690b	0.41877016
23	0x3ecca9d8	0.3997333
24	0x3dda4abb	0.10658785
25	0x3d3f7168	0.046739012
26	0xbe949057	-0.29016373
27	0x3dc58afc	0.0964565
28	0x3ec8f4c0	0.3924923
29	0xbe765c89	-0.24058737
30	0x3ea4d17c	0.32191074
31	0xbec67093	-0.38757762
32	0x3e90253d	0.2815341
33	0x3f1834e2	0.5945569
34	0x3e755783	0.23959164
35	0xbd976119	-0.07391567
36	0x3e801d19	0.250222
37	0x3eae8415	0.34085146
38	0x3f645363	0.8918974
39	0x3e44d279	0.19220914
40	0x3ee2d3ba	0.4430216
41	0xbe87b378	-0.2650411
42	0xbe00ba0d	-0.12570973
43	0xbe51effc	-0.20501703
44	0xbda059ff	-0.078296654
45	0xbe6204e0	-0.22072172
46	0xbe15a2ca	-0.1461288
47	0xbe5b3615	-0.2140735
48	0x3f939ab1	1.1531583
49	0xbd2c7925	-0.04210772
50	0x3c069a23	0.00821546
51	0xbd8d2a9f	-0.06892895
52	0xbe86eca6	-0.26352423
53	0xbf54de39	-0.83151585
54	0xc00a230f	-2.1583898
55	0xbf987900	-1.1911926
56	0x3ee82e10	0.45347643
57	0x3e878ec4	0.2647611
58	0x3ef5e37d	0.48025122
59	0x3e98989a	0.29803926
60	0x3eef4167	0.46729586
61	0xbf4c99d6	-0.79922235
62	0xc02dd66c	-2.7162123
63	0xbf9d7d3d	-1.2303845
64	0x3f6792ac	0.9045818
65	0xbd31fa4c	-0.043451592
66	0x3f0bc032	0.5459014
67	0x3e8ddd90	0.277081
68	0x3fb1d2c2	1.3892443
69	0x3c017ef6	0.007903805
70	0x3e23c9fb	0.15995018
71	0xbe1ece50	-0.1550839
72	0x3c081841	0.008306564
73	0x3e7e8bab	0.24857967
74	0x3e41cde8	0.18926203
75	0xbdea1649	-0.11430032
76	0x3fda406d	1.7050911
77	0x3edc1d62	0.42991167
78	0x3f48607f	0.7827224
79	0x3ecad9b5	0.39619222
80	0xbcd21b31	-0.025647731
81	0x3d3ded79	0.04636905
82	0x3ec93596	0.39298695
83	0xbd4461b7	-0.04794475
84	0xbe8846ea	-0.26616603
85	0x3c5600bb	0.013061698
86	0xbe07b08f	-0.13250946
87	0x3ec63d25	0.38718525
88	0x3f25a36c	0.64702487
89	0x3e8917b4	0.26775897
90	0xbec7cf87	-0.39025518
91	0x3dba640d	0.091011144
92	0x3e8aed00	0.27133942
93	0x3f2ddbdd	0.6791361
94	0x3efc3689	0.49260357
95	0x3f1b0dc2	0.6056787
96	0x3ef2c354	0.4741465
97	0x3ef27a84	0.47359097
98	0x3fb2901d	1.395023
99	0x3e6d8605	0.23195656
100	0xbf81f207	-1.0151986
101	0xbf13a834	-0.5767853
102	0xbedaa5f9	-0.42704752
103	0xbda9de99	-0.0829441
104	0xbe13224d	-0.14368553
105	0x3e361703	0.17782216
106	0xbe6598ec	-0.22421616
107	0x3d611fa2	0.054961808
108	0xbf9f49de	-1.2444417
109	0xbfd7f07d	-1.6870266
110	0xc02595ab	-2.58726
111	0xbf7ecedd	-0.995344
112	0x401a45ac	2.4105024
113	0x4019e235	2.4044316
114	0x4071125a	3.766745
115	0x3fd6d107	1.678254
116	0xbe2362aa	-0.15955606
117	0x3ecd8a8c	0.40144765
118	0xbe9bfa4e	-0.30464405
119	0x3db52417	0.08844774
120	0x3eca7814	0.39544737
121	0x3da3e0c4	0.08001855
122	0x3f08502e	0.53247344
123	0x3c5f71b6	0.013637951
124	0x3fb1c39c	1.388782
125	0x3cf2f133	0.029656028
126	0xbd4f0390	-0.050540507
127	0xbd9211a1	-0.07132269
128	0x3fc08677	1.5041035
129	0x3f2c3f40	0.6728401
130	0x3f589586	0.84603155
131	0x3fa11739	1.2585212
132	0x3ea3edeb	0.32017455
133	0x3c5ca325	0.013466631
134	0x3f3ae23d	0.7300146
135	0x3f4e8266	0.8066772
136	0x3efac696	0.48979634
137	0xbe8ebf02	-0.27880102
138	0x3deec4d3	0.11658635
139	0x3dd09377	0.10184377
140	0x3ff5b147	1.9194726
141	0x3f11b91c	0.5692308
142	0x3effd882	0.4996987
143	0x3eb1ced1	0.347281
144	0x3f3799e5	0.717192
145	0xbe65d50f	-0.22444557
146	0xbfd30280	-1.6485138
147	0xbecf4dc2	-0.40489012
148	0x3eb0cbca	0.3453048
149	0xbf368f43	-0.7131235
150	0xc0427305	-3.0382702
151	0xbf83c01d	-1.0293003
152	0x3f8e8c26	1.113652
153	0x3e304615	0.17214234
154	0x3f1b62b4	0.60697484
155	0x3f0ec42d	0.5576809
156	0xbcedf271	-0.02904627
157	0x3c9ac2f8	0.018891796
158	0x3e974bc1	0.29549983
159	0xbd863690	-0.06553376
160	0x3f8503a5	1.0391737
161	0x3ec2a6ca	0.38017875
162	0xbcc0d8b9	-0.023540841
163	0x3f08cabe	0.5343436
164	0x3f277c6e	0.6542424
165	0xbe1e00c2	-0.15429977
166	0xbda75dfc	-0.08172223
167	0xbe16417d	-0.1467342
168	0x3eda05be	0.42582506
169	0x3e1b3a6f	0.1515901
170	0xbdaf663e	-0.08564423
171	0x3df94762	0.12171818
172	0x3f1e4428	0.6182275
173	0xbf5cb976	-0.8622049
174	0xc019bbd3	-2.4020889
175	0xbfabbe1e	-1.3417394
176	0x3e0f68a4	0.14004761
177	0xbf4ee136	-0.80812395
178	0xbd267c41	-0.04064584
179	0x3e10f3ad	0.14155455
180	0x3f314d67	0.6925873
181	0xbf0e7705	-0.5565036
182	0xc012b81d	-2.2924874
183	0xbfa041e0	-1.2520103
184	0x3e90bf1a	0.282708
185	0x3f3f63d7	0.7476172
186	0x3f5a8b63	0.8536894
187	0x3f279762	0.65465367
188	0x3d4486bc	0.047980055
189	0x3dce8e90	0.100857854
190	0xbe2c580a	-0.16830459
191	0x3e0fe05b	0.14050429
192	0x3f854c5c	1.0413928
193	0xbe95914e	-0.2921242
194	0xbfd4ce53	-1.6625465
195	0xbf66ff73	-0.90233535
196	0x3db7cc93	0.08974566
197	0xbe7a0450	-0.24415708
198	0xbe06bec3	-0.13158707
199	0xbe94d53c	-0.29068935
200	0x3f5a2c87	0.85224193
201	0x3dae5436	0.08512156
202	0xbf2faecd	-0.686261
203	0xbeea39fe	-0.4574737
204	0x3f4605c4	0.7735255
205	0x3e876dbc	0.26450908
206	0xbeafa769	-0.3430741
207	0xbd93a134	-0.072084814
208	0x3fb56473	1.417128
209	0x3f8bc271	1.0918714
210	0x3fba8ba4	1.4573865
211	0x3edf1386	0.43569583
212	0xbe1ac041	-0.15112402
213	0xbfaff9ca	-1.3748105
214	0xc00d5047	-2.2080247
215	0xbf76cf15	-0.9640973
216	0x3f6ba5a8	0.92049646
217	0xbd814b6c	-0.06313214
218	0xbf31befe	-0.69432056
219	0xbe5a326b	-0.21308295
220	0xbe0c2ca4	-0.13688904
221	0xbf556d6f	-0.8337011
222	0xbfc20b58	-1.5159712
223	0xbee6d79f	-0.4508638
224	0x3f327272	0.6970588
225	0x3f41c904	0.7569735
226	0x3f887316	1.0660121
227	0x3ee84d1b	0.45371327
228	0x3f7a1d34	0.9770081
229	0x3de95ba3	0.113944314
230	0xbeb4ffd7	-0.3535144
231	0x3d16da1a	0.03682909
232	0x3fa98bbb	1.3245767
233	0x3e1eb2af	0.1549785
234	0xbe4abf8d	-0.19799633
235	0x3e064bab	0.13114803
236	0x3f64e43a	0.89410746
237	0x3c6f28b6	0.014597109
238	0x3ed8e48b	0.42361864
239	0x3e0aeecf	0.13567661
240	0x3ea0b8da	0.3139103
241	0xbe864943	-0.2622777
242	0xbf6b4be5	-0.9191268
243	0xbf03c6f0	-0.5147543
244	0x3ddc4cc6	0.10756831
245	0xbf157241	-0.5837746
246	0xbede9374	-0.43471873
247	0xbc09d33e	-0.0084121805
248	0x3e58232a	0.21107164
249	0x3e0f54ea	0.13997236
250	0xbd588c16	-0.05286797
251	0xbd1bd9c5	-0.038049478
252	0x3ed0f039	0.40808275
253	0xbf3be5c4	-0.7339747
254	0xc060a197	-3.5098627
255	0xbf867efe	-1.0507505

base.0.bias f4 [64]
0	0xbe527f83	-0.20556454
1	0xbec16ff5	-0.3778073
2	0x3e842dcd	0.25816193
3	0x3f0bbb97	0.54583114
4	0x3f77ed0a	0.9684607
5	0xbb3b80be	-0.0028610672
6	0x3ec71ada	0.38887674
7	0x3e98a74b	0.29815134
8	0x3f2b4fb8	0.66918516
9	0x3edcf948	0.43158937
10	0xbd0bcd13	-0.03413112
11	0x3d777640	0.060415506
12	0x3f302459	0.6880546
13	0x3ec66e45	0.38756004
14	0xbed732e0	-0.42031002
15	0x3f2cec20	0.675478
16	0x3e465829	0.19369568
17	0x3f769447	0.96320003
18	0xbf3c77c1	-0.7362023
19	0x3f39a111	0.7251139
20	0xbea1bdfb	-0.31590256
21	0xbf755837	-0.9583773
22	0xbee2bcae	-0.44284576
23	0x3ed84cc8	0.4224608
24	0xbd65ebe0	-0.05613315
25	0xbf275496	-0.6536344
26	0xbebe6689	-0.37187603
27	0xbd393d93	-0.045224737
28	0x3e4a3ef8	0.19750583
29	0xbf23b8cf	-0.6395387
30	0xbf135fe2	-0.5756818
31	0xbdb82b09	-0.08992583
32	0x3ed1dd10	0.4098897
33	0x3ef32831	0.474916
34	0xbeefb21d	-0.46815577
35	0x3f97b6ca	1.1852658
36	0x3e2acc6f	0.16679548
37	0x3f052f0e	0.52024925
38	0x3e839868	0.25702214
39	0xbe9a6fea	-0.3016351
40	0x3ed9d0d3	0.42542133
41	0xbc82c4a7	-0.015962912
42	0x3ebf8fd4	0.3741442
43	0x3f18284d	0.59436494
44	0xbf92aaa4	-1.1458325
45	0x3f15bb50	0.5848894
46	0x3f12a7c1	0.5728722
47	0xbee26d68	-0.44224095
48	0x3ecc94f6	0.39957398
49	0xbf1a689e	-0.60315883
50	0xbedad66f	-0.42741725
51	0x3f7dced8	0.99143744
52	0xbf16041a	-0.5860001
53	0xbe42a496	-0.19008097
54	0xbdbd61f4	-0.09247199
55	0xbcadff0b	-0.021239778
56	0x3eac9486	0.33707064
57	0x3f476a52	0.77896607
58	0x3f5e614e	0.86867225
59	0x3e74eb6b	0.2391793
60	0x3f28b987	0.6590809
61	0xbf5c8d63	-0.8615324
62	0x3e131f13	0.14367323
63	0x3efde808	0.49591088

actor.0.weight f4 [2, 64]
0	0x3f71b2a0	0.94413185
1	0xbe858059	-0.26074484
2	0xbe46d986	-0.19418916
3	0xbfba5eaa	-1.4560139
4	0xbecf026e	-0.4043154
5	0xbe60ee62	-0.21965936
6	0xbcf6e3de	-0.030137952
7	0xbe081e2c	-0.1329276
8	0xbdfe09a4	-0.124041826
9	0xbeaf355f	-0.34220406
10	0xbc0d089f	-0.008608012
11	0x3de708e6	0.11280994
12	0xbea67b82	-0.32516104
13	0x3fa5768f	1.2926806
14	0xbe8c8eae	-0.27452606
15	0x3f8699d2	1.0515692
16	0xbe880488	-0.26565957
17	0xbe248e6f	-0.16069959
18	0x3dd87ee5	0.10571078
19	0xbf129042	-0.5725137
20	0x3d2475b3	0.04015131
21	0x3eba5fc6	0.36401194
22	0x3d9289c4	0.07155183
23	0xbed6a0c2	-0.41919523
24	0xbe2b30f8	-0.16717899
25	0x3ede87e9	0.43463066
26	0x3ddabfee	0.10681139
27	0x3fb97de6	1.4491546
28	0xbf30bce2	-0.6903821
29	0x3e317934	0.17331392
30	0xbe1f2516	-0.15541491
31	0xbd889c4e	-0.06670438
32	0xbf81f21e	-1.0152013
33	0xbef5772b	-0.4794248
34	0x3dc8235f	0.097723715
35	0xbeae8dfe	-0.34092706
36	0x3e81a307	0.25319692
37	0x3f7e86d2	0.9942447
38	0xbeefa312	-0.468041
39	0x3dce639e	0.10077594
40	0xbed8daa9	-0.42354324
41	0x3bab5308	0.005228404
42	0xbe1e5e76	-0.15465721
43	0x3f894ff5	1.0727526
44	0x3e55c914	0.20877486
45	0x3f3c7011	0.736085
46	0xbf169597	-0.58822006
47	0xbd172aab	-0.036905926
48	0x3efd4f56	0.4947459
49	0x3d7205a0	0.059087396
50	0x3ebbb335	0.36660162
51	0xbe8723a9	-0.26394394
52	0xbecc00b4	-0.39844286
53	0x3f89af2d	1.0756584
54	0x3e631432	0.22175673
55	0x3ef0c6c3	0.47026643
56	0xbf067e95	-0.525369
57	0xbe124b45	-0.14286526
58	0xbe8303b3	-0.2558876
59	0xbe7d6141	-0.2474413
60	0x3f0aa6d5	0.54160815
61	0x3e29e4d1	0.16591193
62	0xbbc49d5e	-0.006000205
63	0x3f8518dd	1.0398213
64	0xbf6224c9	-0.8833738
65	0x3dc82b9d	0.097739436
66	0x3e8ef713	0.27922878
67	0x3faaab7a	1.333358
68	0x3edd2577	0.43192646
69	0x3e47f2ad	0.19526167
70	0xbcbd0c55	-0.02307717
71	0xbd9bd129	-0.076082535
72	0x3e9c102a	0.30481082
73	0x3e9fa402	0.31179816
74	0xbd1ad5db	-0.037801605
75	0xbdc2dac0	-0.095143795
76	0x3e284c50	0.16435361
77	0xbfab34d9	-1.3375503
78	0x3e4c07dc	0.19924873
79	0xbf8caa03	-1.0989383
80	0x3eeb9b91	0.46017125
81	0x3ec8a71e	0.3919
82	0xbe946efe	-0.2899093
83	0x3f10599b	0.5638673
84	0xbd79def6	-0.061003648
85	0xbe240b99	-0.16020049
86	0xbe0f1031	-0.1397102
87	0x3ed9c6cd	0.42534485
88	0x3e59ba3b	0.21262448
89	0xbef69a60	-0.48164654
90	0xbdeef34b	-0.11667498
91	0xbfb790ce	-1.4341066
92	0x3f5bc021	0.8584004
93	0xbe097e94	-0.13427192
94	0x3d4443b3	0.047916126
95	0x3e3b5a73	0.18296222
96	0x3f9236c4	1.1422963
97	0x3f1743b5	0.5908769
98	0xbdd878fe	-0.105699524
99	0x3efdd0da	0.49573404
100	0xbe558047	-0.20849715
101	0xbf8ce90f	-1.1008624
102	0x3f03992b	0.5140559
103	0xbd061b74	-0.032741025
104	0x3ebd8e6b	0.3702272
105	0x3d9a2710	0.07526982
106	0x3d984e42	0.074368015
107	0xbf6b317e	-0.91872394
108	0xbe28ad4e	-0.1647236
109	0xbf709814	-0.9398205
110	0x3f00e9aa	0.50356543
111	0x3df04278	0.11731428
112	0xbecbbdfb	-0.3979338
113	0xbd185a23	-0.037195336
114	0xbe066ca9	-0.13127388
115	0x3ea49eb9	0.32152346
116	0x3ed6b2bc	0.41933239
117	0xbf7f9c43	-0.9984781
118	0xbda66a2d	-0.0812572
119	0xbee02890	-0.43780947
120	0x3f22c12a	0.63575995
121	0x3e97cd89	0.29648998
122	0x3e2b73bf	0.16743372
123	0x3eaa0072	0.33203465
124	0xbf0dd591	-0.55404
125	0xbdbe696b	-0.09297451
126	0x3e0ea225	0.1392904
127	0xbf72a81b	-0.9478776

actor.0.bias f4 [2]
0	0xbe135289	-0.14386953
1	0x3e85157a	0.25992948

critic.0.weight f4 [1, 64]
0	0xbf00611b	-0.5014817
1	0xbf4c3a79	-0.7977672
2	0x3e09c9f6	0.13455948
3	0xbfb36eea	-1.4018223
4	0x3f84bc06	1.036988
5	0x3e03766d	0.12838145
6	0x3dd3cb32	0.10341491
7	0x3e92f85c	0.28705108
8	0x3f114998	0.5675292
9	0x3dd21851	0.10258544
10	0xbdd3583b	-0.10319563
11	0x3daaa60a	0.08332451
12	0x3f2e705d	0.681402
13	0xbf149b20	-0.580492
14	0xbd0735b9	-0.03301022
15	0xbea2a3b6	-0.31765527
16	0xbd249b22	-0.04018701
17	0x3f6c6a27	0.92349476
18	0xbe8758b9	-0.26434878
19	0x3f14a6e0	0.5806713
20	0xbd62fc5e	-0.055416457
21	0x3ea4bf73	0.32177314
22	0xbe735d24	-0.23765999
23	0x3d8cda50	0.06877577
24	0xbe14e960	-0.1454215
25	0xbe8653ec	-0.26235902
26	0xbe1ea4f5	-0.15492614
27	0xbf8f589c	-1.1198916
28	0xc03e10cd	-2.9697754
29	0xbe9d780d	-0.30755654
30	0xbd05c764	-0.032660857
31	0xbe726cc9	-0.2367431
32	0xbdddbfa7	-0.108275704
33	0xbd2b58a2	-0.041832574
34	0xbd8a3b62	-0.067496076
35	0x3faaf1a0	1.3354988
36	0xbe783a4d	-0.2424099
37	0xbeb27739	-0.34856585
38	0xbd2ed283	-0.04268123
39	0xbe025880	-0.12729073
40	0x3e14e92d	0.14542075
41	0xbe428234	-0.18994981
42	0x3e4a0e96	0.19732127
43	0xbe79c931	-0.24393155
44	0x3ea7ad98	0.3274963
45	0xbe8ed8f4	-0.27899897
46	0x3dfb2b87	0.122641616
47	0xbc390ad8	-0.011294089
48	0xbe6c2742	-0.2306185
49	0x3e843f9b	0.25829777
50	0xbe5f87fe	-0.2182922
51	0x3f39c341	0.7256356
52	0xbf45fc75	-0.77338344
53	0xbe74d218	-0.2390827
54	0xbe876774	-0.26446116
55	0x3e27f1f3	0.1640089
56	0x3e9c260f	0.30497786
57	0x3f283886	0.6571125
58	0x3f3cd999	0.7376953
59	0x3dce8c02	0.10085298
60	0x3d88568c	0.066571325
61	0x3d9154a6	0.070962235
62	0x3e006fc9	0.12542643
63	0xbeb7bf31	-0.35888055
