playground/classic_controls/continuous/bipedalwalker/ddpg/model.pth (torch, 853787 bytes, 13 tensors)

net.0.weight f4 [256, 24]
0	0x3e9804a0	0.2969103
1	0x3edeb9d7	0.4350116
2	0xbe89f8a6	-0.26947516
3	0xbe8a91e4	-0.2706443
4	0xbec3309a	-0.38123018
5	0xbe942e4a	-0.28941566
6	0xbe0e3726	-0.13888225
7	0xbdd7eff8	-0.10543817
8	0x3e83c68f	0.25737426
9	0x3e5c5487	0.2151662
10	0x3e8da92c	0.2766813
11	0xbcac7ebc	-0.021056525
12	0x3ca9648e	0.020677831
13	0x3d0b96c5	0.034079332
14	0x3e075d3f	0.13219164
15	0x3d1815e9	0.03713027
16	0x3d5fcb6b	0.054637354
17	0x3da0cd68	0.07851678
18	0x3dcf72ad	0.101292945
19	0x3c80a96f	0.015705792
20	0x3e261360	0.16218328
21	0x3d7315eb	0.059347074
22	0x3e9b95fb	0.30387864
23	0x3e26c91c	0.16287655
24	0xbc8bfea1	-0.01708919
25	0x3ca04d7b	0.019568196
26	0xbcedc731	-0.029025646
27	0x3e1d0d13	0.15337019
28	0x3ea645ed	0.32475224
29	0x3e1923dc	0.14955086
30	0x3e170e46	0.14751539
31	0xbd4b8c25	-0.0496942
32	0xbe379350	-0.17927289
33	0xbe0b147e	-0.13582036
34	0xbeb6f1b5	-0.35731283
35	0x3e32a588	0.17445958
36	0x3eb86a64	0.3601867
37	0x3d5b23fb	0.05350111
38	0xbe88f6c7	-0.26750776
39	0xbe5c93cd	-0.21540757
40	0x3d8f914e	0.070101365
41	0x3d7cbf19	0.061705682
42	0xbc9e0a68	-0.019292071
43	0xbe1543b3	-0.14576606
44	0x3d2bb437	0.041919913
45	0xbe8ce64b	-0.2751945
46	0x3d8162d8	0.06317681
47	0xbe13680d	-0.14395161
48	0xbe9ef010	-0.31042528
49	0xbe6ece46	-0.23320875
50	0x3e778289	0.24170889
51	0x3e7c6763	0.24648814
52	0x3ddef77e	0.10887049
53	0x3e53b1bf	0.20673274
54	0x3e73eac6	0.23820028
55	0xbd39f42d	-0.04539888
56	0x3bfd51c0	0.0077306926
57	0xbce35ef8	-0.027755246
58	0x3d43d5fc	0.047811493
59	0x3d9d1799	0.076705165
60	0x3ce6d0cb	0.028175732
61	0xbce71e1d	-0.028212601
62	0xbd848d79	-0.06472296
63	0xbe0f9b8e	-0.14024183
64	0xbd15febd	-0.03661989
65	0xbdb349b5	-0.08754293
66	0xbc3ccdf6	-0.011523714
67	0xbe6974d4	-0.22798473
68	0x3e0007e4	0.1250301
69	0xbe2388b8	-0.15970123
70	0xbe84f599	-0.25968626
71	0xbe2ccf41	-0.16875936
72	0xbe12e240	-0.1434412
73	0xbe134b67	-0.14384232
74	0xbe68bd1f	-0.22728394
75	0xbe33bbfe	-0.17552182
76	0x3e6b48d1	0.22976996
77	0x3e09d872	0.13461474
78	0x3e576da2	0.21037915
79	0xbdd97454	-0.10617891
80	0x3caeceee	0.021338906
81	0x3e3d1a73	0.18467121
82	0xbe594fc8	-0.2122184
83	0x3bec6bf6	0.0072150184
84	0x3ea4cc53	0.32187137
85	0x3d51ce80	0.051222324
86	0x3d9bc046	0.076050326
87	0xbd5ec664	-0.05438842
88	0xbe99ef84	-0.30065548
89	0xbe81e657	-0.25371048
90	0xbcd42df4	-0.025900818
91	0xbe874513	-0.26419887
92	0xbe9ec2ba	-0.3100794
93	0xbe929d36	-0.28635567
94	0xbdc20210	-0.0947305
95	0xbcf7e762	-0.0302617
96	0xbe334d93	-0.17510061
97	0x3c038bb7	0.008028916
98	0xbd781bb7	-0.060573306
99	0x3dd4c77f	0.10389613
100	0x3cb3271e	0.021869238
101	0x3e8315ec	0.25602663
102	0x3e5a1423	0.21296744
103	0x3e2afdb8	0.16698349
104	0x3ddefe6b	0.1088837
105	0xbe3ea3a6	-0.18617114
106	0xbe86ac06	-0.26303118
107	0x3e3ceb10	0.18449044
108	0x3e9f28f1	0.31085923
109	0xbe54d8d0	-0.20785832
110	0xbd348719	-0.04407415
111	0xbd319439	-0.043354247
112	0xbe3d02d8	-0.18458116
113	0x3e0f198d	0.1397459
114	0x3c8de51d	0.017321164
115	0x3e0b16f4	0.13582975
116	0xbe3d2a8b	-0.1847326
117	0xbd9ff514	-0.07810417
118	0x3d01d8b7	0.031700816
119	0xbe1038dd	-0.14084192
120	0x3d282767	0.041053202
121	0x3e2614fd	0.16218944
122	0x3d93a3de	0.072089896
123	0x3dff0896	0.124528095
124	0x3e641153	0.22272234
125	0x3e67c2f5	0.22632964
126	0x3de8cb71	0.11366928
127	0xbc1ce9a8	-0.009577192
128	0xbe004021	-0.12524463
129	0xbc91f39f	-0.017816363
130	0xbe2dab27	-0.1695982
131	0x3b2ffbb0	0.0026852898
132	0x3de2f6f6	0.1108226
133	0xbe72fd43	-0.23729424
134	0xbe0854c5	-0.13313587
135	0xbceb7d46	-0.028746258
136	0xbe92bac7	-0.28658125
137	0x3d880de3	0.06643274
138	0x3a07602c	0.0005164172
139	0xbb3a106c	-0.0028391136
140	0xbdfd5fc3	-0.12371781
141	0xbd329654	-0.043600395
142	0xbdfc1ef6	-0.12310593
143	0xbe880fe4	-0.26574624
144	0xbeca0019	-0.394532
145	0xbe100091	-0.14062716
146	0x3dc4976f	0.09599196
147	0x3e8c4c5a	0.27402002
148	0x3eb77bb0	0.35836554
149	0x3e87fa05	0.26557937
150	0x3a24cafa	0.00062863494
151	0x3e47b95f	0.19504307
152	0xbca22258	-0.019791767
153	0x3d96f487	0.07370859
154	0x3c0a03aa	0.008423725
155	0x3e67b2ef	0.22626851
156	0x3d6ca2f5	0.057772595
157	0xbe827ed9	-0.25487402
158	0xbd8bc858	-0.06825322
159	0xbe4eb2f9	-0.2018546
160	0xbe6f9d17	-0.23399769
161	0xbd87e7ca	-0.06636007
162	0xbe4052ac	-0.18781537
163	0xbe1aefb0	-0.15130496
164	0xbe48d5a4	-0.19612747
165	0x3da72e3e	0.08163117
166	0xbe06cfd7	-0.13165222
167	0xbdd81c53	-0.105522774
168	0x3c871346	0.016488682
169	0xbd9b20be	-0.075746045
170	0xbc2cf2b9	-0.0105559165
171	0xbdee1619	-0.116253085
172	0x3ebb98de	0.36640066
173	0xbe47cda6	-0.19512042
174	0x3e6365dd	0.22206827
175	0x3e8ce8fe	0.2752151
176	0x3d5c1ccb	0.053738397
177	0x3daf0928	0.08546668
178	0xbd3f0ac7	-0.046641137
179	0x3adfbd12	0.0017069897
180	0xbe06b61d	-0.13155408
181	0xbd85c88e	-0.065323934
182	0xbd235428	-0.03987518
183	0x3e340bc4	0.17582613
184	0x3e37e02f	0.17956613
185	0x3cd9616f	0.026535718
186	0xbd9ed5f6	-0.077556536
187	0xbd933260	-0.07187343
188	0x3e828170	0.25489378
189	0x3cdfd9d3	0.027325546
190	0x3e3317c9	0.17489542
191	0xbdf74139	-0.12072987
192	0xbeb5b5ee	-0.35490364
193	0x3dff6624	0.12470654
194	0xbc6f879f	-0.014619737
195	0xbb485fb6	-0.0030574626
196	0x3ea21c48	0.31662202
197	0xbd2d35c4	-0.042287603
198	0x3dfca3ee	0.123359546
199	0x3e8d6ea5	0.27623478
200	0xbe7095db	-0.23494665
201	0xbe289478	-0.16462886
202	0xbd62f2a0	-0.055407166
203	0xbcea500d	-0.028602624
204	0x3dd39aa0	0.10332227
205	0x3d030696	0.031988703
206	0xbe8364a3	-0.25662717
207	0x3db3307f	0.08749484
208	0xbd1525de	-0.036413066
209	0xbbf81dea	-0.0075719254
210	0x3dc645c8	0.096812785
211	0xbae59f5e	-0.0017518809
212	0xbe594904	-0.2121926
213	0x3e04b474	0.12959462
214	0xbe5b894c	-0.21439093
215	0x3db99bea	0.09062941
216	0xbe6fbd41	-0.23412038
217	0x3e1164af	0.14198564
218	0xbd6d4a2e	-0.05793207
219	0x3d9eda8c	0.07756528
220	0x3ec6ee51	0.38853696
221	0xbe1902a2	-0.1494241
222	0x3eb5afca	0.3548568
223	0xbc2eba44	-0.010664526
224	0x3d40f2ef	0.04710668
225	0x3a2fd27a	0.00067070837
226	0xbd83e897	-0.06440847
227	0x3dbbb636	0.09165613
228	0x3d15c746	0.036566995
229	0xbc866bfb	-0.016408911
230	0xbe228716	-0.15871844
231	0xbe10bc72	-0.14134386
232	0xbe02f257	-0.12787758
233	0x3df00884	0.11720374
234	0x3d46ca17	0.04853257
235	0x3d403b12	0.046931334
236	0x3bb53097	0.005529474
237	0x3d4cf58e	0.050038867
238	0xbdc82048	-0.09771782
239	0xbe545295	-0.20734628
240	0x3dcd29f6	0.10017769
241	0x3e1b5b98	0.15171659
242	0xbdfad392	-0.12247385
243	0x3d6b6c9a	0.057476617
244	0x3d59f6f0	0.053214014
245	0x3dc5578e	0.0963584
246	0x3e8afc03	0.27145395
247	0xbcd5bcd6	-0.02609102
248	0x3d944509	0.0723973
249	0xbdcb4874	-0.09925929
250	0xbe1b1519	-0.15144767
251	0x3e080589	0.13283361
252	0x3e51f305	0.20502861
253	0x3cd3446f	0.025789468
254	0xbd87b509	-0.066263266
255	0xbd5c8c87	-0.053844955

net.0.bias f4 [256]
0	0x3e908155	0.28223673
1	0x3d164bfb	0.036693554
2	0xbd0db093	-0.034592222
3	0x3d59624b	0.053072255
4	0x3d8a1ee2	0.06744172
5	0xbda56185	-0.08075241
6	0xbd648d06	-0.055798553
7	0xbdf8dfb6	-0.121520445
8	0xbd46c6e2	-0.048529513
9	0xbc67c975	-0.014147152
10	0xbdc22a93	-0.09480777
11	0xbdd82118	-0.10553187
12	0x3dc944ab	0.098275505
13	0xbd6bdcc5	-0.05758359
14	0xbe749282	-0.23884013
15	0x3ecdbd4a	0.4018348
16	0xbdc4e432	-0.09613837
17	0xbe19227c	-0.14954561
18	0xbe241f4f	-0.16027568
19	0x3e15fab8	0.14646423
20	0x3df86c9f	0.12130093
21	0xbdafb601	-0.08579636
22	0x3ecb1f4b	0.39672312
23	0xbe1319e9	-0.14365353
24	0x3e948a4b	0.2901176
25	0xbdef157d	-0.116740204
26	0x3d75b7b0	0.05998963
27	0x3d9cd387	0.07657533
28	0x3eff3cf4	0.4985119
29	0xbbc85461	-0.0061135744
30	0x3d22b45b	0.03972278
31	0xbe00266f	-0.12514661
32	0x3ebf398b	0.3734859
33	0xbe0d270c	-0.13784426
34	0x3e9bc1dd	0.30421343
35	0x3d4390ab	0.047745388
36	0xbc5450bf	-0.0129587045
37	0xbcb4a758	-0.022052452
38	0xbe9c0eb0	-0.30479956
39	0xbe5e0033	-0.21679763
40	0xbd53f8e7	-0.051751044
41	0xbc1f6ff1	-0.009731279
42	0xbdc824e4	-0.09772661
43	0x3da814c4	0.08207086
44	0xbe3da52b	-0.18520038
45	0xbe09e969	-0.13467945
46	0xbc3a75a6	-0.011380589
47	0xbced7ba5	-0.028989622
48	0x3e918a2f	0.28425738
49	0x3d7bd82d	0.06148546
50	0xbcac1ba6	-0.021009278
51	0xbe22d55e	-0.15901706
52	0xbe4fb6e8	-0.20284617
53	0x3dff873f	0.12476968
54	0x3da37963	0.07982137
55	0xbd0e6ac2	-0.03476978
56	0x3e3c0dcf	0.18364643
57	0xbe16cc66	-0.1472641
58	0xbe8980b1	-0.26855996
59	0xbe159cd1	-0.14610602
60	0x3e10c4ff	0.14137648
61	0xbd0c677d	-0.03427838
62	0x3ea44a9b	0.3208817
63	0x3d3c3fce	0.045959286
64	0x3dc37c24	0.09545162
65	0xbdf8bf61	-0.12145878
66	0xbeae1d95	-0.34006944
67	0xbe40d100	-0.18829727
68	0x3dacab0d	0.08431063
69	0x3dbb7a5e	0.09154199
70	0xbea2687a	-0.31720334
71	0x3e941a68	0.28926396
72	0xbe7e012c	-0.24805135
73	0x3ea79647	0.3273184
74	0x3ec4b772	0.38421208
75	0xbd3a9b9c	-0.045558557
76	0xbd8906bd	-0.06690738
77	0x3d92c015	0.07165543
78	0xbd6934ee	-0.056935243
79	0x3d4f0ae3	0.05054749
80	0xbe3d9c2c	-0.18516606
81	0xbe82b9fb	-0.25532517
82	0x3e12453e	0.14284226
83	0xbce28485	-0.02765108
84	0xbc744fb0	-0.014911577
85	0x3d5e183d	0.054222334
86	0x3e97d616	0.29655522
87	0xbd64d63c	-0.055868372
88	0x3ce541a1	0.027985396
89	0xbe22a1bd	-0.15882011
90	0xbe247b4c	-0.16062659
91	0xbe02bc88	-0.12767231
92	0xbe3df69e	-0.18551108
93	0xbe9ab0c2	-0.3021298
94	0xbe910dd0	-0.2833085
95	0x3d141c6f	0.03615993
96	0xbe808894	-0.251042
97	0x3da663ac	0.0812448
98	0x3ef35d0c	0.47531927
99	0xbe1f412a	-0.15552202
100	0xbe2a8c1e	-0.16655013
101	0xbe341b66	-0.17588577
102	0x3d49e38d	0.049289275
103	0xbcdc7a40	-0.026913762
104	0xbdaadf3c	-0.0834336
105	0xbe66c7e6	-0.22537193
106	0xbda29efe	-0.079404816
107	0x3e28318b	0.16425149
108	0xbdfab191	-0.12240899
109	0x3d9b88af	0.0759443
110	0xbde6aa03	-0.11262896
111	0x3ec837cd	0.39105073
112	0x3d3d9683	0.046286117
113	0xbca58481	-0.020204784
114	0xbda61e9b	-0.08111306
115	0xbe5f97a1	-0.21835186
116	0xb96bbc7e	-0.00022481565
117	0x3dd954e5	0.106118955
118	0xbdd8516c	-0.10562405
119	0x3ea79e7a	0.32738096
120	0x3e878064	0.26465142
121	0xbe610a51	-0.21976592
122	0xbdda6a0a	-0.106647566
123	0x3e5e38a2	0.21701291
124	0xbe909c9f	-0.28244492
125	0x3d657e83	0.056028854
126	0xbe80dfae	-0.25170654
127	0x3dfe1b2e	0.12407528
128	0xbdde7e91	-0.108639844
129	0xbeab40b0	-0.3344779
130	0xbcbb6997	-0.022877498
131	0xbe225072	-0.15851
132	0x3c22e614	0.00994255
133	0xbe397514	-0.18111068
134	0x3e131f39	0.14367379
135	0x3e31eabb	0.17374699
136	0x3e2e463d	0.17018981
137	0x3cd47364	0.025933929
138	0x3db3031b	0.08740827
139	0x3de32837	0.11091655
140	0xbdfef8a1	-0.12449766
141	0x3ec1f84b	0.37884745
142	0x3ddec945	0.10878233
143	0x3c1dc779	0.0096300775
144	0xbda4c747	-0.08045822
145	0x3e6f8b9b	0.23393099
146	0xbe9aeb0b	-0.3025745
147	0xbe42667a	-0.18984404
148	0xbe8dbe19	-0.27684096
149	0x3e9e1f33	0.30883178
150	0xbe4343a6	-0.19068775
151	0x3d51e573	0.05124421
152	0xbe5b1296	-0.21393809
153	0xbe2efb03	-0.17087941
154	0x3e4de648	0.20107377
155	0xbd61d192	-0.055131502
156	0xbe761469	-0.24031223
157	0x3ea07c0c	0.3134464
158	0x3e12acde	0.14323756
159	0xbdf7ad65	-0.12093619
160	0x3d274e9e	0.04084646
161	0x3e1c782d	0.15280218
162	0xbe883438	-0.2660234
163	0xbb04fc4b	-0.002029198
164	0x3ca14e7f	0.01969075
165	0xbe210570	-0.1572473
166	0xbc9cd02d	-0.019142235
167	0x3cf78759	0.030215906
168	0xbe60daf9	-0.21958531
169	0x3e3c43bd	0.18385215
170	0x3d7b45be	0.06134581
171	0x3eae8628	0.34086728
172	0xbe4e2125	-0.20129831
173	0x3e26221c	0.16223949
174	0xbd98d4e1	-0.074624784
175	0xbbf27f69	-0.0074004424
176	0x3cabb55d	0.020960504
177	0xbc926734	-0.017871477
178	0xbbd7d6c1	-0.00658688
179	0xbd61cedf	-0.05512893
180	0xbe03d51c	-0.12874264
181	0x3eb07005	0.34460464
182	0x3d3e045e	0.046390884
183	0xbccbd4c5	-0.02488173
184	0xbe3dc818	-0.18533361
185	0xbeac36f3	-0.33635673
186	0xbdb5ea61	-0.08882595
187	0x3ee90b9d	0.45516673
188	0xbe92cdfe	-0.28672785
189	0x3ecc2835	0.39874426
190	0x3d164a87	0.03669217
191	0x3bcfc260	0.00634031
192	0xbde32e8f	-0.11092865
193	0xbe39758a	-0.18111244
194	0xbd9beacd	-0.07613144
195	0x3c5d392a	0.0135023985
196	0xbd522eea	-0.051314272
197	0xbe69d491	-0.22834994
198	0xbe580de4	-0.21099049
199	0xbdaf01d9	-0.08545274
200	0xbe5a808c	-0.21338099
201	0xbe312e63	-0.17302851
202	0x3e5a205a	0.21301404
203	0x3e01c103	0.12671284
204	0xbd6837b2	-0.05669374
205	0x3daff364	0.08591345
206	0xbbf05245	-0.007334026
207	0x3dfaba3e	0.12242554
208	0x3c7866c1	0.015161217
209	0xbe80aa61	-0.2512999
210	0xbe9021b4	-0.28150713
211	0xbe7af802	-0.2450867
212	0xbe966efc	-0.2938155
213	0xbd2df83c	-0.042473063
214	0xbe11bd98	-0.1423248
215	0xbd6c2a1a	-0.05765734
216	0x3c4a797f	0.0123580685
217	0x3e07146d	0.13191386
218	0x3e826408	0.25466943
219	0xbda9461c	-0.082653254
220	0x39924a9a	0.00027902873
221	0x3e5b5615	0.21419556
222	0xbdb4ea3c	-0.08833739
223	0xbd4b56e5	-0.049643416
224	0xbd8b8055	-0.06811587
225	0x3ea7cdbe	0.32774156
226	0x3a88601e	0.0010404622
227	0xbb65dd6e	-0.003507461
228	0xbe8892d4	-0.2667452
229	0xbe2fd734	-0.17171937
230	0xbe7280b3	-0.23681907
231	0xbc63cc2b	-0.013903658
232	0xbe2011bf	-0.1563177
233	0x3e9ea221	0.3098307
234	0xbe2e5056	-0.17022833
235	0xbe17a418	-0.1480869
236	0xbe5bf4ae	-0.21480057
237	0xbe595e66	-0.21227416
238	0xbe5cc0a1	-0.21557857
239	0xbe1f5e94	-0.15563422
240	0xbe47faf4	-0.19529325
241	0x3dfbad27	0.122888856
242	0xbe07d4a0	-0.13264704
243	0x3e026075	0.12732108
244	0xbe8bc76e	-0.2730059
245	0xbe676a7a	-0.22599211
246	0x3e97200b	0.29516634
247	0x3e4cced9	0.20000781
248	0xbe9737f5	-0.2953488
249	0xbe2585ca	-0.16164318
250	0xbdf58f35	-0.11990205
251	0xbc34b95c	-0.011030521
252	0x3e12afee	0.14324924
253	0xbe8ad72a	-0.27117282
254	0xbddefb16	-0.108877346
255	0x3e020e09	0.12700666

net.2.weight f4 [256, 256]
0	0xbd8af6be	-0.067853436
1	0xbc36b068	-0.011150457
2	0x3cf353fe	0.029703137
3	0xbc73d275	-0.01488172
4	0x3d723869	0.05913583
5	0x3dd5e950	0.104448915
6	0x3d4966e6	0.049170397
7	0x3d408d67	0.04700985
8	0x3d29e28d	0.04147582
9	0x3d33cdae	0.043897323
10	0xbbe80a95	-0.0070813396
11	0x3da7c56a	0.081919506
12	0x3bca9f6a	0.0061835544
13	0xbce9b8fc	-0.02853059
14	0x3c5c9e45	0.013465469
15	0xbdf61491	-0.120156415
16	0x3c7803e5	0.015137647
17	0x3d03fc00	0.032222748
18	0xbcf5404c	-0.029937886
19	0xbdabd170	-0.083895564
20	0x3db75280	0.089512825
21	0x3ddc5672	0.10758676
22	0xbdc128f8	-0.09431642
23	0x3ca8c371	0.020601006
24	0xbd57d483	-0.0526929
25	0xbd26d077	-0.04072615
26	0x3bcad1d0	0.0061895624
27	0x3d313814	0.04326637
28	0xbd875c84	-0.06609443
29	0x3dbf1f44	0.09332135
30	0x3af88613	0.0018960856
31	0x3d0c2f32	0.034224696
32	0xbe23201a	-0.15930215
33	0x3d862252	0.06549515
34	0xbe4ec3d4	-0.2019189
35	0x3d1fde5a	0.03903041
36	0x3d7fe302	0.06247235
37	0x3dc83351	0.09775413
38	0x3ba43fb8	0.0050124787
39	0xbd871567	-0.06595879
40	0xbca81354	-0.020517029
41	0xbdbcf618	-0.09226626
42	0x3d2a6e15	0.04160889
43	0xbcb8150c	-0.022470973
44	0x3d8560d7	0.06512611
45	0x3be5193c	0.0069915336
46	0x3c10ed5b	0.008845652
47	0x3d644bcd	0.05573635
48	0xbe32b497	-0.17451702
49	0xbd965c26	-0.07341795
50	0x3d3e38f0	0.04644102
51	0xbc032436	-0.008004239
52	0x3d73286e	0.05936473
53	0x3dabbe91	0.08385957
54	0x3db701c4	0.08935884
55	0x3d88abe0	0.066734076
56	0xbe08c6f3	-0.13357143
57	0x3ce01776	0.027354937
58	0x3d4f2a6c	0.050577566
59	0x3d6f53f6	0.05842968
60	0x3d101746	0.035178445
61	0x3d36bfa7	0.044616368
62	0x3cf84aba	0.03030907
63	0x3daebba9	0.08531887
64	0xbcf0eb99	-0.029409217
65	0xbe2ce379	-0.16883649
66	0x3d9aa2b6	0.07550566
67	0x3d9320f6	0.07184021
68	0x3d2c8d5b	0.042126995
69	0x3c28aaad	0.0102945985
70	0x3d10d9e8	0.03536406
71	0xbd4656d6	-0.048422657
72	0x3cce016f	0.025147168
73	0xbd962f05	-0.07333187
74	0xbe689206	-0.22711954
75	0x3d8bdc21	0.06829096
76	0xbd0560d1	-0.032563034
77	0xbe0223e0	-0.12708998
78	0xbbc866c7	-0.0061157676
79	0x3d26a715	0.040686686
80	0x3c0f12d8	0.00873252
81	0x3ca35339	0.019937145
82	0x3d7b085b	0.061287265
83	0x3da05689	0.07829005
84	0xbbd4716c	-0.0064832475
85	0xbd38a319	-0.045077417
86	0xbe80dc0b	-0.2516788
87	0xbc1ce6c1	-0.0095765
88	0x3cc9ba2e	0.02462491
89	0x3bb3699e	0.005475237
90	0x3d8d3f3d	0.06896827
91	0x3b4698fa	0.0030303583
92	0xbce6b4fd	-0.028162474
93	0x3cf2bf8e	0.029632356
94	0x3d104eb5	0.03523131
95	0xbcc3bb72	-0.023893092
96	0x3dd08e68	0.10183412
97	0xbccd0c92	-0.025030408
98	0xbddee2f3	-0.10883131
99	0xbbf980a6	-0.007614213
100	0x3cae927d	0.021310085
101	0x3b4b5e32	0.0031031487
102	0xbb8fffb5	-0.0043944963
103	0x3baef8f8	0.005339738
104	0xbb928aac	-0.0044720974
105	0xbcea9f9e	-0.028640565
106	0xbc811e9c	-0.015761666
107	0xbd483085	-0.048874397
108	0x3bd30544	0.0064398367
109	0x3bad4125	0.005287307
110	0x3d8c01b3	0.068362616
111	0xbd71b79d	-0.059012998
112	0x3c3c6c5a	0.011500442
113	0xbcf33a4f	-0.02969089
114	0x3d943911	0.07237447
115	0x3d37dfca	0.044891156
116	0x3d07e935	0.033181388
117	0xbc89c9cf	-0.016819863
118	0x3d711bef	0.05886453
119	0xbdbffefa	-0.09374805
120	0xbc6ac421	-0.014328987
121	0xbc16f1f8	-0.009212963
122	0xbcd14272	-0.025544379
123	0xbe8508a0	-0.25983143
124	0x3cd26533	0.025683021
125	0x3daab50e	0.08335315
126	0xbd61f1ac	-0.055162117
127	0x3cd8aebd	0.02645051
128	0x3d1c092b	0.03809468
129	0xbc37754c	-0.011197399
130	0xbca70c6c	-0.020391665
131	0x3c13b360	0.009014934
132	0x3cae7782	0.02129722
133	0x3d243324	0.040087834
134	0x3d89e65d	0.067333914
135	0xbcf024eb	-0.029314479
136	0x3d855510	0.06510365
137	0x3cc6ca66	0.024266433
138	0x3cdf67c5	0.02727116
139	0x3d10a002	0.035308845
140	0x3cf32dbf	0.0296849
141	0xbe955d5b	-0.29172787
142	0x3d6b1721	0.057395104
143	0xbc852f45	-0.016257891
144	0x3d6b75e6	0.057485484
145	0xbe5a33a6	-0.21308765
146	0xbc55a46d	-0.01303969
147	0xbd1f7376	-0.03892847
148	0xbc3e7b8b	-0.011626135
149	0xbe220e99	-0.15825881
150	0x3dcb8781	0.09937955
151	0x3c5c5833	0.013448763
152	0xbad019d8	-0.0015876843
153	0x3c2a59fa	0.010397429
154	0x3d78b813	0.06072242
155	0x3d89f08a	0.06735332
156	0x3d998eb4	0.074979216
157	0xbcac3fcf	-0.02102652
158	0x3d85873b	0.06519934
159	0x3b891fbb	0.004184691
160	0xbcd18662	-0.025576774
161	0xbd0fe965	-0.03513469
162	0xbc479fc7	-0.01218409
163	0x3dab6b44	0.08370069
164	0xbd415d03	-0.047207844
165	0x3d26bc4c	0.040706918
166	0xbe225974	-0.15854436
167	0xbc874a22	-0.016514841
168	0x3d040ce3	0.032238852
169	0xbc803724	-0.015651293
170	0x3d5a181f	0.05324566
171	0xbdceaf95	-0.10092083
172	0x3d9bf5d1	0.07615245
173	0xbce81469	-0.028330045
174	0x3d1b65d6	0.037938915
175	0x3da8357a	0.08213325
176	0x3c6f14c9	0.014592358
177	0xbcff55e4	-0.031168886
178	0x3d207657	0.039175358
179	0x3bb4b75e	0.005515023
180	0x3dbeecaa	0.09322484
181	0xbda98849	-0.082779475
182	0xbb95ea9f	-0.004575088
183	0x3ccfb958	0.025356933
184	0x3c5bc109	0.013412722
185	0x3cac6c07	0.021047605
186	0x3dc9ea60	0.098591566
187	0x3cf825ab	0.030291399
188	0x3d22485a	0.03961978
189	0xbe1d75e3	-0.15377001
190	0x3d921e21	0.07134653
191	0x3c1b16d3	0.009465891
192	0x3d3e0183	0.04638816
193	0xbc17d564	-0.009267185
194	0x3d6c4fe3	0.057693373
195	0x3c238e03	0.009982589
196	0x3d150242	0.036379106
197	0x3cc3ab80	0.023885489
198	0x3cdd2408	0.02699472
199	0x3d94f40d	0.072731115
200	0xbd470312	-0.048586912
201	0xbc7b8b87	-0.01535309
202	0xbcc63db5	-0.024199346
203	0xbcdbfe8e	-0.02685478
204	0x3d86e886	0.06587319
205	0x3d3f51e9	0.046708975
206	0x3c81dc51	0.015852125
207	0x3cb85068	0.022499278
208	0x3cd1d71d	0.02561527
209	0x3d07a65c	0.033117637
210	0xbd0d3ea6	-0.034483574
211	0x3dcb8fda	0.09939547
212	0x3d430a3c	0.047617182
213	0xbe31bcb2	-0.17357138
214	0x3d23adc9	0.039960656
215	0xbc15327b	-0.009106274
216	0xbe17f785	-0.14840515
217	0xbd07883c	-0.033088908
218	0xbe641c89	-0.2227651
219	0xbb7e1da9	-0.0038775003
220	0xbcbe598a	-0.023236055
221	0xbd686300	-0.05673504
222	0xbc944d62	-0.018103305
223	0x3d44e994	0.04807432
224	0x3d1346d8	0.035956234
225	0xbe4714c4	-0.19441515
226	0xbb399634	-0.0028318288
227	0x3c848483	0.016176468
228	0xbde9a067	-0.114075474
229	0xbcf530f7	-0.029930575
230	0xbc0c8067	-0.008575535
231	0x3db3c5ee	0.087779865
232	0xbd63fd88	-0.055661708
233	0xbe2b285c	-0.16714615
234	0x3d65cdab	0.056104343
235	0x3d78bfe1	0.060729865
236	0xbcf93036	-0.030418497
237	0x3d580eba	0.05274842
238	0x3d0eca3e	0.034860842
239	0xbb264baa	-0.002537469
240	0x3b9c310f	0.0047665904
241	0x3c1119dd	0.008856264
242	0x3b6d3980	0.0036197603
243	0x3c78dfc9	0.015190073
244	0xbb5f7bea	-0.0034100958
245	0x3bf43a70	0.0074532554
246	0xbdf80869	-0.12110979
247	0xbe34d78c	-0.1766035
248	0xbdce36da	-0.10069056
249	0x3c885f74	0.016647078
250	0xbd87ab0d	-0.06624422
251	0x3d08d55c	0.0334066
252	0x3d327272	0.043566175
253	0x3daa7702	0.0832348
254	0x3c3dc3a3	0.011582288
255	0x3d29c963	0.041451823

net.2.bias f4 [256]
0	0x3d942758	0.07234067
1	0xbba21e0f	-0.004947431
2	0xbd4ce335	-0.05002137
3	0xbe18aaca	-0.14908901
4	0xbcba83cd	-0.022767926
5	0xbd010b91	-0.03150517
6	0xbdeac1c3	-0.11462738
7	0xbd17c121	-0.037049416
8	0xbd1b7070	-0.037949026
9	0x3cb5e233	0.022202587
10	0x3d51557f	0.051106926
11	0x3d0411d4	0.032243565
12	0x3c8e3dec	0.017363511
13	0xbaae0438	-0.0013276404
14	0xbda450fb	-0.08023258
15	0x3db02698	0.08601111
16	0xbdb587a3	-0.08863761
17	0x3d10516b	0.035233896
18	0x3ca67695	0.020320216
19	0x3d03b079	0.03215072
20	0x3cac23f6	0.021013241
21	0xbd92c6f1	-0.07166851
22	0xbcc9a838	-0.024616346
23	0xbc9d8d0c	-0.019232295
24	0xbda5446c	-0.08069691
25	0xbe02bf53	-0.12768297
26	0xbe26e5a7	-0.16298543
27	0x3d1b26f4	0.037878945
28	0xbd817cf5	-0.06322662
29	0x3d1ed8e7	0.038781073
30	0x3d2966a8	0.041357666
31	0xbd8a12f8	-0.06741899
32	0xbd4c3c73	-0.049862336
33	0x3db45846	0.08805899
34	0xbcfe363c	-0.03103172
35	0xbd6b954c	-0.057515427
36	0x3c5adb5b	0.0133579625
37	0xbc4ada29	-0.012381115
38	0x3ecf57ce	0.40496677
39	0xbd444d6b	-0.047925394
40	0x3c3c2b98	0.011485003
41	0xbda40809	-0.08009345
42	0xbe185e15	-0.1487964
43	0xbd1a7249	-0.037706647
44	0x3d28072a	0.041022457
45	0xbd74abba	-0.059734084
46	0xbdbc7bf8	-0.09203333
47	0xbc8f8047	-0.017517222
48	0xbda91fcd	-0.08258019
49	0xbd4ce698	-0.0500246
50	0xbdfbacb2	-0.122887984
51	0xbcfc8351	-0.030824335
52	0xbda60572	-0.08106507
53	0xbd16d90e	-0.036828093
54	0x3cd8934d	0.026437426
55	0x3d4794c9	0.048725877
56	0xbd2235dc	-0.039602146
57	0x3c19a806	0.009378439
58	0x3b8a814a	0.0042268382
59	0xbdb0420a	-0.08606346
60	0xbdb8c040	-0.09021044
61	0xbd706f52	-0.058699913
62	0xbd253aad	-0.04033916
63	0x3e85b320	0.26113224
64	0xbd3bea8a	-0.04587797
65	0xbd6ca53c	-0.057774767
66	0x3c378168	0.011200286
67	0xbc2470e7	-0.010036684
68	0xbd128cc1	-0.035778765
69	0x3bc854c8	0.0061136223
70	0xbda95a54	-0.08269182
71	0x3e9241fb	0.28565964
72	0x3ce3f11e	0.027824935
73	0xbbb8609b	-0.0056267506
74	0x3d4c2806	0.049842857
75	0x3bccd927	0.0062514725
76	0xbda3ac2c	-0.079918236
77	0x3cedf010	0.029045135
78	0xbd9669f2	-0.07344426
79	0x3c70b518	0.014691614
80	0xbc4e6312	-0.012596862
81	0x3938f5fe	0.00017639247
82	0x3caad07a	0.020851362
83	0xbcc76493	-0.02433995
84	0xbcfa808c	-0.030578874
85	0xbd894860	-0.067032576
86	0xbba242fe	-0.0049518337
87	0x3cb3ce27	0.021948887
88	0xbc0c6286	-0.008568412
89	0xbcbae214	-0.02281288
90	0xbc93e895	-0.01805524
91	0xbcb5b86a	-0.022182662
92	0x3b27f33c	0.0025627157
93	0xbd1b8529	-0.03796879
94	0xbd20fd1c	-0.039303884
95	0xbcfa1843	-0.030529147
96	0x3cd868f2	0.02641723
97	0x3aaf102c	0.001335626
98	0x3b5f8c15	0.0034110595
99	0x3bff4e9a	0.0077913525
100	0xbcc5abde	-0.024129804
101	0xbd8b8a11	-0.068134435
102	0xbe0483c6	-0.12940893
103	0xbcef137e	-0.0291841
104	0xbd6c16ba	-0.05763886
105	0xbdacb167	-0.08432274
106	0x3d7d9f27	0.061919358
107	0xbdc2a58d	-0.095042326
108	0x3c7a29c8	0.0152687505
109	0xbe2b6bbd	-0.16740318
110	0xbcaf4b29	-0.021398144
111	0xbda67aa3	-0.0812886
112	0xbdae28c3	-0.085038684
113	0xbe019a75	-0.12656577
114	0xbc713762	-0.014722677
115	0x3eeb09f9	0.45906046
116	0xbdbeb54c	-0.093119234
117	0x3b6e367f	0.00363484
118	0xbc9e16df	-0.019298015
119	0xbcd4ccc1	-0.02597654
120	0xbc5be778	-0.013421886
121	0xbd4b6299	-0.049654577
122	0x3eb6f035	0.35730138
123	0xbcc9703b	-0.024589648
124	0xbd8b1e05	-0.06792835
125	0x3c4d9529	0.01254777
126	0xbd0068b7	-0.031349864
127	0xbda82a8a	-0.08211239
128	0x3db4aaa9	0.08821613
129	0xbba0323d	-0.0048888014
130	0x3c58f21d	0.013241318
131	0xbd484afc	-0.048899636
132	0xbd974b43	-0.07387402
133	0x3d0476f7	0.032340016
134	0x3c7f9539	0.015599542
135	0xbdae2951	-0.08503974
136	0xbcb95c32	-0.02262697
137	0xbd1626eb	-0.03665821
138	0x3d174547	0.036931302
139	0x3d8cd698	0.06876868
140	0x3c88846f	0.016664712
141	0xbde0be1d	-0.10973761
142	0xbd8a594c	-0.06755313
143	0xbb3971db	-0.0028296623
144	0xbcb78f02	-0.022407059
145	0x3c8367c5	0.016040692
146	0xbd70768f	-0.058706816
147	0xbdb9edb0	-0.090785384
148	0x3d86eb99	0.065879054
149	0xbd81c8e8	-0.06337148
150	0xbe06ba3e	-0.13156983
151	0xbd93cc99	-0.07216758
152	0xbd8e4394	-0.06946483
153	0x3c645108	0.013935335
154	0xbd3b4e5c	-0.045729026
155	0xbd0b3d02	-0.03399373
156	0xbce02ad9	-0.027364181
157	0xbd89269b	-0.066968165
158	0xbe063ad1	-0.13108374
159	0xbe05685c	-0.13028091
160	0x3ce66146	0.028122555
161	0x3b4eedfe	0.003157496
162	0xbc873642	-0.016505364
163	0x3d4eaefa	0.05045984
164	0xbd9dfb96	-0.07714002
165	0x3d35abc7	0.044353273
166	0x3b3c144c	0.0028698621
167	0xbdce3436	-0.10068552
168	0xbe1ed2de	-0.15510127
169	0xbc389269	-0.011265376
170	0x3bb65c06	0.0055651693
171	0xbcd29cac	-0.025709473
172	0xbca6ab8a	-0.020345468
173	0xbd379b1d	-0.044825662
174	0x3dbec465	0.09314803
175	0xbd3a1b3a	-0.04543612
176	0xbda0a783	-0.0784445
177	0x3ba39040	0.004991561
178	0xbacbc389	-0.0015545945
179	0x3dbc649d	0.09198878
180	0xbd94987e	-0.07255648
181	0x3d18bafd	0.0372877
182	0x3c86295d	0.016377145
183	0xbdf5d03d	-0.12002609
184	0x3d61f2cc	0.05516319
185	0xbe40c0b8	-0.18823516
186	0xbdc879ba	-0.097888425
187	0xbad684bb	-0.0016366461
188	0xbb3b0f0f	-0.0028542911
189	0xbcb510de	-0.02210277
190	0xbb2ff1ea	-0.0026847073
191	0xbd16381b	-0.0366746
192	0xbc973253	-0.018456614
193	0xbc6cd583	-0.014455202
194	0xbcdbb40c	-0.026819251
195	0x3b3da607	0.0028938071
196	0x3d32d093	0.043655943
197	0x3d4bf335	0.049792487
198	0xbcf878d7	-0.030331058
199	0x3d556a3f	0.052103277
200	0xbd1c6d2b	-0.03819005
201	0xbd2598ea	-0.040429033
202	0xbdae3202	-0.08505632
203	0x3d206a03	0.0391636
204	0xbdaa027d	-0.08301256
205	0x3cceafcb	0.025230309
206	0xbdb98262	-0.09058072
207	0xbd9d20ac	-0.07672247
208	0x3c513806	0.012769705
209	0xbd9e35d7	-0.07725113
210	0xbd2861f6	-0.041109048
211	0x3c9437e3	0.018093055
212	0xbcb93c5e	-0.022611793
213	0xbaa96b15	-0.001292559
214	0xbd19470b	-0.037421267
215	0x3c1be720	0.009515554
216	0xbd9ddc1a	-0.07707997
217	0xbc3dd2bf	-0.01158589
218	0xbd633a49	-0.055475507
219	0x3c33ef7c	0.0109823905
220	0x3da46c27	0.08028441
221	0xbcafdf9b	-0.021468928
222	0xbc30fa62	-0.010801883
223	0xbca47854	-0.020076908
224	0xbcf7ba4f	-0.030240206
225	0xbd9128cc	-0.070878595
226	0xbc99e4c2	-0.018785838
227	0x3a37474a	0.0006991519
228	0xbd7e79ed	-0.062127996
229	0xbd465286	-0.048418544
230	0xbd678be1	-0.056529883
231	0xbb3ae781	-0.0028519335
232	0xbd9ca6c2	-0.07648994
233	0xbd0ecbb6	-0.034862243
234	0xbcf43544	-0.029810555
235	0xbd9df9cc	-0.077136606
236	0x3c8ac58d	0.016939903
237	0xbcc8bdf8	-0.024504647
238	0x3c957c63	0.018247789
239	0xbdba4d64	-0.09096792
240	0xbc0febbb	-0.00878423
241	0x3d39b81c	0.045341596
242	0x3bdd2e2f	0.0067498903
243	0xbc211254	-0.00983103
244	0xbd561605	-0.052267093
245	0xbd883aa5	-0.066518106
246	0x3bbbddce	0.0057332283
247	0x3da3c12b	0.07995828
248	0xbdac6cdf	-0.08419203
249	0xbdc90953	-0.098162316
250	0xbd90583f	-0.070480816
251	0xbd95cb9c	-0.07314226
252	0x3c1f9584	0.009740237
253	0x3d8163db	0.06317874
254	0xbc7bd6bf	-0.015371024
255	0xbd88ef11	-0.06686223

net.4.weight f4 [4, 256]
0	0xbbcb8f95	-0.0062121847
1	0xbc807aba	-0.01568352
2	0xbddd7679	-0.108136125
3	0xbdd8865d	-0.10572503
4	0x3c2e29e0	0.010630101
5	0xbb915506	-0.0044351844
6	0xbdc1abc6	-0.09456591
7	0xbba8bb1b	-0.005149258
8	0x3c7901aa	0.015198151
9	0xbd4b0b29	-0.04957119
10	0xbcb486a5	-0.02203686
11	0xbd12fa48	-0.035883218
12	0x3abfb585	0.0014626241
13	0x3cff5a21	0.031170906
14	0xbd9e01f9	-0.0771522
15	0xbd7d4d23	-0.06184114
16	0xbc9f31f7	-0.019433005
17	0xbcbb226a	-0.022843558
18	0xbdf9daad	-0.12199912
19	0x3d97dd97	0.07415312
20	0xbc90b10c	-0.017662548
21	0xbde601ed	-0.11230836
22	0xbbde1ad3	-0.0067781
23	0x3c7b10d7	0.015323839
24	0xbc9c1776	-0.019054156
25	0xbddc4d17	-0.10756891
26	0xbdd7ff65	-0.105467595
27	0xbca9879c	-0.020694546
28	0xbddd929d	-0.1081898
29	0xbc326efd	-0.0108907195
30	0xbcb4bc23	-0.022062367
31	0x3c1b57a9	0.009481349
32	0xbdd5b22d	-0.10434375
33	0xbcb58550	-0.022158295
34	0x3c21d8f4	0.009878386
35	0x3c2b3828	0.0104504
36	0x3d53a190	0.05166775
37	0xbd147cf0	-0.036251962
38	0xbe3df27a	-0.18549529
39	0xbda04122	-0.07824923
40	0xbc4a163d	-0.012334404
41	0xbdecf8f4	-0.115709215
42	0xbdea01d0	-0.11426127
43	0x3b73e58d	0.003721568
44	0xbd75903c	-0.059952006
45	0x3cdf1a1d	0.027234131
46	0xbd95d3e4	-0.073158056
47	0x3c474ced	0.012164337
48	0xbcd25d04	-0.025679119
49	0xbc850798	-0.016238973
50	0xbdcd80d8	-0.100343406
51	0x3c6d684d	0.014490199
52	0xbde6b5f8	-0.112651765
53	0x3c14dd96	0.009086033
54	0xbd80c57f	-0.062876694
55	0x3b61e539	0.0034468903
56	0xbc7f0dd9	-0.015567266
57	0xbd93cb14	-0.072164685
58	0x3d28f02a	0.041244663
59	0x3b563bdb	0.0032689485
60	0xbd9c2a73	-0.07625284
61	0x3d5e9675	0.054342706
62	0xbdbef9f6	-0.0932502
63	0xbe8e9bd6	-0.27853268
64	0xbe00d99d	-0.12583013
65	0xbcd374b7	-0.02581249
66	0x3d7bef28	0.061507374
67	0xbcc7b7ba	-0.0243796
68	0x3c9f37bf	0.019435761
69	0xbc3637e7	-0.011121727
70	0xbde09be0	-0.10967231
71	0xbea6f095	-0.32605425
72	0x3c073d83	0.008254412
73	0x3c09c25e	0.008408157
74	0xbc6fe417	-0.014641783
75	0x3ce43afe	0.02786016
76	0x3bbcb732	0.0057591433
77	0xbd458ef5	-0.048232038
78	0xbdafd4e3	-0.08585527
79	0xbd9ceac3	-0.07661965
80	0x3cb74901	0.022373678
81	0xbba5348a	-0.0050416635
82	0xbc679445	-0.014134471
83	0xbc03b7c6	-0.0080394205
84	0xbd84f78d	-0.06492529
85	0xbe488a3a	-0.19583979
86	0xbc8a0a1d	-0.016850526
87	0x3bb31b6a	0.0054659145
88	0x3ce6b619	0.028163003
89	0x3d4e57e1	0.050376777
90	0x3c76eb41	0.015070737
91	0xbe23498d	-0.15946026
92	0x3c089046	0.008335179
93	0x3b53d922	0.0032325466
94	0xbc062da1	-0.00818959
95	0xbd18c74e	-0.037299447
96	0xbd746365	-0.059665103
97	0xbd115e4e	-0.035490327
98	0x3adfa1ab	0.0017061731
99	0x3ce19876	0.02753852
100	0xbda86d33	-0.08223953
101	0xbdbce178	-0.09222692
102	0xbde4a7d4	-0.11164823
103	0x3d0189da	0.031625606
104	0xbb7720cf	-0.0037708764
105	0x3bbbf6fe	0.005736231
106	0xbcc45cc3	-0.023970013
107	0xbdc459be	-0.095874295
108	0x3d290549	0.041264806
109	0xbdc59cfc	-0.09649083
110	0xbd14e3e0	-0.03635013
111	0xbdf2e389	-0.11859805
112	0xbd044d19	-0.03230009
113	0xbe00202a	-0.1251227
114	0xbd831733	-0.06400909
115	0xbe1b5674	-0.15169698
116	0x3bd6d10f	0.0065556834
117	0xbd4fc3e6	-0.050723933
118	0x3a6051f9	0.0008557137
119	0x3c918dc0	0.017767787
120	0xbd38fc1b	-0.0451623
121	0xbc4856ad	-0.012227696
122	0xbeb55c5a	-0.3542202
123	0xbc6522bc	-0.013985332
124	0xbb715715	-0.0036825587
125	0xbcd59364	-0.026071258
126	0x3cb8e7dd	0.022571499
127	0xbde6645d	-0.112496115
128	0xbb2227b1	-0.0024742896
129	0xbd808b61	-0.062765844
130	0xbd96f8d3	-0.07371678
131	0x3cbe7694	0.023249902
132	0x39eef72d	0.00045579058
133	0xbdab51f0	-0.08365238
134	0xbd71afee	-0.05900567
135	0xbd224cbc	-0.03962396
136	0xbcd569b3	-0.026051378
137	0xbd0196a5	-0.031637806
138	0xbd9492b7	-0.07254546
139	0xbd1219f0	-0.035669267
140	0x3d6eaceb	0.058270376
141	0xbdca15ba	-0.09867425
142	0xbd9f8010	-0.07788098
143	0xbc773e4d	-0.015090537
144	0xbd02487b	-0.031807404
145	0x3c77992e	0.0151122045
146	0xbd8b0796	-0.06788556
147	0xbca141cd	-0.019684697
148	0xbc676d8c	-0.014125239
149	0x3c35919c	0.011082079
150	0xbdc13a39	-0.09434933
151	0xbc2725d8	-0.010201894
152	0x3a9ff8da	0.0012204901
153	0xbd801a32	-0.06254996
154	0xbd9e70fd	-0.077363946
155	0x3b064e99	0.0020493625
156	0xbd49e54b	-0.049290936
157	0x3bfcf136	0.0077191843
158	0xbdaca70a	-0.08430298
159	0xbd3b7fb0	-0.04577607
160	0xbce137e8	-0.027492478
161	0xbc4c307d	-0.012462732
162	0xbc82e7df	-0.015979705
163	0x3c8bb6b4	0.017054893
164	0xbdd3ab98	-0.10335463
165	0xbc18b69f	-0.009320884
166	0x3ccdbe03	0.025115019
167	0xbde230e9	-0.11044485
168	0xbe0991fd	-0.13434596
169	0x3c36ced6	0.011157712
170	0xbc1de92a	-0.00963811
171	0x3cede0ca	0.029037852
172	0x3d72365d	0.059133876
173	0xbcc88013	-0.024475133
174	0xbd180720	-0.03711617
175	0xbd64d790	-0.05586964
176	0xbd86b3fd	-0.06577299
177	0xbd8848d3	-0.06654515
178	0xbd0c1f99	-0.03420982
179	0xbc3218b4	-0.0108701475
180	0xbc703eb0	-0.014663383
181	0xbd84ab2b	-0.0647796
182	0xbd5406e7	-0.051764395
183	0xbdb52695	-0.088452496
184	0xbd7fb940	-0.062432528
185	0xbdb9bfc4	-0.090697795
186	0xbda9f031	-0.08297766
187	0xbd8a4f18	-0.06753367
188	0xbccf4daa	-0.025305588
189	0xbd09f27b	-0.033678513
190	0xbda19211	-0.07889188
191	0x3cd9712d	0.026543224
192	0x3c81101a	0.015754748
193	0xbd8d015c	-0.06885025
194	0xbc95af87	-0.018272175
195	0x3d1ef82a	0.038810886
196	0xbd6e2f49	-0.058150563
197	0x3be61a8f	0.007022209
198	0xbb98d972	-0.0046645934
199	0xbd815ff7	-0.06317132
200	0x3d00e983	0.031472694
201	0x3c9e1f18	0.019301936
202	0xbc88bdda	-0.01669209
203	0xbd633320	-0.05546868
204	0xbde27ba5	-0.110587396
205	0xbc4db5ed	-0.0125555815
206	0xbb94c1c6	-0.004539701
207	0x3c9a8cf9	0.01886605
208	0x3d01f7cb	0.031730454
209	0x39a08cab	0.00030622384
210	0x3c84d840	0.016216397
211	0xbce7a53d	-0.028277034
212	0xbd84b624	-0.06480053
213	0x3c5a75ed	0.01333378
214	0xbdf9b218	-0.12192172
215	0xbca74f9c	-0.020423703
216	0xbc6765fe	-0.014123438
217	0xbc1f8591	-0.009736435
218	0xbaf5909c	-0.0018735114
219	0x3ad4ccaa	0.0016235311
220	0xbd0fb0a5	-0.03508057
221	0x3beaf4bf	0.0071702893
222	0xbc3c6421	-0.011498482
223	0xbd42233c	-0.047396883
224	0xbc8dc9d1	-0.017308148
225	0xbcd7931a	-0.02631526
226	0xbd8b4e30	-0.068020225
227	0x3c03297e	0.008005498
228	0xbdc8f05a	-0.098114684
229	0xbda5507e	-0.08071993
230	0xbd9dfc1c	-0.07714102
231	0xbb8b4050	-0.00424961
232	0xbdad4039	-0.08459515
233	0xbc99487c	-0.018711321
234	0xbdb20616	-0.08692567
235	0xbae3a09a	-0.0017366589
236	0x3d284cea	0.041088976
237	0x3c999ac8	0.018750563
238	0xbda09009	-0.078399725
239	0x3b9e7288	0.0048354305
240	0x3d07d665	0.033163447
241	0xbcbbccc1	-0.022924783
242	0xbd2429d3	-0.04007895
243	0xbdb7bea3	-0.08971908
244	0xbbe79cc7	-0.00706825
245	0xbe10eb43	-0.14152245
246	0xbd8306e4	-0.06397799
247	0xbcff32a2	-0.031152073
248	0xbda0f744	-0.07859662
249	0xbdc3917e	-0.09549235
250	0x3c3ab733	0.011396217
251	0x3c61bc14	0.0137777515
252	0xbc8aff48	-0.01696743
253	0xbd5c0a66	-0.053720854
254	0x3c99ec58	0.018789455
255	0x3d003d2b	0.031308334

net.4.bias f4 [4]
0	0x3cd9b9f9	0.026577936
1	0xbd845435	-0.06461374
2	0x3db7504c	0.08950862
3	0x3bbdbe33	0.005790496

obs_net.0.weight f4 [256, 24]
0	0xbfa36e0d	-1.276796
1	0xc011f38c	-2.28049
2	0x3fb33e78	1.4003439
3	0x3ea95285	0.3307077
4	0xbeb1b350	-0.34707117
5	0xbd976d0e	-0.073938474
6	0xbe2fb9e4	-0.17160755
7	0xbcdccc2a	-0.026952822
8	0x3c9d25a4	0.019182988
9	0xbea9e0a9	-0.33179215
10	0xbe05e00c	-0.13073748
11	0x3d8a90a4	0.06765869
12	0xbde14929	-0.11000282
13	0xbd25a88d	-0.040443946
14	0x3e186b51	0.14884688
15	0xbe1bf206	-0.15229043
16	0x3df03cae	0.11730324
17	0xbe2851fc	-0.16437525
18	0x3e4820c1	0.19543745
19	0xbdc484f1	-0.09595669
20	0xbe07607e	-0.13220403
21	0x3c95f0bc	0.018303268
22	0xbd601e5d	-0.054716457
23	0x3e4be854	0.19912845
24	0x3f5e9130	0.8694029
25	0x4007f827	2.124521
26	0xbff7feba	-1.9374611
27	0xbf2d2206	-0.6763004
28	0x3dcab427	0.098976426
29	0x3d8664bb	0.065621816
30	0x3e227031	0.1586311
31	0xbcaa0986	-0.020756494
32	0xbdbfb834	-0.09361306
33	0x3ef43b15	0.47701326
34	0x3d58925b	0.05287395
35	0xbde7953c	-0.11307761
36	0x3ca71824	0.020397253
37	0xbe1befda	-0.15228215
38	0xbe2d523f	-0.16925906
39	0xbde7f151	-0.11325324
40	0xbda40c4b	-0.08010157
41	0xbe6921f3	-0.22766857
42	0xbe2f0189	-0.1709043
43	0xbd4e1496	-0.0503126
44	0x3ddde16b	0.10834011
45	0xbdee4f89	-0.11636264
46	0x3dfdba82	0.12389089
47	0x3dee6ae4	0.116414815
48	0x3d88196f	0.06645476
49	0x3d24838b	0.04016451
50	0x3e3c63b8	0.18397415
51	0x3e338ce9	0.17534222
52	0xbf52c3fd	-0.82330304
53	0x3dc9ec80	0.09859562
54	0xbf0994b3	-0.5374252
55	0x3d139f8e	0.036040835
56	0x3e13634a	0.14393345
57	0x3fa4d56c	1.2877631
58	0xbc9a3399	-0.018823432
59	0x3faeea2b	1.3665212
60	0x3e065dee	0.13121769
61	0x3d90e1a2	0.07074286
62	0xbecc2dc6	-0.39878672
63	0xbdf4178a	-0.11918552
64	0xbdc90f78	-0.098174036
65	0xbec4acb5	-0.38413015
66	0xbe4c2b32	-0.19938353
67	0xbee500d6	-0.447272
68	0xbd82f36e	-0.06394087
69	0xbe6e4e8c	-0.23272151
70	0xbe498ef3	-0.19683437
71	0xbed540a0	-0.41650867
72	0x3ba5758b	0.0050494126
73	0xbe9cae1d	-0.30601588
74	0xbd6e7192	-0.058213778
75	0x3f95f415	1.1715113
76	0xbf20d4f2	-0.6282493
77	0x3e133573	0.14375858
78	0xbf230a22	-0.63687336
79	0xba9f3a12	-0.0012148044
80	0x3d8ed690	0.06974518
81	0x3f30b19e	0.6902102
82	0x3d87367a	0.066021875
83	0xbedcf460	-0.43155193
84	0xbd9bdc0f	-0.07610332
85	0xbd8845bb	-0.06653925
86	0xbe7028c8	-0.23453057
87	0xbce4a417	-0.027910275
88	0x3ca2a667	0.019854737
89	0xbe1ad922	-0.15121892
90	0x3d962ebf	0.07333135
91	0x3d59636f	0.053073343
92	0x3e184231	0.14869
93	0x3e1329d9	0.14371432
94	0xbe7cc8be	-0.24685952
95	0xbeb27c16	-0.34860295
96	0xbf915568	-1.1354189
97	0xc01589d2	-2.336537
98	0x4019b519	2.4016783
99	0x3db0b1e3	0.08627679
100	0xbf928228	-1.144597
101	0xbdf80f3b	-0.1211228
102	0xbf0480e8	-0.51759195
103	0xbd7bb944	-0.06145598
104	0x3e83286f	0.25616786
105	0x3e8c6d36	0.2742707
106	0x3de0c279	0.10974593
107	0x3e8d3139	0.27576616
108	0xbb903f5e	-0.004402085
109	0x3dc82ad0	0.09773791
110	0x3e5192b4	0.20466119
111	0x3e5e190e	0.21689245
112	0x3c17de79	0.00926935
113	0x3e1e01e9	0.15430416
114	0xbcc2aa51	-0.023762854
115	0x3e727fa0	0.23681498
116	0xbdc68193	-0.09692683
117	0xbbaf4b9e	-0.0053495904
118	0x3d620199	0.055177305
119	0x3e4e65f4	0.2015608
120	0xbf812e42	-1.0092242
121	0xc036d8d5	-2.8569844
122	0x3ffba79f	1.9660529
123	0x3fd12c30	1.634161
124	0xbe1182b2	-0.14210013
125	0xbc53d5a8	-0.012929358
126	0xbe4f19a5	-0.20224626
127	0xbc6167b3	-0.013757634
128	0xbc50dfc5	-0.012748663
129	0xbf0ff840	-0.56238174
130	0xbdbecdb5	-0.09316579
131	0xbebf47d4	-0.37359488
132	0xbd65521c	-0.05598651
133	0xbcdbc98c	-0.026829503
134	0x3dc69f6e	0.096983775
135	0xbcc59a97	-0.024121566
136	0x3e541a5e	0.20713183
137	0x3e97dc7d	0.29660407
138	0x3e5dccce	0.21660158
139	0x3ea4a0d7	0.3215396
140	0x3e8aa5ff	0.2707977
141	0x3e939bd7	0.28829834
142	0xbd5825c8	-0.052770406
143	0xbcb8c170	-0.022553176
144	0xbf9d040f	-1.2266864
145	0xc027d29a	-2.622229
146	0x3ff1bae6	1.8885162
147	0xbd757101	-0.059922222
148	0xbe130912	-0.14358929
149	0xbcee67eb	-0.029102286
150	0xbe2b27ed	-0.16714449
151	0x3c9a80a5	0.01886017
152	0xbd8f2b18	-0.06990641
153	0xbf5c7cc8	-0.861279
154	0xbe216452	-0.15760925
155	0xbee1ba03	-0.44087228
156	0x3bf73b87	0.007544938
157	0xbcc74cca	-0.024328608
158	0x3e0bc900	0.13650894
159	0x3da7ae07	0.0818749
160	0xbceb4258	-0.028718159
161	0x3e167825	0.14694269
162	0xbe0f5efb	-0.14001076
163	0xbc933053	-0.017967379
164	0x3e2f4840	0.17117405
165	0xbdbfc98f	-0.09364616
166	0x3e722f99	0.2365097
167	0x3e2fe9e7	0.1717907
168	0x3f237940	0.6385689
169	0x4007dbbd	2.1227868
170	0xbfe0e3da	-1.7569535
171	0xbeaf4f7a	-0.34240323
172	0x3ec73822	0.38910013
173	0x3c0e3d70	0.00868164
174	0x3e06c1a3	0.13159804
175	0x3b4bf88e	0.0031123492
176	0x3de59001	0.11209107
177	0x3c09b8bd	0.008405861
178	0x3da93deb	0.08263763
179	0xbe4fe5a4	-0.20302445
180	0x3cd7999d	0.026318366
181	0xbd8aa42a	-0.06769593
182	0xbc84be96	-0.01620416
183	0xbbe4ddaa	-0.006984432
184	0x3d861437	0.065468244
185	0x3dde48b6	0.10853712
186	0x3cc48bcf	0.023992447
187	0x3e560a6d	0.20902415
188	0xbd8a0410	-0.06739056
189	0xbce5b7c4	-0.028041728
190	0x3c6f6b02	0.014612915
191	0x3e1db8a8	0.15402472
192	0x3f1eecc2	0.62080014
193	0x400010b2	2.001019
194	0xbfdc86c4	-1.7228627
195	0xbee1d434	-0.4410721
196	0xbdb6a20a	-0.08917625
197	0x3da706ab	0.08155569
198	0xbd257a99	-0.04040012
199	0x3da6a04d	0.08136044
200	0xbe38a98a	-0.18033424
201	0x3ee805a1	0.45316795
202	0xba3fe1b4	-0.0007319704
203	0x3e424fa0	0.18975687
204	0xbceaed84	-0.02867771
205	0x3da1a440	0.07892656
206	0x3d5e6a00	0.05430031
207	0x3cbd37bf	0.02309787
208	0xbd17b721	-0.03703988
209	0x3e54061d	0.20705457
210	0xbd36be8b	-0.04461531
211	0x3bec67f6	0.0072145415
212	0x3d76280b	0.06009678
213	0xbd8bc8e8	-0.06825429
214	0xbdf7fe38	-0.12109035
215	0x3e4bb734	0.19894105
216	0x3e3b3686	0.18282518
217	0x3f31853b	0.6934392
218	0xbecce1cc	-0.4001602
219	0x3e90d72f	0.28289172
220	0xbf75ccfb	-0.960159
221	0xbeb13871	-0.34613374
222	0x3e970b2d	0.29500714
223	0x3d9ea706	0.07746701
224	0xbdf6fcba	-0.120599225
225	0xbeb79da1	-0.3586245
226	0x3e3e28d6	0.18570265
227	0xbf333841	-0.7000771
228	0xbe5a22cd	-0.21302338
229	0x3d1bd4d6	0.038044773
230	0x3e3b2900	0.18277359
231	0x3e79903a	0.24371424
232	0xbcd27200	-0.025689125
233	0x3e567594	0.2094329
234	0x3df7aefa	0.12093921
235	0x3e7a6cba	0.24455538
236	0x3dabb7e6	0.08384685
237	0x3d5c4acd	0.053782273
238	0x3e5e33b7	0.21699415
239	0x3d8f0b28	0.0698455
240	0xbed31351	-0.41225675
241	0xbf2a26b1	-0.6646529
242	0x3f1babc6	0.6080898
243	0x3fd0098b	1.6252912
244	0xbf28dfce	-0.659665
245	0xbdda113c	-0.106478184
246	0xbe16d779	-0.14730634
247	0xbd7c86e6	-0.061652087
248	0x3ea85f5d	0.32885256
249	0x3fdc2724	1.7199445
250	0x3c4cd45c	0.012501802
251	0x3e92eb16	0.2869498
252	0x3d282ad8	0.041056484
253	0xbd7ccca4	-0.061718598
254	0x3df32d25	0.11873845
255	0x3deefd90	0.11669457

obs_net.0.bias f4 [256]
0	0x3ea7f3d8	0.32803226
1	0xbe0c6005	-0.13708504
2	0xbe8b32b8	-0.27187133
3	0xbe389348	-0.18024933
4	0x3e67cca4	0.22636658
5	0xbe85e29b	-0.2614945
6	0x3e510b25	0.20414408
7	0xbd2c0d34	-0.04200478
8	0x3acb4767	0.001550895
9	0x3c2f9819	0.010717415
10	0xbedea61b	-0.43486103
11	0x3dfed665	0.12443236
12	0xbe0ea93b	-0.13931744
13	0xbed9ac80	-0.4251442
14	0x3e0b4600	0.13600922
15	0xbe592857	-0.21206795
16	0xbebe1008	-0.37121606
17	0xbd894f47	-0.06704574
18	0x3da41a6d	0.08012853
19	0x3c52a221	0.012856037
20	0x3ec78159	0.38965872
21	0xbdcf599c	-0.101245135
22	0xbe183581	-0.1486416
23	0x3e5f2972	0.21793154
24	0x3e934764	0.28765404
25	0xbddd3502	-0.10801126
26	0xbf1d806a	-0.6152407
27	0xbe4b9386	-0.19880494
28	0xbe9b9961	-0.30390456
29	0x3d9a1b74	0.075247675
30	0x3d9f3451	0.077736504
31	0x3cdcf226	0.026970934
32	0xbcd92ae0	-0.026509702
33	0xbea5d936	-0.3239228
34	0x3d3e0b6c	0.04639761
35	0x3e9c5d30	0.30539846
36	0x3de38cc5	0.11110834
37	0xbcabbc8f	-0.020963935
38	0xbe903c5f	-0.2817106
39	0x3e0d4926	0.13797435
40	0xbd3d48f6	-0.04621216
41	0xbeb0fb22	-0.345666
42	0xbdbb6f0b	-0.09152039
43	0x3ebaa7bf	0.36456105
44	0x3e04f9db	0.12985937
45	0xbc0446ae	-0.008073492
46	0x3e4ba98d	0.19888897
47	0x3e334751	0.17507674
48	0x3d1c7d54	0.03820546
49	0xbe865564	-0.26237023
50	0xbe1b0d95	-0.151419
51	0xbbe19059	-0.0068836627
52	0xbd8ae646	-0.067822024
53	0xbc279b52	-0.010229902
54	0x3e8d96ab	0.27654013
55	0xba7ae114	-0.00095702824
56	0x3e67665e	0.22597644
57	0xbeac422b	-0.33644232
58	0x3e40da13	0.18833189
59	0xbe1af456	-0.1513227
60	0x3d89c382	0.06726743
61	0xbe20bc71	-0.15696885
62	0x3f07e33d	0.53081113
63	0xbe9f2a23	-0.31086835
64	0x3ecc6b0c	0.3992542
65	0x3e8f1511	0.2794576
66	0xbf07eb13	-0.5309307
67	0xbe78625b	-0.2425627
68	0x3eb04028	0.34423947
69	0x3edf85e0	0.43656826
70	0xbd10f4ac	-0.035389587
71	0xbe64e474	-0.22352773
72	0x3e59dfa9	0.21276726
73	0xbef2b9f1	-0.47407487
74	0x3ef8ef26	0.48619956
75	0x3e20c72c	0.15700978
76	0x3e800722	0.25005442
77	0xbed5caa1	-0.41756156
78	0xbe4f12b1	-0.20221974
79	0x3e82251e	0.25418943
80	0x3eb567ed	0.35430852
81	0xbe7beff0	-0.24603248
82	0x3e95a54e	0.2922768
83	0x3ebc5c3d	0.36789122
84	0xbdf9b5fb	-0.12192913
85	0xbeaaad41	-0.33335307
86	0x3eb51dfa	0.35374433
87	0x3c63bd42	0.013900103
88	0xbd0af8f9	-0.033928845
89	0x3e891bd1	0.26779035
90	0x3e030af4	0.12797147
91	0x3ea51c25	0.32248035
92	0x3dfcb82f	0.12339818
93	0x3e3cfa47	0.18454848
94	0x3ebe3b28	0.37154508
95	0x3cddf1c2	0.027092818
96	0xbbbac320	-0.0056995302
97	0x3deb1f73	0.11480608
98	0x3d0da5bb	0.03458188
99	0x3ea44544	0.32084095
100	0xbe8a3e88	-0.27000833
101	0x3e8ab1e5	0.27088848
102	0xbea77f5e	-0.3271436
103	0xbc3feda3	-0.011714372
104	0xbd831b60	-0.06401706
105	0xbd9fa176	-0.07794468
106	0x3d4dbb77	0.05022761
107	0xbec4b7eb	-0.38421568
108	0x3e3e5139	0.18585671
109	0x3e8d72c3	0.2762662
110	0xbe7b85c9	-0.24562754
111	0xbe63b0ef	-0.22235464
112	0xbdc8de15	-0.09807984
113	0x3d8909d4	0.06691328
114	0x3d7c7597	0.06163558
115	0xbf07436a	-0.5283724
116	0xbcd965f7	-0.026537878
117	0x3e52bf88	0.20580876
118	0x3db0b9b6	0.086291716
119	0x3e92046f	0.28519008
120	0x3e9b8b54	0.30379736
121	0x3d2eafb4	0.042648032
122	0x3e5360cd	0.20642395
123	0xbe9fa3e1	-0.31179717
124	0x3b5fed21	0.003416844
125	0x3e72616f	0.2366998
126	0xbe2b12c1	-0.16706373
127	0xbe7385c1	-0.23781492
128	0xbe23860d	-0.15969105
129	0x3e9901ba	0.2988413
130	0xbecb2d77	-0.39683124
131	0x3e4ac9cf	0.19803546
132	0x3d75c04f	0.059997853
133	0xbe23decb	-0.16002958
134	0xbe6cfe55	-0.23143895
135	0xbf28f657	-0.66000885
136	0xbd87cea4	-0.066312104
137	0xbe3a5005	-0.18194588
138	0x3ea3cec7	0.31993696
139	0xbe897483	-0.26846704
140	0x3f02d8b5	0.5111192
141	0xbe9b8769	-0.30376747
142	0xbea07883	-0.31341943
143	0xbe148078	-0.14502132
144	0xbed75a41	-0.42061046
145	0x3e418016	0.18896517
146	0xbe21dddb	-0.15807287
147	0xbe9b8095	-0.30371538
148	0xbf0ae75d	-0.5425928
149	0xbdde6f1d	-0.10861037
150	0xbe6923e3	-0.22767596
151	0x3db976c8	0.09055859
152	0x3eb31f52	0.34984833
153	0x3c13a744	0.009012047
154	0xbd9c9747	-0.07646041
155	0x3dd42295	0.103581585
156	0xbecb2585	-0.39677063
157	0xbd19608d	-0.037445594
158	0xbefad5cf	-0.48991248
159	0xbce8c889	-0.028415935
160	0x3ea30902	0.3184281
161	0x3d94c1aa	0.07263501
162	0x3df072e3	0.11740663
163	0xbeeb881b	-0.46002278
164	0x3de94f54	0.11392084
165	0x3d8d1000	0.068878174
166	0x3e521fbc	0.20519918
167	0x3df899b0	0.121386886
168	0xbddb4879	-0.107071824
169	0x3ebb16c0	0.36540794
170	0xbe647215	-0.22309144
171	0xbea2652d	-0.31717816
172	0x3ed379ae	0.41303772
173	0x3d878bcd	0.06618462
174	0xbd48a61f	-0.04898655
175	0xbdea324f	-0.11435377
176	0xbe9111eb	-0.28333983
177	0xbe076bc0	-0.13224697
178	0x3e2824b9	0.16420259
179	0xbe93357b	-0.2875174
180	0x3e1bc515	0.152119
181	0x3cf95f37	0.03044091
182	0x3c0a2b5c	0.008433189
183	0xbe13f62c	-0.14449376
184	0x3d0e256b	0.034703653
185	0xbea9b7e6	-0.33148116
186	0x3d2d783e	0.042351
187	0x3e31af30	0.17351985
188	0xbf0503f9	-0.51959187
189	0x3e225c23	0.1585546
190	0x3d30f4be	0.043202154
191	0x3d958415	0.07300583
192	0x3e6b17a7	0.22958241
193	0x3df9c5ef	0.12195956
194	0x3d82621b	0.063663684
195	0x3de72b20	0.11287522
196	0xbe099b1f	-0.1343808
197	0xbe29c092	-0.16577366
198	0xbeb4df8d	-0.35326806
199	0x3eb10c49	0.34579685
200	0xbed4b81d	-0.41546717
201	0xbebc8fc7	-0.36828443
202	0xbd413383	-0.047168266
203	0xbf0bf5e0	-0.5467205
204	0x3e0b35e6	0.1359478
205	0xbe73abab	-0.23795955
206	0x3e2fe786	0.17178163
207	0xbebd606f	-0.36987635
208	0xbd7d10a6	-0.061783455
209	0x3e036f98	0.12835538
210	0xbec48509	-0.38382748
211	0x3d3071d5	0.04307731
212	0x3e2661f7	0.16248308
213	0xbdc33369	-0.0953129
214	0x3e3db385	0.18525513
215	0x3d67fd93	0.05663831
216	0x3d654005	0.055969257
217	0xbd9822d6	-0.074285194
218	0x3e3187cb	0.17336957
219	0x3de7123b	0.11282774
220	0xbeb5d997	-0.3551757
221	0xbf00228b	-0.5005271
222	0xbdf8ed3a	-0.121546224
223	0xbeece14f	-0.46265647
224	0x3e26899f	0.16263436
225	0xbe6d64a9	-0.2318293
226	0xbe1a09cf	-0.15042804
227	0xbe8459d3	-0.2584978
228	0x3edb2368	0.4280045
229	0x3f78926d	0.9709843
230	0xbe84e351	-0.2595468
231	0xbd9eaafd	-0.07747457
232	0x3c78fdb6	0.015197208
233	0x3d4c212e	0.04983633
234	0x3e150da5	0.14555986
235	0xbe92a4b2	-0.28641278
236	0xbd8771aa	-0.066134766
237	0xbe5305ff	-0.20607756
238	0x3da06d79	0.0783338
239	0xbe0556dc	-0.13021415
240	0x3ed43a6e	0.41450828
241	0xbc853f77	-0.016265614
242	0x3cb130ef	0.021629779
243	0xbe6c5052	-0.23077515
244	0xbecdc532	-0.4018951
245	0x3e86e186	0.26343936
246	0xbec6e3f7	-0.38845798
247	0xbe8092bd	-0.25111952
248	0xbe4f2db9	-0.20232286
249	0xbdd592f6	-0.10428421
250	0x3e0b24d1	0.13588263
251	0x3da2a2ad	0.07941184
252	0x3d981824	0.074264795
253	0xbea1fe4e	-0.31639332
254	0xbe39de1c	-0.18151134
255	0x3f14f640	0.5818825
