playground/classic_controls/continuous/bipedalwalker/ddpg/model.pth (torch, 853979 bytes, 13 tensors)

net.0.weight f4 [256, 24]
00000000: 2a49 6bbf 6f56 b9bf c1e6 6e3f e81b 25bf
00000010: 46aa f1be f9b3 5abe cca3 50be 1f18 45bd
00000020: 466a 0abd a97e eabe f865 ab3e 5330 ffbe
00000030: c1fc 9e3e 9860 fd3e c814 a0be 7662 dcbe
00000040: 5081 dbbe f6bf 95bd 5764 6abd 6405 7fbe
00000050: 4ed9 e1be a986 54be dc4d 3fbd 0aba 55bd
00000060: 7764 1bbf e318 03bf 5771 673f 32ad d13f
00000070: 0333 813d cb2b 2fbe 8ab2 32bf a2aa 0e3e
00000080: 70f1 113e 344b 0c3e 6ace 1bbe 53f9 953e
00000090: 3b4f 02be 9d1a e9bc 84fc b0bd fe84 79be
000000a0: c26c a1be 2d55 0e3d 11e1 6c3d 4e30 68be
000000b0: 0672 61be 4e44 45bd c1c5 d13d 44f9 923c
000000c0: 9b91 ffbe 0511 d3be 00f3 613f 3ead 06bf
000000d0: a1de 05bf c48f 5b3d f47d 9ebe af60 9f3d
000000e0: 0484 0e3e f6fd 30bf 2ab5 c4bd 6334 2fbe
000000f0: c646 cd3c 9d6e 333d d4df 9cbd bbcc d4be
00000100: 7ddf e9bd dc59 e4bd 0ffa 79be 587b debd
00000110: aae9 68bd 23e6 c5be 50fd 4dbe 620a ce3d
00000120: ae23 c2bd 0d55 50be 5fda 8fbf 665f 36bf
00000130: b27d 103f 2774 cd3d 22aa 0e3f 34f7 e43d
00000140: 4b71 d03e 6a81 363f 3b46 853e 467f 113f
00000150: 2ba3 0b3d 7a22 26bd 8de3 523c 9d2a 993d
00000160: d37e 023e 360f 77be 807a 2ebd 0b86 d83d
00000170: 4442 ccbc bf98 31be 14d5 503d 6d36 d43d
00000180: 85c2 7b3f bdce ea3f 5d4c 82bf 7587 8abe
00000190: 8b71 233e ea06 503d 8f6c 98be 88d1 483d
000001a0: 4526 633c 3cd7 c7be a32c a3bd 2578 7c3d
000001b0: 5e3a cd3d d92d adbd 4548 cfbd 62e1 debd
000001c0: d91f 5c3d cc1f 22be 786b d33b 94ff 0b3d
000001d0: bc4c 88be 66e6 fd3c 80df 913c e988 8cbe
000001e0: 4a8a a23f 754c 3440 a479 7cbf af09 cabd
000001f0: 0ba5 e83b 1d6c ae3d 6c87 8bbc f9a0 163d
00000200: 6518 0ebe b023 9d3f c4de 293d 9fb1 f63e
00000210: 1cce 9f3d 31bc b63d 8b23 233d d032 b7bd
00000220: f5f7 d43d 328e debd ffd2 473e dd7b da3d
00000230: 555d 8cbb 33cc 1fbd 4521 85bd de73 083e
00000240: 1c2c febe ab23 ebbe 90dc 91bd 4663 89be
00000250: 0fa3 a8bd 5db2 e1bd b0d9 63bb 70b5 c7bd
00000260: 61da 86be 7ebe a1bc aa34 b93d 06ab e83d
00000270: 96c2 16be 4b4c 99be a1cb 8ebd 39f5 08be
00000280: 6acd 27bd 5407 67be e24d 4cbe a70e adbd
00000290: c5c8 1cbe c517 bf3c 8d6d 9abe 4a35 07be
000002a0: 8297 10bf 5f68 f5bf e5df e23c ade6 f4be
000002b0: e55e 9bbf b797 6cbe d847 22bf d143 79bd
000002c0: 30f2 033e 9857 943e b65e 163d b4ba 81bd
000002d0: 6599 88bb 800e 783c 26d5 563e 406a 8a3c
000002e0: 166d 163e e4d2 553e 4a56 1d3e ca86 523d
000002f0: 7811 06bc 48b7 c6bc 0001 8a3e f795 9d3e
00000300: 8634 3d3f 5704 f43f fce5 f7bd eade afbe
00000310: 0dbe 043f 30dd 223e 16ea a33e da3b a23d
00000320: b221 fbbc cffc 02bf 4255 ed3c a6e1 fcbe
00000330: 4c50 063c e2ed 023e 334b d7bd 439d bebd
00000340: 81e9 09be cd14 7cbe 0cd6 8e3d 4257 96be
00000350: becc 4abe 7b10 bf3c 480e 22be 75b1 b9bd
00000360: 9552 eebe cd19 c7bf b163 293f 4790 72be
00000370: c83f 99be 637b 49be d89b f0be 9d4f 6bbe
00000380: 9dd6 03bf 0389 eabe aef8 6a3e 6cb5 733e
00000390: 7e20 0f3d 1795 81be 0a4d 47bd 1df1 babd
000003a0: 12cc febd cb9e 55be aa73 b1bd ec86 a73d
000003b0: 48c6 d8bd c77d 4abe 1ede 22be 2b0c 80bd
000003c0: 69c0 22bd 445b 29bf 29bd 38bf feb4 22ba
000003d0: 0493 bc3d ed98 81be e1ea 8d3e 4a4e 00bd
000003e0: f29d 2ebf c53a 803e afcb 62be 28eb 26be
000003f0: dbcd 68be 9099 80bf d1d1 133e 75f9 a53c
-0.91908514 -1.4479502 0.9332085 -0.64495707 -0.4720022 -0.21357717 -0.20374984 -0.048118707
-0.033792756 -0.4579976 0.33476233 -0.49841556 0.3105221 0.49487758 -0.31265855 -0.4304387
-0.42872095 -0.07312004 -0.057224598 -0.249044 -0.44111103 -0.20754494 -0.04670511 -0.052179374
-0.6070017 -0.5120985 0.9040732 1.638098 0.06308558 -0.1710655 -0.6980368 0.13932279
0.14252257 0.13700563 -0.1521546 0.29291782 -0.12725537 -0.028455073 -0.086419135 -0.24367139
-0.31528288 0.0347492 0.057831828 -0.22674677 -0.22016153 -0.048160844 0.10242797 0.017941125
-0.49915776 -0.41223922 0.88261414 -0.52608097 -0.5229283 0.053603902 -0.3095547 0.07782113
0.13917547 -0.69137514 -0.09604867 -0.17109828 0.025058161 0.04380666 -0.07659879 -0.41562447
-0.1141958 -0.11149952 -0.24411796 -0.1086337 -0.056863464 -0.38652143 -0.20116162 0.10060574
-0.094794616 -0.20344944 -1.1238517 -0.71239316 0.56441796 0.1003192 0.5572835 0.11179963
0.40711436 0.7129122 0.26030144 0.5683483 0.034091156 -0.040560223 0.012871635 0.07478831
0.12743692 -0.24126896 -0.042597294 0.10572442 -0.024933942 -0.17343424 0.050984457 0.103619434
0.9834369 1.8344342 -1.0179554 -0.2705647 0.15961282 0.050787844 -0.29770324 0.04902795
0.013864105 -0.39031398 -0.07967498 0.061638016 0.10020898 -0.0845601 -0.10121206 -0.10882832
0.05374131 -0.15832442 0.0064520203 0.034179285 -0.26621044 0.030993652 0.017806768 -0.27448204
1.2698452 2.8171666 -0.9862311 -0.09865128 0.007099753 0.08516715 -0.017032348 0.03677461
-0.13876493 1.2276516 0.04147221 0.4818239 0.07802984 0.089226134 0.03982882 -0.089452386
0.103988566 -0.10866965 0.19514082 0.10668156 -0.004283587 -0.0390131 -0.06500486 0.1332545
-0.49643028 -0.4592565 -0.07122147 -0.26833552 -0.08234226 -0.11020348 -0.0034767203 -0.09751403
-0.26338485 -0.019744154 0.09043248 0.11360745 -0.14722666 -0.2994102 -0.06972433 -0.13374795
-0.040967382 -0.22561389 -0.19951585 -0.0845006 -0.15310962 0.023326764 -0.30161706 -0.13203922
-0.5648118 -1.9172477 0.027694652 -0.47832242 -1.2138335 -0.2310475 -0.63390875 -0.06085569
0.12885356 0.2897308 0.036711417 -0.06334439 -0.0041686767 0.015140176 0.20979747 0.016896367
0.1469005 0.2088123 0.15364948 0.051398076 -0.008182876 -0.024257317 0.26953888 0.30778477
0.7390827 1.9063824 -0.12104413 -0.34349757 0.51852494 0.15904689 0.3201453 0.07921572
-0.030655716 -0.51167005 0.028971318 -0.49390906 0.008197855 0.12786058 -0.1051239 -0.09307339
-0.13467981 -0.2461731 0.0697442 -0.29363447 -0.19804665 0.023323288 -0.1582576 -0.0906705
-0.4654738 -1.5554749 0.6616774 -0.2368785 -0.29931474 -0.19675975 -0.469939 -0.22979589
-0.5149935 -0.45807657 0.22946426 0.23799676 0.034943096 -0.2530906 -0.048657455 -0.0912802
-0.12441267 -0.20861356 -0.08664639 0.08180031 -0.10584694 -0.19774543 -0.15905043 -0.06252321
-0.039734278 -0.66154885 -0.72163635 -0.00062067795 0.092077285 -0.25311986 0.2771826 -0.031324662
-0.68209755 0.25044838 -0.22148012 -0.16300642 -0.22734778 -1.0046864 0.14435507 0.020260552

net.0.bias f4 [256]
00000000: b4fe 003e 8729 85bd f273 e9bc 00a7 b23c
00000010: 58f8 e9be 3ab9 d0bd 47dd 54be c6b6 e73d
00000020: b7cf 27be 3120 243d c24b 20be 01e4 6ebd
00000030: 3c14 1d3c 74c0 0fbe ed5a cabd cdc8 7d3d
00000040: e454 363e f3e8 04be 48cb 0ebe 09c5 e0bd
00000050: cf93 a23e 16a0 0bbe cd1e b8bd 99d4 93bd
00000060: a2fd d73d e92e 1bbe c2df 64be a10c 99bd
00000070: 6cc7 8abe 88d4 d9bd 90aa b23d 93a3 ef3b
00000080: 329d 99be f3df 243d aae7 c23d 3a26 653e
00000090: 9d8a f4be a103 2b3e 9048 80be ad60 1d3d
000000a0: 4f7f 7f3e e3b4 413e f4ec 5ebe 29c1 053e
000000b0: c964 2d3e 192b 4a3e fea0 1fbe 4d0c a13c
000000c0: 74fa 043e c224 1cbd 24db 1e3d f940 a4be
000000d0: eb89 de3d 5bb4 dcbd 6843 13be 75d3 053e
000000e0: d8b8 94bd 49ed 063d 28b2 62be c8c6 b93d
000000f0: daee 89be a322 843d f02c cfbd 06f4 2fbd
00000100: 56c0 f2bd e037 e1bc bfb6 04be e534 143e
00000110: d4e9 703e b7f5 443e e5ec c8bd 0bb8 18bc
00000120: ce9a 073e e2a7 75be c0df ccbc c19b 51be
00000130: a198 20be d266 b0bd fd6a 29be 2748 1fbe
00000140: 8cd8 42bd 4089 12bc f292 513e 0ff4 1abd
00000150: cee7 f9be 9101 32be e9a7 643b 435e 34be
00000160: bebf ffbd a977 7b3e bc6f b1bc 9161 38be
00000170: bd6f eebc 026a 6ebe 420c 5cbe 6dd7 5c3c
00000180: dce2 843c c87d 043e 5730 82bd cc27 103e
00000190: 827e 26be 1cb9 32bd 98b9 923d b420 893d
000001a0: e501 c83e 6058 67be 8e2b 913e 4a77 b1be
000001b0: 69f1 d6bd 02f0 0e3d 3253 0abd b0b2 713a
000001c0: fc2d 763b d308 0fbe a5a9 3f3e 3ea8 24bd
000001d0: 3b45 03be 2646 123e e4ff 113d ec37 e9bd
000001e0: 4adf 06be 3acb 643e 962e 3e3e 95c2 ac3d
000001f0: 74f5 003e 84fe 21bc c3c7 073e 2340 58be
00000200: b098 d2bd 0d79 17bb 36ee eb3d 536e 313d
00000210: a397 a5bd b88c ffbe a756 01be 5746 51bd
00000220: 7f15 7bbd b387 9d3c 710c aebd 372a 65be
00000230: e951 40be d905 a0be 2b13 183e ab36 933d
00000240: 6971 0e3c ca37 fcbd db39 ae3e bef7 37bd
00000250: 89a0 0abd 8dbd 063e 320f 593d af0f 8fbe
00000260: d688 9a3c f564 093d aa8e 883e 1ee3 7ebd
00000270: 129f 18be f8c3 83bd 6033 57be 88e7 62be
00000280: d543 07bf 67f2 f43d 517b 2c3e cd5f 4ebd
00000290: 588e efbc 7128 80be c34c 2dbe 9250 7bbd
000002a0: 254a 00bf 745a 603e 522c 163e 4814 c53e
000002b0: ff90 69bd 66ee 833e b9e5 90be 52f6 913e
000002c0: a938 4bbd 76a8 923e e8b8 323d 85fd b1be
000002d0: 41f6 e63d 7c17 23be 73ce b9be fe4c 86bd
000002e0: 6375 5ebe e7d5 5ebe 2a32 91be 80fb 503e
000002f0: f80e 60be 880d fdbb 0785 80be 850b c5bd
00000300: 6116 40bd 0437 4f3e 9014 573d 255b 29bd
00000310: 663b 9fbd 9db9 51be 8bf0 ef3c 2c82 833e
00000320: 7b7e 2d3d 3494 d23d 635b 8d3d 592d 143e
00000330: 4d80 4c3e 02e3 37be 241d 75be f046 f5bc
00000340: 48db 5fbc 0923 36be 05f4 993e bbf9 9e3e
00000350: 941a 2ebd 919d 873d baef cdbd 0990 963d
00000360: 3cca 183e 5bb8 4f3e ba97 8abb 7b40 233e
00000370: a4db 593e 9f4d 65bd 7ff8 0a3e b600 7dbe
00000380: 2b55 45be 9286 32be ed3a 4ebe da0c 3ebc
00000390: 2617 76be 58d0 b0be 3207 a7be 8427 b5bd
000003a0: 36f7 9b3e 357e acbe a378 5f3c df49 573c
000003b0: 6268 a0be 98aa 673d 7505 753d f756 9dbe
000003c0: 6f22 7bbe 3a85 a1be 08b7 c83c f7e7 1239
000003d0: 50ef 27be 675e a7be 4195 353e 1331 84be
000003e0: 0cbb 54be 9f85 32be 8f23 ad3d 007a 123e
000003f0: 386f 99be 1d96 98be 2ca4 0b3e 37fe ecbd
0.12597162 -0.06502061 -0.02849767 0.021808147 -0.45697284 -0.10191579 -0.20787536 0.11314158
-0.1638783 0.040069763 -0.156539 -0.05832291 0.009587344 -0.14038259 -0.09880624 0.061959077
0.1780582 -0.12979488 -0.13944733 -0.109750815 0.31753394 -0.13635287 -0.0899025 -0.07218284
0.105464235 -0.15154614 -0.22350982 -0.07473112 -0.27105272 -0.1063624 0.087239385 0.0073132007
-0.30002743 0.040252637 0.09516843 0.22377864 -0.47762004 0.16700603 -0.2505536 0.038422275
0.24950908 0.18916659 -0.21770078 0.13061966 0.16932978 0.19743003 -0.15588757 0.019659186
0.12986165 -0.038120992 0.038783208 -0.3208082 0.108661495 -0.107765876 -0.14381182 0.13068946
-0.07261819 0.032941137 -0.22138274 0.09071118 -0.26940042 0.06451919 -0.10115993 -0.04295733
-0.118530914 -0.027492464 -0.12960337 0.14473303 0.23526698 0.19234358 -0.09810809 -0.009321223
0.13242647 -0.23989823 -0.025009036 -0.20469572 -0.15683223 -0.086133614 -0.16544719 -0.15554868
-0.047569796 -0.008943856 0.20466211 -0.03783041 -0.48809665 -0.1738341 0.0034890121 -0.17614083
-0.12487744 0.24557365 -0.021659724 -0.18005969 -0.029106015 -0.23282626 -0.21489051 0.013479096
0.016221456 0.12938607 -0.06356876 0.14077681 -0.16259196 -0.043633565 0.071643054 0.06695691
0.39063945 -0.22592306 0.28353542 -0.34661323 -0.10495264 0.034896858 -0.033770747 0.0009220047
0.003756403 -0.1396821 0.18717058 -0.04019951 -0.12819378 0.14284572 0.035644427 -0.113876194
-0.13171116 0.2234315 0.18572459 0.08435551 0.12593633 -0.009887341 0.13259797 -0.21118216
-0.10283029 -0.0023112923 0.115200445 0.043318104 -0.08085563 -0.49912047 -0.12630711 -0.051092472
-0.061299797 0.019229745 -0.08498467 -0.22379385 -0.18781246 -0.3125446 0.14851062 0.071881615
0.008694031 -0.123153284 0.34028515 -0.044914 -0.033844505 0.13158245 0.052993007 -0.27941653
0.018864077 0.033543546 0.26671344 -0.062228315 -0.1490443 -0.064338624 -0.21015692 -0.22158635
-0.5283788 0.11960297 0.16843916 -0.05038433 -0.02924268 -0.25030854 -0.16923814 -0.061356135
-0.50113136 0.21909505 0.14665344 0.38492036 -0.057023045 0.2576782 -0.28300264 0.2850824
-0.049614582 0.2864415 0.04363337 -0.34763733 0.11277438 -0.15926927 -0.3629032 -0.06557654
-0.21724467 -0.21761285 -0.28358585 0.2040844 -0.2188071 -0.0077225603 -0.25101492 -0.09621338
-0.046896342 0.2023583 0.052509844 -0.041346688 -0.07775001 -0.20480962 0.029289505 0.2568525
0.04235695 0.10282174 0.06902196 0.14470424 0.19970818 -0.1795769 -0.23936898 -0.029941052
-0.013663121 -0.17786802 0.30068985 0.31049904 -0.042505816 0.0662185 -0.1005549 0.07351691
0.14920896 0.2028517 -0.004229513 0.15942566 0.21275192 -0.05598223 0.13571356 -0.24707302
-0.1927077 -0.17434147 -0.20139666 -0.011599744 -0.24032268 -0.34533954 -0.32622677 -0.08845428
0.30462044 -0.33690038 0.013639602 0.013140171 -0.31329638 0.056559175 0.059819657 -0.3073041
-0.24524854 -0.31546956 0.024501339 0.00014010059 -0.16399884 -0.3268921 0.17732717 -0.2581869
-0.20774478 -0.17433785 0.08454048 0.14304352 -0.29967666 -0.29802027 0.13636845 -0.11571925

net.2.weight f4 [256, 256]
00000000: d979 e9bd 8012 fe3c 6fd7 10bd f5b5 4c3d
00000010: 9d8e 813d 5a6e 533d e7f2 2cbc f22a 38be
00000020: 3d55 593d 8b33 dfbd da90 823c c619 65bd
00000030: 5613 d13c 1c49 11bd aea3 6ebd ba89 dd3c
00000040: fd67 b2bd 143c 293d 29be 4c3d 22e2 60bd
00000050: edcf cbbd 4f7a 52bb 7de2 07be 49c2 04be
00000060: 72b2 583c 7ee0 20bd 08f6 793d 3719 913d
00000070: 8566 e93c 1dd5 0fbd 8dea 51bb fd68 a0bc
00000080: fd57 6bba ab5f fe3c a3bc 87bd 8583 13bd
00000090: 388f 26bd 09e4 06bd 40fe 49be 07fa e7bc
000000a0: a209 4cbd 1c19 683b 7210 813d 2d31 b3bd
000000b0: 5483 48be 245d 0cbe 2166 41bd 40e4 b5bd
000000c0: fd8b f1bd bdf3 64bc 10b2 19bc 5f91 f63c
000000d0: 6dd2 a0bd cb49 19bd 20fb 1b3b 291a d8bd
000000e0: 932a 54bc d271 78bd 423c a23d 2b5e a6bd
000000f0: d0ca e93c 6703 243c 16bc c73c 9d5f d1bc
00000100: cc42 733d 0e94 20bd 11df b93c dad7 64ba
00000110: 7922 75bc 6fd5 ec3c b18f 9c3b f65c 29be
00000120: f2c7 8dbd c04b 00bc 1ef5 293a 6981 73bd
00000130: e526 78bd 6829 8d3d 2064 cabc a0a7 043d
00000140: 06ae 55bd e4c2 66bc 3bab 05be 7d97 6fbb
00000150: 9a38 393d 8647 43be b9c6 bfbc 55f7 923d
00000160: 5b8a 03be ecda c63c ee00 d8bd 3b88 513c
00000170: 75cd b8bd 4b17 553d c4aa 633d d9d3 5bbe
00000180: 8a5d e4bc c22c d63b a364 fcbc 4fd7 59bd
00000190: 5e82 62be 0d58 863d 6d9e 2abe 0265 e1bc
000001a0: ffcf febd e1e4 01bc 06da 34bd 5de1 4ebe
000001b0: 715a 103d fe48 38be e7ce 83bc 1838 91bd
000001c0: 473a 9c3c ccbf 0ebd 5a3d 0ebd 8342 293d
000001d0: 2109 4dbd 952f aabd b9ed 17be 53df ca3c
000001e0: e284 5c3c 0bdd 043d e43f 25bd e944 e9bd
000001f0: cd39 52bd 1aba efbd fd4e bbbd 7d86 6abd
00000200: a1cb 633c 9592 2dbd ad13 7dbc 2447 16bd
00000210: 5a81 5ebd b851 55bd 1fde 393b ad03 0cbd
00000220: fbd7 08bd db33 98bc f2df 2cbd ad13 d3bd
00000230: 85f2 45bd eee1 c9bc 9522 f7bd 27b2 293c
00000240: 0f15 2cbe 3588 f8bd 4425 3cbc ec91 94bd
00000250: 8004 b83c d2e4 79bd 4fd9 96bd 647c e1bd
00000260: 9c55 15be 4f72 d3bd e91a 3fbe fb3b 0e3d
00000270: 4540 56bd 68b3 0cbe 7095 b2bd b501 bcbc
00000280: 2ef0 c3bc afdc aabd 46d8 98bd 12f3 9dbd
00000290: 5dbf 46bc b454 03bd 0616 1fbd 72d3 4dbe
000002a0: bcf3 cbbd 957f 15bb cc11 e7bd 5726 bcbc
000002b0: cf6e 22be 97bc fabd d710 ad3c 5337 f5bd
000002c0: 754b 74bd cba2 05bd 8580 a8bd 6ee6 5ebe
000002d0: 0092 19be f572 ed3c c721 483b 0963 25be
000002e0: 341e 713d fbb1 93bc ff13 c03b 8b92 dcbd
000002f0: 88f2 203d 1f6e 883c a756 713c 1ed8 93bd
00000300: 58ca 7dbc 6b10 103c 18f2 8c3c d03e 40bd
00000310: b631 e4bd 97c5 8f3b 266a 70bc 17f0 51bd
00000320: 736d f7bd 54a7 0bbd 61d6 d9bd be96 2abe
00000330: ae6d acbb 5b14 9cbd 0aa2 593d b5a5 3e3d
00000340: fc68 c83c 30a6 043c 7a2d 63bd 98fb 95bd
00000350: 919d debd bab8 d3bc 69e7 8b3c aaa4 21bc
00000360: 9964 35be ad02 fc3c 4c85 aabb baa2 a8bd
00000370: 257a 63bd 6da0 5bbe bf15 2cbe aae9 5f3d
00000380: 2f84 0bbe c60b 6ebd 95b8 ccbb c927 b9bc
00000390: 801d ffbc 6506 92bd 8164 f9bd df28 5e3c
000003a0: 6bf2 ddbd 682f cd3c 6a23 3c3d 86ec 853c
000003b0: 4410 92be c95d 0dbd 4fa9 c3bd fa42 643d
000003c0: 14b6 b3bd 8c17 db3c 6b6a 77bc 1ee8 4abd
000003d0: adce 0bbb 65fc cc3c 703d d1bd 393b 843d
000003e0: 256b b6bc ecb5 953d e9f7 efbd 3bd8 8cbd
000003f0: 3be1 9fbc 25e5 11be 6131 23bd 8953 a0bd
-0.11400194 0.03101468 -0.035361703 0.049978215 0.063260294 0.05161891 -0.010555959 -0.17985132
0.053059805 -0.10898503 0.015938211 -0.055932783 0.025521915 -0.035470113 -0.058261566 0.027043212
-0.087112404 0.04131706 0.04998604 -0.054903157 -0.09951768 -0.0032116359 -0.13269992 -0.12964739
0.013226138 -0.039276592 0.06102565 0.070848875 0.028491268 -0.03511535 -0.0032030672 -0.019581312
-0.000897765 0.031051477 -0.066277765 -0.0360141 -0.040663928 -0.032932315 -0.19725895 -0.028317465
-0.049813874 0.0035415357 0.06301965 -0.08749614 -0.19581348 -0.13707405 -0.04721654 -0.08881426
-0.11794279 -0.013974127 -0.009380832 0.030098615 -0.078526355 -0.03742389 0.0023800805 -0.10551865
-0.012949604 -0.060655423 0.079216495 -0.0812343 0.028539091 0.010010577 0.024381679 -0.025558287
0.059389874 -0.039203696 0.022689374 -0.0008729674 -0.014961832 0.028910367 0.0047778715 -0.16539368
-0.06922902 -0.00783056 0.00064833637 -0.059449587 -0.060583968 0.06892663 -0.024705946 0.032386422
-0.052167915 -0.0140845515 -0.130536 -0.00365588 0.045219995 -0.19070253 -0.023410188 0.07176081
-0.12845747 0.024274312 -0.10547052 0.0127888275 -0.09023563 0.052024167 0.055582777 -0.21467532
-0.027876634 0.0065360973 -0.030809706 -0.05318385 -0.22120044 0.06559763 -0.16661997 -0.027513985
-0.12442016 -0.007928104 -0.044153236 -0.20203157 0.0352425 -0.17996594 -0.01608987 -0.07090777
0.019070758 -0.03485088 -0.03472648 0.041323196 -0.050057534 -0.08309857 -0.14836778 0.024764692
0.013459416 0.032437366 -0.040344134 -0.11390097 -0.051324654 -0.11705418 -0.09145925 -0.057257164
0.013903529 -0.04237612 -0.015446586 -0.03668894 -0.054322578 -0.052079886 0.0028361154 -0.034183193
-0.0334091 -0.018579414 -0.04220576 -0.10306487 -0.048326988 -0.024643864 -0.12067143 0.010357416
-0.16804908 -0.121353544 -0.011483494 -0.07254395 0.022463083 -0.061009236 -0.07365667 -0.11010054
-0.14583439 -0.10324537 -0.18662609 0.03472517 -0.052307386 -0.13740313 -0.08719909 -0.022950033
-0.023918238 -0.08342873 -0.07463126 -0.077123776 -0.0121305855 -0.0320632 -0.038839363 -0.20100191
-0.09958598 -0.002281164 -0.11282691 -0.0229675 -0.15862583 -0.12243002 0.021126194 -0.11973443
-0.059642274 -0.032625955 -0.08227638 -0.2176759 -0.14997101 0.02898548 0.003053771 -0.1615106
0.058866695 -0.018029204 0.0058617587 -0.10770138 0.039293796 0.016654072 0.014730132 -0.072189555
-0.015490137 0.008792977 0.017205283 -0.046934903 -0.11142294 0.004387568 -0.014673745 -0.05125436
-0.12081423 -0.034095123 -0.10636593 -0.16659066 -0.0052620983 -0.0762107 0.053133048 0.04654475
0.024464123 0.008096263 -0.05546329 -0.07323378 -0.10869897 -0.02584492 0.017078118 -0.009865919
-0.17714156 0.030762995 -0.0052038785 -0.08234163 -0.055536408 -0.21447916 -0.1680517 0.0546662
-0.13624643 -0.058116697 -0.00624759 -0.022601979 -0.031141996 -0.07130126 -0.12177373 0.013559549
-0.10837253 0.02504702 0.04593221 0.016348135 -0.28528035 -0.03451327 -0.095537774 0.055727936
-0.08774963 0.026744626 -0.015101056 -0.04953777 -0.0021332905 0.025022695 -0.102167964 0.06456608
-0.022267887 0.073100895 -0.11717207 -0.0687718 -0.019516578 -0.14247568 -0.039842013 -0.07828433

net.2.bias f4 [256]
00000000: 58b9 d83c 219d 6fbc 7f95 4e3c d839 b6bc
00000010: 238b ccbe ea98 a9bb e7e0 8cbd 7525 f03b
00000020: f39e b13e a15f 053e 09a4 34bd 2c9a 43bd
00000030: eb0e 9dbd 0b88 483e 6d6a f23d 2a83 2f3e
00000040: 46ed 0ebe 9854 933e 9a10 36bd b28b 2ebe
00000050: 0ee1 d53c 1dd7 823c 3389 a1bc 6bed f7bc
00000060: e84c d5bd f16a 1cbc e8d2 18be 9fa9 99bd
00000070: 1f51 183e 4a98 dc3d ec69 4e3e 7e55 b7bc
00000080: 6582 c5bd 2b71 f0bc 0868 64be 6835 39be
00000090: 27d0 183d c1ad a03e a283 9bbc 61ea 91be
000000a0: 8377 71bd ebf0 91bd 52cc 1d3e f1c1 65be
000000b0: 928e 2cbd d248 ab3b c55e a73d 990a babc
000000c0: 4e27 44be 4ed1 86bb 9971 96be d042 50bd
000000d0: bcd3 8ebd 6a6f 10be af1e c3be 700a 8fbc
000000e0: ec73 6fbd b321 a53e 70f9 87be 63ff 25bd
000000f0: eb8e dbbc 8ff9 02bf 9e20 dcbd 03d6 05be
00000100: a1d6 ba3d fda8 d0bd ed2c 7cbb 00d7 9dbe
00000110: b30b bbbe 2d6c b7bd 380a bcbe b4c4 4b3c
00000120: 68bf c2be 064e 13be 4848 2bbd c16d 7ebd
00000130: 23df 2dbd d580 a83d 6abb 8d3c 4ecf 563c
00000140: 6232 21bd b85c d2bd cea2 803c 2a60 fcbc
00000150: 84d9 98bd 96b0 6bbd 1bf0 4e3e 0363 b9bd
00000160: fd8e aebd c029 033e 5c44 03be 229e b03e
00000170: 2fc7 88bd f8a5 bf3e 6a27 9fbe bb65 7f3e
00000180: 5ab4 02be c68e 55bd 0f8c 8a3d c87c 16be
00000190: 4438 e63a 45ec 3a3e fd6a e9bd 4a6c 28bf
000001a0: 4609 72bd fd59 87bd 3d94 1dbe a428 fabc
000001b0: a982 34bd 4fb4 50bd 82ef 58bd 9f2b 8abd
000001c0: 3a23 f7bb eacc b4bb e8dc b33b 2c10 bebd
000001d0: 03f5 3f3b 0f2b 033d 4ba0 dcbd 625d 81be
000001e0: 3f65 1abe dfb4 85bd 0514 873e b714 70bd
000001f0: 62bb cdbe f25d 25bd 2e11 23be 68e9 03bf
00000200: 613e 1cbd 770c 47bd cbc5 c5bd a9ce a13a
00000210: eae0 1d3c 6254 913d 6404 4a3e f1de d03e
00000220: 5e8c 0cbd f85e 86be 6cd9 4f3d 5a75 90be
00000230: 9a13 95bd 7490 12bd c801 40be 368c fb3c
00000240: 022a a0bd 1c31 33bd 8184 3d3e e5de ac3d
00000250: e7dd a3bd b254 88bd bbc7 4f3e a44e 8c3c
00000260: dabf 8bbd 927f 34bd e4c1 16bd 3be9 4cbe
00000270: a5b2 08bd 4914 8bbe 6e0b 033d b00f b9bd
00000280: e3c5 33bd f41d c03d 1a38 e93b f744 8bbd
00000290: 4bf5 3cbd 9d08 55bd a43f 74bd a9dd 1c3e
000002a0: 6158 46bd dbe0 2fbd 3582 d13d 390a fe3b
000002b0: 8c8e eb3d b672 053d d89f 3d3b e722 fd3b
000002c0: 53a1 e53d 821c a9bc 5f34 edbd 9f45 8a3e
000002d0: dc9f 35be e67e 90bc 4285 0dbe 62d9 73bd
000002e0: a6cb f9bd ec18 1bbe e708 63be 528f 49bc
000002f0: 7e24 a23e 4e12 98bd 9b0c 3bbd 3854 d23d
00000300: 2a85 263d 5c9f edbc f6ac 2c3a f3e3 7ebd
00000310: 9f65 2f3e d5d0 12be 7d98 c23c 4a80 b1bd
00000320: 00e2 adbd 5aeb 933d 0644 3bbe a2cb 9fbc
00000330: 5bc7 7e3c 45f3 65bb 2aad d0be f677 9ebd
00000340: bb94 60be 6170 bcbb 7ba4 3fbd c9e4 3c3a
00000350: 5f4b 94be ffe6 a5bc 5f68 20bd eed7 72bd
00000360: c994 49be 853f e2be 5ec3 44be 9588 dbbc
00000370: d046 d0bd 0da1 92bd 2141 69be d63d 3abe
00000380: 8ead 8dbe 1c13 6e3e 3e12 91bb ea79 05bd
00000390: 6913 a4bd f83f 8b3e b55f d8bc 28ca 38be
000003a0: 142e 57bd d55a c2bd 444f 493d 06a8 1c3e
000003b0: b4fa c8be 44d4 05bd 35db 8dbe 0748 1eb9
000003c0: 0d4c 33bd 430d a53c 57c6 d23d 9176 ecbd
000003d0: 7b18 eabe cfe4 9d3b a477 5f3d 61aa 1fbd
000003e0: 67ab a8be e5e4 a8bd 1f0a 2bbe 3c52 b0bc
000003f0: d133 7fbd 47c4 4cbd c98d 1dbe c658 dfbd
0.026455566 -0.014624865 0.012608885 -0.022244379 -0.39949903 -0.0051756995 -0.06878834 0.007328684
0.3469158 0.13024761 -0.04410175 -0.04775445 -0.07668861 0.19583146 0.11836705 0.17139879
-0.139577 0.28775477 -0.044449426 -0.17045477 0.026108291 0.015971715 -0.019718742 -0.030264577
-0.10415059 -0.009546981 -0.14924204 -0.07503056 0.14874695 0.10771234 0.20157593 -0.022379633
-0.096440114 -0.029350838 -0.2230531 -0.18086779 0.037307885 0.31382564 -0.018983666 -0.2849913
-0.058951866 -0.071260296 0.15409973 -0.22437264 -0.042128153 0.0052271867 0.08172373 -0.022710131
-0.19155619 -0.0041143065 -0.29383543 -0.050844967 -0.06973979 -0.14105001 -0.38109347 -0.017461032
-0.05846016 0.32252273 -0.26557493 -0.04052676 -0.026801547 -0.51162046 -0.10748409 -0.1306992
0.091229685 -0.10188482 -0.0038478926 -0.30828094 -0.36532363 -0.0895618 -0.36726546 0.012437034
-0.38036656 -0.14385232 -0.04181698 -0.06211639 -0.042449128 0.08227698 0.01730128 0.013110949
-0.03935469 -0.10271591 0.015702631 -0.030807573 -0.07463363 -0.057541452 0.2020878 -0.09052088
-0.085233666 0.12808895 -0.12819046 0.34495646 -0.06678616 0.37431312 -0.31084758 0.24941151
-0.12764111 -0.052138112 0.06764995 -0.14696038 0.0017564376 0.18254192 -0.113973595 -0.65790236
-0.059090875 -0.06608961 -0.1538858 -0.030536957 -0.04406992 -0.050953206 -0.052962787 -0.06746601
-0.007542041 -0.0055175917 0.0054889806 -0.09280428 0.0029290325 0.032023486 -0.10772761 -0.25266558
-0.15077685 -0.06528639 0.2638246 -0.058613505 -0.40182024 -0.040372796 -0.15924522 -0.51528025
-0.038145427 -0.04859587 -0.09656867 0.0012344915 0.009636143 0.07096173 0.19728237 0.4079509
-0.034313552 -0.2624433 0.05074446 -0.28214532 -0.07279129 -0.035782292 -0.1875068 0.030706506
-0.07820512 -0.043748006 0.18507577 0.08440951 -0.08001309 -0.06656779 0.20291035 0.017127343
-0.06823702 -0.044066973 -0.036806002 -0.20010845 -0.033373494 -0.27163914 0.031993322 -0.09036195
-0.04388989 0.09380713 0.0071172835 -0.068002634 -0.046132367 -0.052010167 -0.059631005 0.15318932
-0.04842413 -0.04293905 0.10229913 0.0077526835 0.11501798 0.0325801 0.0028934386 0.007725108
0.11212411 -0.020643476 -0.115822546 0.27006242 -0.17736763 -0.017638635 -0.13820365 -0.059533484
-0.12197046 -0.15146226 -0.22171365 -0.012302237 0.31668466 -0.07425366 -0.04566632 0.1026997
0.04065434 -0.029006653 0.00065870525 -0.062229108 0.17128609 -0.14337476 0.023754353 -0.08667047
-0.08490372 0.07222624 -0.18287668 -0.01950628 0.01555046 -0.0035087627 -0.40757114 -0.077377245
-0.21931736 -0.0057507013 -0.04678772 0.00072057225 -0.28963754 -0.02025175 -0.039162036 -0.059287958
-0.19685663 -0.44189087 -0.19215152 -0.026798526 -0.101697564 -0.07159624 -0.22778751 -0.18187651
-0.27671474 0.23249477 -0.0044272235 -0.03258697 -0.08011515 0.27197242 -0.026412824 -0.18045866
-0.052534178 -0.09489981 0.04914786 0.15298471 -0.3925377 -0.032673135 -0.27706304 -0.00015094886
-0.0437737 0.020147925 0.102917366 -0.11546052 -0.45721802 0.004818536 0.054557458 -0.038980845
-0.3294327 -0.08246783 -0.1670308 -0.021523587 -0.062305275 -0.049991872 -0.15386118 -0.10905604

net.4.weight f4 [4, 256]
00000000: 5441 f9bd f059 80bd 26b2 093c 4dd9 e8bc
00000010: 678d c9bd 1c83 4fbc 2467 28bd 9a98 2dbe
00000020: dcff a7bf a40d edbb 344c 0dbd dcc1 a2bc
00000030: 81e9 ee3e ab5a 97be 00e2 6abe 34d0 bbbe
00000040: 4022 0a3f d723 aa3e 074f 9fb9 ec5f d3be
00000050: ee0d a5bc 8ab4 5dbc 89ae b0bc b4f6 debc
00000060: 0277 593d facc a53d 4d44 cabd e08e 313e
00000070: ca8a 3a3e ccc4 493f fe61 0b3f 4e9b 043a
00000080: 980c b53d c16c 2fbf ad84 29bf 31ad 9c3e
00000090: bab8 0a3f 4300 41bf 1656 c03d c228 d63d
000000a0: 233c fd3c dc60 293e 4b6b f2be 582a 173f
000000b0: 45a1 163f 717f 903d 2738 e33c abc9 4b3d
000000c0: a6df 6fbe ed5d d63c 05f7 aa3d c6c6 3d3d
000000d0: 9f59 fb3c 607a 693e 0138 6e3e 2500 22bb
000000e0: 409b 04bd 990e cbbe 29ef 7f3f 3ae3 e3bc
000000f0: c38d 2fbf 09a3 bbbe 42fe fe3e d824 b63d
00000100: ce4a 1f3f 0b89 09bd 3f2c cd3c 2410 cb3e
00000110: 0eb9 d5bd 73a4 533c f250 64bc 7946 f9bc
00000120: f702 ea3d 857f bd3e b554 1a3d ba4c 64bc
00000130: de7f f2bd e1bf 66bf 6e66 ff3c 8381 113d
00000140: a454 29bd 3802 d03b e781 e7be ea7a 963d
00000150: 7e5f 5c3c 23d6 453d 5431 d73e d48a 3c3d
00000160: 1cc6 793d b3f3 423d 077b 083e 8d9f 563e
00000170: 1a75 48bd 85f9 f9be 4679 afbe e0c4 373f
00000180: 1339 83be 981a 76bc 290a 00be 3a82 553c
00000190: fc9a 89bc d2d7 73bd c836 2b3e 9b60 af3c
000001a0: fd95 1bbc 20ad 44bd a3f9 fa3e adb0 34bb
000001b0: 060e b23d c577 9fbd e71b 113d 20f3 40bd
000001c0: 18eb f2bc 3594 4b3a 3e00 8ebd f56f 273c
000001d0: 1d72 95bc 472d 19be cf50 3a3e 4388 49be
000001e0: 3adc 8abf 48bb 613c 0a1e 733f 9101 9cbd
000001f0: f47d 49bf ebe2 e93b a256 3a3e d058 1abf
00000200: ecf3 013e 0e93 fbbd 3134 493a 2363 53bd
00000210: 157b 25be cdf9 c43d 8cf4 383d 8296 78bf
00000220: cb2d 1dbc 97ce 5f3e 813d 8b37 8318 76be
00000230: c1fb 853c 8d9f a93d ba1c 9f3e c697 523d
00000240: 7684 753d 302a e83d caa3 92bd 2ca3 1fbf
00000250: 31d7 fbbd 552a 23bc d292 443d a8c5 d63b
00000260: 1ae0 c23c 0ebb 563d 0873 b3bc 9946 99bd
00000270: e676 723d e60d 283e 8fb2 98bd 627d 0abb
00000280: 034b 04bd 8bfa 14be d49e 29bd b7e5 78bb
00000290: 92e3 07bc 6bd0 0f39 dc6f 653d 02a6 953e
000002a0: e36e a5be 776e 3dbd 9ad3 abbf 1592 a73c
000002b0: fead e33d b056 70bd 719e 1f3d 333c 903c
000002c0: 3bb7 d33e 8a46 3cbe dec3 003d 8f97 79be
000002d0: 1893 8c3e 230b 4dbe faae 08bf 8cb1 2cbf
000002e0: b6b2 35bd 785c a53e 85d2 3d3f ef6f bfbd
000002f0: 121c cbbe c6c8 1ebe 4342 3cbd 9835 f1be
00000300: 46d3 adbe 7305 1bbb 580e 55be 29a6 173c
00000310: 71c9 ec3e 049a 353e 5edf 3bbc 53a2 19bd
00000320: 3d38 943d bd2e 563f 8f67 813f 776d e9bd
00000330: 9555 253f 2dd7 8ebc 7544 a13e 4504 1e3e
00000340: 450c ce3e b402 64bd e832 243b 1358 b5be
00000350: b660 d4be 018f 383d fa7e 2abe 3770 153e
00000360: dfac 07bf dad3 78be ad2b aebf c8b2 833c
00000370: 42dd 183e a303 47bd a698 60be a4cb 09be
00000380: 09f1 53bf 031c 45bf a147 b93e ed16 893d
00000390: 67f7 aa3c 850f 11bf c5ee 3c3d 50fe ea3d
000003a0: 37a9 873c 57a6 3fbd 3530 6a3d 0b23 17bf
000003b0: e3ac e93e a455 b43c 48e0 febe bb09 e6bc
000003c0: 7505 203d 8b01 b3be 36cc f73e 5956 093f
000003d0: a396 6b3e 420e c33e a31c 80be fa20 e7be
000003e0: a645 d3bd 23c2 2b3d b990 9b3d 1f7d 52bd
000003f0: 5883 18bf 3f5e 1bbf 2e9a 9f3f f7fa 733d
-0.121706635 -0.06267154 0.00840429 -0.02842393 -0.098414235 -0.012665536 -0.041113988 -0.16952744
-1.3124957 -0.007234292 -0.0344965 -0.01986783 0.46662524 -0.29561362 -0.22937775 -0.36682284
0.5395851 0.3323047 -0.00030385723 -0.4128412 -0.020148244 -0.013531813 -0.0215676 -0.027217247
0.05309201 0.08095737 -0.098763086 0.17339659 0.18217006 0.78815913 0.544464 0.00050585426
0.08840293 -0.6852532 -0.6621807 0.30600885 0.5418812 -0.75391024 0.093914196 0.10456993
0.030912464 0.16540855 -0.47347483 0.59048986 0.5883983 0.070555575 0.027736736 0.049752872
-0.23425159 0.026167834 0.083478965 0.046332143 0.030682383 0.22800589 0.23263551 -0.0024719324
-0.03237462 -0.39659575 0.99974304 -0.027818311 -0.68575686 -0.36647823 0.49803358 0.08893746
0.6222352 -0.03357796 0.025045512 0.39660752 -0.10435687 0.012917626 -0.0139353145 -0.030429112
0.11426347 0.37011352 0.03767844 -0.013934309 -0.11840795 -0.90136534 0.031176772 0.035523903
-0.041340485 0.0063479207 -0.45216295 0.07347663 0.0134505015 0.04829992 0.42029822 0.046030834
0.060979947 0.04759569 0.13328181 0.20959301 -0.0489398 -0.4882318 -0.34272212 0.7178478
-0.25629482 -0.015020989 -0.12503876 0.013031537 -0.016797535 -0.059531994 0.16720116 0.02140837
-0.009496209 -0.048016667 0.49018583 -0.0027571127 0.08694081 -0.07786516 0.035427 -0.047106862
-0.029653117 0.000776592 -0.0693364 0.010219564 -0.01824289 -0.14958678 0.18194889 -0.19680886
-1.0848458 0.0137775615 0.9496771 -0.07617486 -0.78707814 0.0071376464 0.1819711 -0.6029177
0.12690705 -0.12283908 0.00076753186 -0.051608216 -0.16160233 0.09617958 0.045155093 -0.97104657
-0.009593437 0.21856152 1.6598731e-05 -0.24032788 0.016355397 0.08282385 0.31076604 0.051414274
0.059940778 0.113361716 -0.071601465 -0.62358356 -0.12296904 -0.009958823 0.04799158 0.006554324
0.0237885 0.052424483 -0.021905437 -0.074841686 0.05919542 0.16411552 -0.07455932 -0.0021131863
-0.0322981 -0.145487 -0.041411236 -0.0037978718 -0.008294003 0.00013715184 0.05601488 0.29228216
-0.32311162 -0.046247926 -1.3423951 0.0204554 0.11117171 -0.05867642 0.03896946 0.01760683
0.4135073 -0.18386284 0.031436794 -0.24374221 0.27455974 -0.2002378 -0.53391993 -0.67458415
-0.044359885 0.3229711 0.7414935 -0.093475215 -0.39669853 -0.15506276 -0.04596163 -0.471112
-0.3395025 -0.002365437 -0.20806253 0.009255924 0.46247438 0.17734534 -0.011466829 -0.03750832
0.07237289 0.83665067 1.0109729 -0.11397832 0.6458371 -0.017436588 0.3149754 0.15431316
0.40243736 -0.05566664 0.0025054757 -0.35418758 -0.41480035 0.045058254 -0.1665 0.14593588
-0.52998155 -0.24299565 -1.3607079 0.01607646 0.14928153 -0.048587453 -0.21933231 -0.13456589
-0.82789665 -0.7699587 0.3618746 0.06693826 0.020869924 -0.56664306 0.046126146 0.114742875
0.01656018 -0.046789493 0.05717488 -0.59037846 0.45639715 0.022013493 -0.49780488 -0.028080812
0.039067704 -0.34962115 0.48397988 0.5364738 0.23006682 0.38096815 -0.25021848 -0.45142347
-0.10316019 0.04193319 0.07595963 -0.051388856 -0.59575415 -0.60690683 1.2468927 0.05956551

net.4.bias f4 [4]
00000000: 647e 06bd e459 363e ae94 cf3d 3a1d 0a3e
-0.03283538 0.17807728 0.1013578 0.13487712

obs_net.0.weight f4 [256, 24]
00000000: ff56 2cbe 62c5 c8be 9c2d 7ebf ee09 f83f
00000010: 4c4d 23be c33c 59bc 8ada 4dbe f271 55bd
00000020: 2ba9 63be bf0e cd3e d1d8 323d 6a62 b23e
00000030: feae 343e 9066 563d 0c6b 443d 970a 6dbc
00000040: 5738 953e 171d 2f3e 1dee 9b3e e861 653e
00000050: d6ee 913e d3e5 3a3e b0dc c1bd 6936 efbe
00000060: 2312 b93e 55b1 87bf 3577 353f 1fa4 aabf
00000070: fca3 82be d4e8 9b3c 7654 a2be 453f 27ba
00000080: 5704 0abe 3ac8 d3be e28a 26bd 31fe 8bbe
00000090: 0fe7 d5bc 6b5e 5fbc 043a c8be 1b66 c9bd
000000a0: 991f 13be 77b5 c4be 53ed 4dbe dcb5 4abd
000000b0: cd83 a5bd 55e6 76bd 4a29 2c3d b465 ec3e
000000c0: 5c9a bebd ac96 83be 15ed 2b3e 45a0 e43d
000000d0: d6b7 123e bd93 bb3d c5e7 253e 5b0c 2a3e
000000e0: acc6 7bbd 2b2c 3bbd 462e 2bbe 366e 6e3e
000000f0: 45d5 22be d397 423e c912 82be 049d 2fbe
00000100: bbfa a7be b41f babe d4cc 41be ef5c 21bd
00000110: 59bb 53bd 434f 4abe 63aa e1bd eb3a 2cbe
00000120: 6557 0ebe 01ba 8e3f b438 8fbf 801d 05bf
00000130: 4cc6 aabe a099 05be d069 13be 725a a33d
00000140: 32ca b5be 02a5 823e 1781 183d 3818 32be
00000150: ae9d ddbd a58f 453c d001 933d 095f 143e
00000160: 3fd0 97bd bd63 b3bd d6f5 963d 6161 753e
00000170: 1ffc 5c3c d969 743e 94c3 26bc 621a 9bbe
00000180: 32ce 613f a612 e53f 4ea2 1cbf 2f8c 91bd
00000190: 5547 983e 3815 5d3d ab96 de3d 7cc6 2abc
000001a0: ed64 54bd bfa3 413e 5592 dc3d 592e aabd
000001b0: dd51 9d3c 617b adbd 37b1 603e 4ea4 853d
000001c0: 8479 ab3c dea9 f33d da4b b3bc 9321 65bc
000001d0: 203a 1d3d ef69 4f3d ee21 e63b 6625 913d
000001e0: 2052 463f 0277 f43f f4fd 2abf d938 74bd
000001f0: 804d a43d 9025 343d 6cc5 6f3d bdf5 e33c
00000200: 9677 1ebd 880e 3b3f 43f0 a0bb 3e44 b13c
00000210: d4ac 0f3d 6707 a53b 444c 4e3e 90fe 96bd
00000220: 4226 4cbd 73ba 853e cd3e a93d 4ff1 1d3e
00000230: 95b5 a93d 10d3 383e aa55 2c3e 4e8a 47be
00000240: 3216 c6bd cfae afbe 8245 f93d 5d6b 54bd
00000250: b45e 7e3c f021 f73b 1d75 14be e2d7 46bd
00000260: ce08 8abe 8849 153e f179 be3e f969 983e
00000270: 2ce0 c1bd 67a6 07be 484a f5bd e58e 99be
00000280: 1432 36be b6a1 f9bd b6df 2cbe e710 d1be
00000290: bb9c 43be 4db4 9bbd b7b6 78bd f54e ab3c
000002a0: 5ec4 febc dc5d ebbe 0e2d a93e ad9f a63d
000002b0: edb7 c4bd 9819 1cbe 55c5 48bd 2a27 e43b
000002c0: 507b 803e c24a 67bd 9f89 49bd 56d5 74be
000002d0: e9c1 1fbd fd6f 353b b8c6 183d cb6a 833e
000002e0: 95b1 5e3e b428 6b3e 7d64 9d3e 4eee b83e
000002f0: 9d24 b63e c289 183c b334 423e 929c ad3e
00000300: 4e51 cdbc e956 243e 9cc0 92bf 098a c33e
00000310: b4ec c3be 087c 3ebc 12ac 7cbd 5511 42bd
00000320: 2dd1 b6bd 7f8d 98be 138b d7bd 38d8 8bbe
00000330: b77f 94bd e433 a63d 80cc 013e 4e7c 8a3d
00000340: 1cad 3a3e 003e b3bc 46cb 093e 0f52 e23d
00000350: 542c febd 6564 5c3e 26e8 79bd 71a2 0ebf
00000360: 6305 a83e 2524 c63f 489f 94bd 3589 c93f
00000370: fd26 0a3f d79f 623d ee9b 3e3e ea6e 973a
00000380: 66e5 243b 19d1 5fbe 63fb 683d b2d7 2abe
00000390: 56d6 6bbc 42dd d8bd 29f0 b93d dee7 9d3e
000003a0: 83fe c13e 8eda 553e f025 c13e 8056 2c3e
000003b0: 47b0 673b 78b3 a53e 662e 9ebd 5a71 9abe
000003c0: 70ba 6a3f 3220 0340 87db 6cbf e7da d5bd
000003d0: 9bd2 ec3e 1e95 0dbc 7f96 e03d 0f94 483d
000003e0: 8da5 683d 872f 733e 1e0f 193d cc74 273e
000003f0: e3dc d0bc fa3e 9b3a 9090 703e 0bdc 183b
-0.16830061 -0.3921309 -0.99288344 1.937803 -0.15947455 -0.013259116 -0.20102897 -0.05211062
-0.22232501 0.40050313 0.043663803 0.3484071 0.17644879 0.052343905 0.04795365 -0.014467857
0.29144546 0.1710094 0.30455104 0.2240063 0.2850253 0.18251733 -0.09465921 -0.467212
0.3614665 -1.0600992 0.7088502 -1.3331336 -0.25515735 0.01903192 -0.31705064 -0.00063799723
-0.13478218 -0.41363698 -0.040659793 -0.2734237 -0.026111154 -0.013633351 -0.39106762 -0.09833928
-0.14367522 -0.38419697 -0.20110063 -0.04948984 -0.0808178 -0.060278255 0.042031564 0.46171343
-0.093067855 -0.2570089 0.16789658 0.111633815 0.1432794 0.09159038 0.16201694 0.16606276
-0.061468765 -0.04569642 -0.1671687 0.2328423 -0.15901668 0.19003229 -0.25404957 -0.1714974
-0.3280848 -0.36352313 -0.18925792 -0.03939527 -0.05169234 -0.19756798 -0.11018827 -0.1681935
-0.13900526 1.1150514 -1.118918 -0.5199814 -0.33354414 -0.13046885 -0.14395833 0.079762354
-0.35505825 0.25516516 0.037232485 -0.17392051 -0.10821091 0.012058173 0.0717808 0.14489378
-0.07412767 -0.08759258 0.07371108 0.23962928 0.013487845 0.23868503 -0.010178465 -0.30293566
0.88205254 1.7896316 -0.6118516 -0.07106816 0.29741922 0.053975314 0.108685814 -0.010423299
-0.051854063 0.1891012 0.10770098 -0.08309621 0.019204075 -0.08470798 0.21942602 0.06525479
0.020931967 0.11897634 -0.021886755 -0.0139850555 0.03838551 0.050638136 0.0070230877 0.07087211
0.7746906 1.9098818 -0.6679375 -0.059624527 0.080225945 0.043981135 0.058537886 0.027827138
-0.038688265 0.7306905 -0.004911454 0.021638986 0.03507693 0.005036283 0.2014628 -0.07372773
-0.049841173 0.26118812 0.082639314 0.15424083 0.08286587 0.18049264 0.16829553 -0.19486353
-0.09672202 -0.34313056 0.12171461 -0.051860202 0.015525509 0.0075418875 -0.144978 -0.048545726
-0.26959842 0.14578831 0.3720241 0.2976835 -0.094665855 -0.13247071 -0.11977059 -0.29991832
-0.17792541 -0.12189047 -0.16882214 -0.40833208 -0.19102757 -0.07602749 -0.060721125 0.020911673
-0.031099495 -0.45970047 0.33042186 0.081359245 -0.096053936 -0.15244138 -0.049016315 0.0069626765
0.2509408 -0.05646778 -0.04920351 -0.23909506 -0.039003287 0.0027685158 0.037298888 0.25667414
0.2174743 0.22964746 0.3074073 0.36119312 0.3557481 0.009310188 0.18965416 0.33908516
-0.025063183 0.16048779 -1.146503 0.3819125 -0.38266528 -0.011626251 -0.061687537 -0.04737981
-0.08926616 -0.29795453 -0.10524573 -0.273134 -0.07250922 0.08115366 0.12675667 0.067619905
0.18230098 -0.02188015 0.13456449 0.11050808 -0.12410799 0.21522672 -0.06101241 -0.55716616
0.3281661 1.547978 -0.07256943 1.5744997 0.5396574 0.055328216 0.1861417 0.0011553441
0.0025161146 -0.21857108 0.056880366 -0.16683844 -0.014394363 -0.105890766 0.0907901 0.30840963
0.3788949 0.20884153 0.37724257 0.16829872 0.0035352872 0.32363486 -0.077236935 -0.30164605
0.9169073 2.04884 -0.9252247 -0.10442143 0.4625443 -0.008641509 0.10966205 0.048969325
0.056798507 0.23748599 0.037367932 0.16353148 -0.025495952 0.001184433 0.23492646 0.0023324515

obs_net.0.bias f4 [256]
00000000: 921c 8ebe a4af 083f 15a5 1bbe 35ee dbbe
00000010: 7256 99bc a379 afbe 54e5 b3bc 25a4 063e
00000020: 6113 fcbe 0887 15be 75f0 6cbe b97c 06bf
00000030: a0fb 1e3e 920e 4b3e 2e08 063e 44a8 5b3d
00000040: b00a 9a3e 620b c73d e85e 103d 7952 28be
00000050: 8f32 a23d d446 213e 5424 123e e6f7 62be
00000060: f10e 28be d179 d73d 25b6 8d3e 1f25 513e
00000070: c83e 43be b1cf b33d a668 82be 3e4e e43a
00000080: 00bd debd aa12 bf3d 1c8d 3ebe a02b 9a3e
00000090: 52f1 d6bc 6445 773e 9a78 c93e 96cf 3a3e
000000a0: 005b a93e b01f 8bbe 590c ccbe 8809 05be
000000b0: cc65 c2be cdf9 0f3e f3ed d7be dcb0 8abd
000000c0: 0c38 1bbe 025c 913e 4d63 98be b487 43be
000000d0: 1b8f 4c3e 487a e53d 4679 f03d 85b8 83bd
000000e0: 601d a7bd 1904 c1bd ced3 f9be acf9 a4be
000000f0: 5533 10b8 8817 a9bd 6282 b3bd 4e54 333d
00000100: c96b 523e 63e9 8a3e 6d40 363e a7be 943e
00000110: 6f96 13be 13f7 0fbc c99e 4fbe cdf8 b43d
00000120: bfe8 843e 6f11 56be 5027 97bd 27a9 90bd
00000130: 9e6d 393e c3be 07be dd6d 2ebe 21f7 043f
00000140: 194b a4be 4cdc a13e 8ca3 3cbe c571 06bf
00000150: 566d fdbc 8385 073f e8f7 c7be 5704 493c
00000160: fed0 29be 9990 f73e b140 243e 0f8e 53bd
00000170: 86e2 0e3e c567 b13a dff6 913e 5dda 21bc
00000180: 4a3b 14be 691e a43e 2727 c1be dc58 943d
00000190: 4cab 84bd 28c2 c13e 6b21 3cbe 6bed e1be
000001a0: c528 1bbd fdbf 01bf ddd9 a03e a5f7 803e
000001b0: e37e c0bd 4f28 213d 8f2d 58be 9f47 223d
000001c0: 38a9 a03c 786d 443e 5ce7 56be 0305 f03b
000001d0: 8743 01be 5301 e1be 709f dbbb f722 9b3b
000001e0: c0ab 113e 3440 c53e 8a0b b5be 026a a1be
000001f0: 20de 72be b68b 3e3c 2fd0 92be dfae d1be
00000200: 99f6 babd 2110 84be fa13 d5be 1d72 fcbe
00000210: c34c 223e 6eea 883d 74c5 87be b60e 8abe
00000220: c018 bd3d a40c 78be 5093 7e3e 7587 a33d
00000230: 5072 98be 331b 6a3e 1d97 e6be f3a2 9cbd
00000240: 3b5d f4bc 7f9e fabe 4c14 f0bd 851f 9b3e
00000250: a166 743e d4dc 98bd 7803 fabe 7f9c b33c
00000260: 3b48 b6be 7c71 803e b2cc ac3e 2db3 883e
00000270: dae8 7d3e f1bb 393c 7c44 8ebe 9d8d 9dbe
00000280: f9bb d9be 54eb cc3e 42b6 24be 5cc4 a83d
00000290: a56d 08bf 19dd 483e b028 eb3d 1d6b a1be
000002a0: d8d4 8ebe 9369 bb3d d075 c53d ed2d 2e3c
000002b0: 09e7 bdbe 7495 8bbe 2232 e5bd 96f4 4dbe
000002c0: 9150 92be c991 393e 12e9 60be 391e 24be
000002d0: 7379 e4bd 1f43 0bbd 8445 283e 9ac4 aa3e
000002e0: c515 333d 2282 cebc 7c61 5fbd 518a a3be
000002f0: 4c0d 22be 8e2a 06be 72fc 953e c05f 583e
00000300: e7f0 843e b056 59be ddfa 4c3e 96d5 bcbe
00000310: 9ff8 d4bd 9e14 953d 02b8 583e c848 85be
00000320: 7e90 b2be fe40 b93e cca5 86be 083f a43e
00000330: 5a3f cabe 1c3e 6d3e 33fe e2bd acfe 0cbf
00000340: 8f73 4fbd 84c6 593e d5e5 10be 7960 1bbe
00000350: a551 063d 5fed 64bd 7f45 bcbe 4eec 33bd
00000360: c621 4a3d c026 bf3e dc99 27be 95f1 873c
00000370: d865 21be 455d df3d bd74 953e 609c 523c
00000380: 8bcf 80be f983 b8bd 574d 96be f2d2 b2be
00000390: d522 71be 1943 88be ddaf b8be fb73 82be
000003a0: b738 6f3e a848 99bd 7ef7 72be ef9e 92be
000003b0: c9fc 8fbe 08a1 2d3c d79a 133e e540 b23d
000003c0: fa05 16be 3547 1cbe 9e6d ab3e 0e3c 073e
000003d0: 2a32 44be 938a edbe ee3b c53e d3b7 08bc
000003e0: fb3e 9f3d e90a 4ebe 609a 983d d6ba 8ebe
000003f0: 4475 d8be 9bfa ffbe 4a89 45be a655 03bf
-0.27756172 0.53393006 -0.15199693 -0.42955175 -0.018717978 -0.3427249 -0.021959938 0.13148554
-0.49233535 -0.14602292 -0.23138602 -0.5253406 0.15525675 0.19829777 0.13089058 0.053627267
0.3008628 0.09718968 0.03524676 -0.16437711 0.079197995 0.15749675 0.1427167 -0.22164878
-0.1641195 0.105212815 0.27678028 0.20424317 -0.19066918 0.08779848 -0.25470465 0.0017418338
-0.10875893 0.09329732 -0.18608516 0.30111408 -0.026238117 0.24147564 0.39349824 0.1824325
0.3307724 -0.27172613 -0.3985317 -0.12991917 -0.3796829 0.14060135 -0.42173728 -0.067720145
-0.15158099 0.2839051 -0.2976326 -0.19094735 0.19976465 0.11204964 0.11741881 -0.06431679
-0.081599 -0.0942461 -0.48794407 -0.32221735 -3.4380082e-05 -0.08256441 -0.08765103 0.04378157
0.2054893 0.27131185 0.17798014 0.29051706 -0.14412855 -0.008786934 -0.20275415 0.088365175
0.2595882 -0.20905088 -0.07380545 -0.07063513 0.18108222 -0.13256364 -0.17034097 0.5193959
-0.32088545 0.31613386 -0.18421763 -0.5251735 -0.030935925 0.529381 -0.39056325 0.012269101
-0.1658363 0.48352507 0.16040303 -0.05164915 0.139536 0.0013534954 0.2850866 -0.009878722
-0.14475742 0.3205445 -0.37725183 0.07243511 -0.06477985 0.37843442 -0.18372123 -0.44126448
-0.037880678 -0.50683576 0.31416216 0.25188938 -0.09399202 0.039345082 -0.21111129 0.039619084
0.01961194 0.19182384 -0.20986694 0.007324816 -0.12623416 -0.43946323 -0.006702356 0.0047343927
0.14225674 0.38525546 -0.35360366 -0.3152619 -0.23717546 0.011629989 -0.28674456 -0.4095373
-0.09129066 -0.25793555 -0.41616803 -0.49305812 0.15849595 0.06685339 -0.26517832 -0.2696435
0.09233236 -0.24223572 0.24860883 0.07984821 -0.29774714 0.22861938 -0.45037165 -0.076482676
-0.029829612 -0.48949048 -0.11722621 0.30297485 0.23867275 -0.074639946 -0.4883077 0.02192521
-0.35601982 0.25086582 0.3374992 0.266992 0.24795857 0.011336313 -0.27786624 -0.30772105
-0.42526224 0.4002329 -0.16085151 0.082405776 -0.53292304 0.19615592 0.1148237 -0.31527033
-0.27896762 0.09150996 0.096416116 0.010631067 -0.37090328 -0.2726246 -0.11191203 -0.20112833
-0.28577092 0.18122019 -0.2196391 -0.16027154 -0.11155977 -0.03399956 0.16432768 0.3335312
0.043721933 -0.025208537 -0.054536328 -0.31941465 -0.15825385 -0.13102171 0.29294163 0.21130276
0.25965044 -0.21224475 0.20017572 -0.36881703 -0.10398983 0.07279323 0.21163943 -0.2603209
-0.34875864 0.36182398 -0.26298368 0.3207934 -0.39501458 0.23168224 -0.11083641 -0.550761
-0.050647315 0.21267134 -0.14150174 -0.1517352 0.032792706 -0.055890437 -0.3677177 -0.04392653
0.049348615 0.3733425 -0.16367286 0.016594687 -0.15761507 0.109064616 0.29190627 0.0128546655
-0.25158343 -0.09009547 -0.2935588 -0.34926564 -0.23548444 -0.2661369 -0.36071673 -0.2547911
0.23361479 -0.07484561 -0.23727223 -0.28636882 -0.28122547 0.010597475 0.14414535 0.08703784
-0.14650717 -0.15261538 0.3348207 0.13206503 -0.19159761 -0.46394786 0.38522285 -0.008344608
0.077756844 -0.2012135 0.0745132 -0.2787692 -0.42276967 -0.49995884 -0.19290653 -0.51302564
