playground/classic_controls/continuous/pendulum/ddpg/model.pth (torch, 804635 bytes, 12 tensors)

net.0.weight f4 [256, 3]
-0.84667057 -1.9375334 0.23493943 -0.5135138 -0.22284657 0.0014934873 -0.07688969 0.8234488
-0.9377115 0.011288991 0.08627761 0.0025941352 -1.4463725 1.3718033 -0.4359151 1.006848
1.6820656 -0.86312205 -0.17171414 -0.2151681 -0.0056815348 0.9659115 -0.45958477 -0.67157537
0.12458973 -0.55623883 -0.008569077 -0.5549144 3.1236637 0.38867438 1.6470109 -1.0346355
-0.49197298 0.6748119 -2.8373516 -0.62549067 0.058098055 -0.5984447 -0.009614691 -0.48458698
-0.48923877 -0.005629262 0.70232314 0.39027044 -0.007645387 0.3516952 0.22481802 0.0440613
0.472916 -0.57042694 -0.05025583 0.43095526 -1.6811798 -0.26721805 1.2641027 -2.0806265
-0.84702945 -0.44771895 -0.22749011 -0.0019409338 0.27904052 -0.34231704 -0.21258122 0.26550654
-1.7150114 -0.008029023 -1.0406171 0.69432986 0.2729005 1.8030167 -0.02924386 -0.5387897
2.058824 -1.405491 -0.71931934 -0.006507692 0.19292942 -0.008155498 0.8255113 -0.70210415
-0.122946054 -0.056594077 -2.2732837 -0.1864394 -0.6011149 -0.8430419 -0.6229558 0.25500092
-1.7589325 -0.31631067 -0.0818232 -0.040468305 -0.02134922 1.9682586 -0.78428584 -0.31047893
1.5696967 -2.2709327 -0.7891941 1.6165829 -0.117226146 -0.7327171 -0.45783028 2.574991
0.46293217 -0.14650175 0.26236182 0.0036132634 0.0412482 -0.18169744 0.034779716 0.18345478
-0.6166295 -0.008825734 -0.11111568 0.36045426 -0.00946547 0.37172583 -0.41537863 -0.039709307
-1.0735393 -2.238747 -0.83627874 1.8682482 0.18950069 0.55245095 -0.31085274 2.4178424
0.4412721 0.43070155 2.2238584 -0.93788594 -1.4311603 0.97257257 0.4720186 -0.034840494
0.902959 -0.9957012 1.2315536 -0.17096706 -0.51448476 -1.5614463 0.57920605 0.7532942
1.0586861 0.34932667 0.6346517 0.8407236 -0.44183096 -0.292534 0.93596816 -0.48629215
-0.02452922 0.9088757 -0.29985368 -0.06160496 0.9303362 -1.4294945 -0.27293012 -0.59905547
0.008398442 0.0034636506 -0.5916387 -0.96032447 -0.6230555 -0.35036078 -0.29350612 -0.022749254
-1.4228919 -0.33641973 -0.11549717 -0.29707196 -0.800737 -0.43087834 1.394785 -1.5824276
-0.14048512 -0.083628155 0.191752 -0.015383193 0.4331167 -0.932415 0.01886051 1.097388
-0.83803165 0.036337644 1.2110468 -0.39891523 -0.1588577 -0.14384091 -0.046277575 0.03700968
-0.59603983 3.085745 0.7256115 -0.16773051 0.16369602 0.0019611295 -0.0764123 -0.046497267
-0.0014738437 0.49626502 0.6014034 0.024560433 0.3409873 -0.66619503 0.00063151476 -0.4569737
-1.5050853 -0.2239439 -0.24456365 -0.9236274 0.002832244 -1.2737461 -2.4979582 -0.9505045
0.045956958 -0.80830675 -0.28279355 -0.2047824 -2.6657486 -0.12222134 0.0025739756 -0.62556326
-0.03337189 0.114588685 -0.3723302 -0.017553851 0.1323272 -2.1005738 -0.1578747 0.39072752
-0.86893165 -0.00016832403 0.046095014 -0.29503953 -0.0006460708 -0.24580987 -2.2854593 -0.038480885
0.004315108 0.2872861 -0.0029882048 -0.045467865 -0.08105125 0.00092765683 -1.0943061 -2.4754736
-0.9786686 0.00036791092 0.03822363 -0.0025802234 -0.27983138 0.068677224 -0.00075682317 0.032626823
00000000: 67bf 58bf 1801 f8bf f693 703e a475 03bf
00000010: e431 64be 1ec1 c33a 5778 9dbd 8acd 523f
00000020: dc0d 70bf 76f5 383c 51b2 b03d 5e02 2a3b
00000030: bc22 b9bf 4097 af3f 4430 dfbe 65e0 803f
00000040: ed4d d73f 91f5 5cbf d5d5 2fbe 0755 5cbe
00000050: 2b2c babb fa45 773f b24e ebbe 5dec 2bbf
00000060: e628 ff3d ab65 0ebf 5065 0cbc df0e 0ebf
00000070: 1bea 4740 5400 c73e 41d1 d23f f06e 84bf
00000080: e2e3 fbbe 79c0 2c3f 2b97 35c0 2820 20bf
00000090: 3af8 6d3d ac33 19bf f086 1dbc c91b f8be
000000a0: 817d fabe ac75 b8bb 73cb 333f 87d1 c73e
000000b0: 2886 fabb 6511 b43e b236 663e 9f79 343d
000000c0: 0c22 f23e 8007 12bf 0fd9 4dbd 2ba6 dc3e
000000d0: e630 d7bf ced0 88be 1ece a13f fc28 05c0
000000e0: ecd6 58bf 6b3b e5be 2bf3 68be ee66 feba
000000f0: 66de 8e3e 2e44 afbe e4ae 59be 79f0 873e
00000100: 7e85 dbbf 2a8c 03bc f132 85bf 9abf 313f
00000110: 9db9 8b3e 40c9 e63f d290 efbc 1fee 09bf
00000120: c6c3 0340 21e7 b3bf 5025 38bf 7a3e d5bb
00000130: 4a8f 453e a39e 05bc b554 533f 19bd 33bf
00000140: 24cb fbbd 31cf 67bd 7b7d 11c0 f8e9 3ebe
00000150: abe2 19bf 98d1 57bf 087a 1fbf 7b8f 823e
00000160: b324 e1bf 79f3 a1be ec92 a7bd 18c2 25bd
00000170: 8fe4 aebc e6ef fb3f f5c6 48bf 18f7 9ebe
00000180: d2eb c83f f656 11c0 a008 4abf 30ec ce3f
00000190: 4314 f0bd 5993 3bbf bb68 eabe a7cc 2440
000001a0: 7205 ed3e 8e04 16be 4a54 863e 80cc 6c3b
000001b0: dff3 283d e50e 3abe 2d75 0e3d 92db 3b3e
000001c0: 6edb 1dbf d099 10bc 9e90 e3bd 768d b83e
000001d0: 0f15 1bbc d952 be3e 82ac d4be 3aa6 22bd
000001e0: bc69 89bf a147 0fc0 5d16 56bf c222 ef3f
000001f0: 780c 423e 6d6d 0d3f 1728 9fbe eebd 1a40
00000200: 6bee e13e ea84 dc3e b253 0e40 4b19 70bf
00000210: 4330 b7bf 84fa 783f 6cac f13e e8b4 0ebd
00000220: 5228 673f 46e6 7ebf 8ca3 9d3f fd11 2fbe
00000230: 46b5 03bf 79dd c7bf d946 143f e4d7 403f
00000240: 0783 873f f2da b23e 8978 223f a939 573f
00000250: ab37 e2be 04c7 95be 9c9b 6f3f 49fb f8be
00000260: 81f1 c8bc 14ac 683f 6c86 99be 7c55 7cbd
00000270: 832a 6e3f adf9 b6bf 7fbd 8bbe b35b 19bf
00000280: 9e99 093c 6afe 623b a275 17bf d3d7 75bf
00000290: 9180 1fbf 7d62 b3be 6f46 96be a55c babc
000002a0: 5221 b6bf 353f acbe c889 ecbd d119 98be
000002b0: 1afd 4cbf 169c dcbe 5188 b23f fd8c cabf
000002c0: 55db 0fbe 3d45 abbd a35a 443e ca09 7cbc
000002d0: 79c1 dd3e c0b2 6ebf 5b81 9a3c 3677 8c3f
000002e0: 3e89 56bf c8d6 143d 9503 9b3f 9e3e ccbe
000002f0: 98ab 22be 084b 13be 8e8d 3dbd 7697 173d
00000300: 1196 18bf d97c 4540 adc1 393f 8cc1 2bbe
00000310: ee9f 273e 4b86 003b 0d7e 9cbd eb73 3ebd
00000320: fd2d c1ba 7316 fe3e 93f5 193f f632 c93c
00000330: e395 ae3e c28b 2abf 3d8c 253a 75f8 e9be
00000340: a3a6 c0bf 8d51 65be e56e 7abe d872 6cbf
00000350: 2b9d 393b 1d0a a3bf 8cde 1fc0 4354 73bf
00000360: 5d3d 3c3d 31ed 4ebf 51ca 90be 7ab2 51be
00000370: a09b 2ac0 2f4f fabd 25b0 283b ea24 20bf
00000380: f7b0 08bd 79ad ea3d 10a2 bebe 18cd 8fbc
00000390: c880 073e cd6f 06c0 e8a9 21be 700d c83e
000003a0: 4e72 5ebf 2380 30b9 20ce 3c3d 6c0f 97be
000003b0: 145d 29ba 95b5 7bbe f744 12c0 229e 1dbd
000003c0: c065 8d3b 2a17 933e c2d5 43bb 833c 3abd
000003d0: 33fe a5bd ff2d 733a 3912 8cbf 296e 1ec0
000003e0: 068a 7abf 2be4 c039 6290 1c3d f718 29bb
000003f0: 0f46 8fbe a5a6 8c3d 8b65 46ba b4a3 053d

net.0.bias f4 [256]
-0.8064454 -0.70093524 -0.65507627 -0.19992131 -0.4354829 -0.84253377 -0.4042605 -2.4268072
-0.6781123 -0.57979715 -1.2992285 -0.23650166 -0.7386072 -0.7428672 -0.84729177 -1.0261592
-1.4076017 -1.6019455 -0.856819 -0.591977 0.46679127 -1.8051411 -0.61572355 -1.8796368
-1.5092834 -0.36380035 -1.6443976 -0.67963 -0.35236883 -0.5933186 -0.2809167 -1.0785376
-0.77055854 -2.3649387 -0.42183667 -0.37861136 -0.63570523 -0.7200253 -0.5863093 -0.7116684
-0.9485664 -1.8462691 -0.6027622 -0.9370514 -0.49529314 -0.84554917 -1.9474754 -0.61782175
-2.4020684 -2.212991 -1.1340501 -1.0664468 -1.5012017 -0.65251493 -0.3637222 -0.6562465
-0.9879971 -0.5875837 -1.260051 -0.35774893 -1.1660042 -1.9925154 -1.4824756 -0.45283815
-0.3776271 -0.28997007 -0.10427944 -0.92796916 -0.7722384 0.16305767 -0.989669 -0.66809887
-0.70619637 -1.092878 -0.9042259 -0.61593366 -1.6222614 -0.9897919 -0.3105893 -1.0169324
-0.37719697 -0.16420157 -0.88669896 -0.2165122 -0.35017633 -1.0321561 -1.7785991 -1.859975
-0.53528726 -1.9746324 -1.5138015 -1.8382227 -0.6781842 -0.5723419 -0.345294 -0.47887075
-1.3075036 -0.8693595 -0.17648423 -0.15461785 -0.4802922 -0.5019507 -1.795631 -0.43774176
-0.73434365 -0.8486248 -0.45778927 -0.47432905 -0.33477598 -2.599285 -0.08882218 -0.817232
-2.070449 -0.6272567 -0.5706881 -0.14846988 -0.95259935 -1.9345639 -0.6164123 -1.2369391
-0.4662446 -0.5910872 -0.2797883 -1.1654946 -1.4344666 0.009895245 -0.12335051 -1.6959385
-0.8342975 -0.57558954 -0.6377125 -0.4306906 -0.27845976 -1.5091969 -0.6897632 -0.2353171
-0.42680824 -1.3968583 -0.297239 -1.6778481 -1.1218168 -0.6407693 -0.13084172 -0.4370463
-0.7205253 -1.1553226 -0.34243137 -2.235507 -0.83904123 -2.2972035 -0.81792027 -2.7137058
-0.75342447 -2.5116627 -2.4954622 0.5825262 -0.6422582 -1.6775151 -0.31173882 -0.55917466
-0.7214904 -0.7291583 -1.6454287 -1.8381159 -0.85169196 -0.61364526 -2.0110772 -0.8394873
-1.0169765 -1.4765432 -1.4245753 -0.8483866 -0.0100695845 -0.8411302 -1.8668108 -0.67621166
-0.302093 -2.1622345 -1.0067283 -1.1469984 -0.6577703 -0.78704387 -0.74328446 -0.6883935
-0.7543167 -0.2981508 -1.2031235 -0.7047774 -2.772185 -1.745719 -1.8892833 0.73457116
-0.36934352 0.28289962 -0.3782592 -0.39444 -0.14798467 -1.2261904 -0.20856652 -1.5947871
-0.051386964 -0.49479866 -2.2562659 -0.11267661 -1.9221926 -0.14019784 -1.1293756 -0.95333666
-0.7164684 -0.97913176 -0.3208991 -0.53423434 -0.6073872 -0.90865713 -0.5042917 -0.94620264
-0.9386818 -0.90211755 -0.30111217 -2.7577493 -1.3149511 -1.7507277 -0.34812912 -1.1388028
-1.6638943 -2.0863214 -0.007310586 -1.5999831 -0.35068214 -0.6008177 -0.4810138 0.117077745
-0.5073188 -0.94504994 -1.0927355 -1.8503046 0.29385063 -0.4146339 -0.8290322 -2.4299896
0.11047174 -0.9031629 -1.675068 -1.33335 -2.185089 -0.49786043 -1.579682 -0.69521195
-1.6009274 -0.64129853 -1.4924119 -1.9814395 -1.5860798 -0.29460248 0.016600257 -0.7576553
00000000: 3573 4ebf 7e70 33bf 14b3 27bf 2cb8 4cbe
00000010: 9df7 debe 4bb0 57bf 3bfb cebe cf50 1bc0
00000020: c598 2dbf 966d 14bf 1f4d a6bf 7e2d 72be
00000030: 5d15 3dbf 8b2c 3ebf 1de8 58bf 2f59 83bf
00000040: 4b2c b4bf 8d0c cdbf 7d58 5bbf ce8b 17bf
00000050: 44ff ee3e dd0e e7bf 0fa0 1dbf f097 f0bf
00000060: 3330 c1bf 0a44 babe 9f7b d2bf 3bfc 2dbf
00000070: b069 b4be bae3 17bf 50d4 8fbe 850d 8abf
00000080: 5343 45bf 285b 17c0 fafa d7be 59d9 c1be
00000090: 94bd 22bf 9453 38bf 5e18 16bf e62f 36bf
000000a0: 3fd5 72bf 8c52 ecbf a04e 1abf 9ae2 6fbf
000000b0: 1097 fdbe e975 58bf e046 f9bf 9129 1ebf
000000c0: 7dbb 19c0 a5a1 0dc0 8e28 91bf 5481 88bf
000000d0: 6127 c0bf 380b 27bf cc39 babe c5ff 27bf
000000e0: 61ed 7cbf e36b 16bf 5a49 a1bf de2a b7be
000000f0: a03f 95bf bf0a ffbf c3c1 bdbf 67da e7be
00000100: 5758 c1be f576 94be 7690 d5bd 638f 6dbf
00000110: 6ab1 45bf 97f8 263e f35a 7dbf 8708 2bbf
00000120: 49c9 34bf 6de3 8bbf 597b 67bf d4ad 1dbf
00000130: 43a6 cfbf 0163 7dbf 9005 9fbe d72a 82bf
00000140: f61f c1be 7524 28be b4fe 62bf 60b5 5dbe
00000150: 504a b3be b11d 84bf 23a9 e3bf a913 eebf
00000160: 9608 09bf c1c0 fcbf 3fc4 c1bf e24a ebbf
00000170: 7b9d 2dbf 0085 12bf 60ca b0be 8c2e f5be
00000180: 475c a7bf 588e 5ebf 48b8 34be 2454 1ebe
00000190: dce8 f5be d77f 00bf 3dd7 e5bf b01f e0be
000001a0: f2fd 3bbf 7a3f 59bf 5b63 eabe 42db f2be
000001b0: c267 abbe af5a 26c0 67e8 b5bd 1e36 51bf
000001c0: 3d82 04c0 e593 20bf 9e18 12bf 7d08 18be
000001d0: 8ddd 73bf ca9f f7bf 32cd 1dbf 0554 9ebf
000001e0: 9db7 eebe 7e51 17bf 6940 8fbe ed2e 95bf
000001f0: 9a9c b7bf aa1f 223c 319f fcbd 8314 d9bf
00000200: 8594 55bf d659 13bf 2041 23bf 7a83 dcbe
00000210: 4792 8ebe 5d2d c1bf 5294 30bf f7f6 70be
00000220: 9c86 dabe 41cc b2bf b62f 98be bac3 d6bf
00000230: b197 8fbf 7509 24bf 5ffb 05be 88c4 dfbe
00000240: 5974 38bf 9ce1 93bf 2a53 afbe 8c12 0fc0
00000250: 68cb 56bf 6205 13c0 3963 51bf 5bad 2dc0
00000260: 6de0 40bf 15bf 20c0 a7b5 1fc0 7020 153f
00000270: 096b 24bf d1b8 d6bf 3b9c 9fbe 1226 0fbf
00000280: 98b3 38bf 1eaa 3abf 689d d2bf 6247 ebbf
00000290: 7c08 5abf db17 1dbf 7db5 00c0 a4e8 56bf
000002a0: 492c 82bf 5eff bcbf 7c58 b6bf dd2f 59bf
000002b0: e6fa 24bc 4f54 57bf a8f3 eebf 351c 2dbf
000002c0: efab 9abe 0d62 0ac0 79dc 80bf d8d0 92bf
000002d0: a263 28bf b57b 49bf e447 3ebf 8e3a 30bf
000002e0: e61a 41bf 39a7 98be f3ff 99bf 4b6c 34bf
000002f0: 7b6b 31c0 b873 dfbf 09d4 f1bf db0c 3c3f
00000300: 981a bdbe 38d8 903e 31ab c1be 0af4 c9be
00000310: 4b89 17be cff3 9cbf 7692 55be fc21 ccbf
00000320: 237b 52bd 4056 fdbe a966 10c0 ffc2 e6bd
00000330: 680a f6bf 0690 0fbe 618f 90bf df0d 74bf
00000340: 796a 37bf 61a8 7abf e34c a4be 95c3 08bf
00000350: ba7d 1bbf c19d 68bf 4319 01bf 563a 72bf
00000360: 734d 70bf 2df1 66bf 602b 9abe f77e 30c0
00000370: 5150 a8bf d817 e0bf fb3d b2be 4ac4 91bf
00000380: 7dfa d4bf 4a86 05c0 a48d efbb 3fcc ccbf
00000390: 9c8c b3be 30cf 19bf 7147 f6be 75c6 ef3d
000003a0: a5df 01bf cbee 71bf c2de 8bbf c8d6 ecbf
000003b0: 9773 963e e54a d4be 743b 54bf f384 1bc0
000003c0: 023f e23d af35 67bf a168 d6bf 36ab aabf
000003d0: 80d8 0bc0 90e7 febe 0533 cabf 69f9 31bf
000003e0: 30eb ccbf 242c 24bf 5a07 bfbf cf9f fdbf
000003f0: aa04 cbbf 23d6 96be 43fd 873c b3f5 41bf

net.2.weight f4 [256, 256]
-0.06650632 0.03268383 -0.053669333 -0.008420076 0.02829305 -0.015173753 -0.022394141 -0.054247215
0.016793748 -0.029813267 -0.0072529586 0.0180161 -0.038007922 -0.087530755 -0.027091373 0.04571551
0.008305825 -0.0688394 -0.011240103 0.015733724 0.004909376 -0.05065301 -0.0740277 -0.022705898
-0.027052771 -0.041913196 -0.063815124 -0.06783574 -0.065060675 -0.04347727 0.024921043 -0.07955019
-0.038160983 -0.05429041 -0.05202445 0.02113548 0.045267895 -0.048039485 0.018202221 0.020030199
-0.030928696 0.011925251 -0.03911976 -0.039654132 0.0064293854 0.025135685 0.028596757 0.0021451265
0.010040266 0.012627125 -0.007795256 0.0072375773 -0.042593375 -0.0765158 -0.106366634 -0.023763755
-0.04637094 -0.012937453 -0.045429263 -0.038649928 -0.042828944 -0.051923346 -0.06164594 0.0437729
0.02779627 -0.076957405 -0.019881349 -0.023857981 0.028701473 -0.018552423 -0.0087682735 0.012823886
-0.05530816 0.024644509 -0.050242886 -0.034457702 0.018994696 0.0076828254 -0.06616967 -0.05429392
-0.060543876 0.005229074 -0.068577014 -0.015844183 -0.07717495 0.0029740452 -0.067854986 -0.010734173
0.002041243 -0.014006842 -0.014941823 -0.06888609 -0.040241264 -0.019629544 0.0037672087 0.0019128501
-0.034930993 -0.09725505 -0.042487778 -0.027462639 0.023890825 -0.029177466 -0.011377726 0.0010778585
0.022441654 -0.013116982 0.0032735988 0.014719654 -0.06687667 0.0065005803 -0.05720597 0.039052416
0.011781178 -0.049871292 -0.06856106 -0.081342295 -0.0769845 0.028599957 -0.025463488 0.028953554
0.02716242 -0.00724183 0.02173179 -0.01428756 -0.012454188 -0.015898723 0.00530168 -0.04509017
-0.023374826 -0.06717957 -0.067906454 0.0038886217 -0.014000198 -0.02410092 -0.02564324 -0.047961004
-0.012020226 0.03626313 -0.012131931 -0.054575685 -0.047291357 -0.076853976 -0.029880196 -0.066242196
-0.06394213 -0.07912953 0.023280628 0.051654868 0.019849429 -0.0693937 0.023325624 -0.056401074
-0.047270395 -0.053163074 -0.035207022 -0.09783226 -0.026651401 -0.074675776 -0.047628086 0.0047308016
-0.0044577206 0.01374698 0.0010148169 0.035667215 -0.04082305 0.01733962 -0.042234924 0.021052273
-0.08488998 -0.027760528 -0.03853141 0.04257697 -0.053260647 0.03653734 0.010093276 -0.037362613
-0.028361673 0.006670097 -0.011134525 0.021719337 -0.04189008 0.01429149 -0.06177286 0.019340858
0.04652895 -0.0109761525 0.03526376 -0.04347954 -0.07372315 -0.05948612 -0.071412854 0.03040967
-0.036686417 -0.07607871 0.0057675587 -0.017756887 -0.097480625 -0.072680734 -0.03658594 0.006154378
-0.032677297 0.042884868 0.02837429 -0.010631366 -0.057430677 0.018518707 0.032685306 -0.025498092
0.029388111 -0.047340184 -0.021773452 0.011276061 -0.05128537 -0.040518213 0.015823511 -0.06397083
0.013622465 -0.05440911 0.03338118 0.018767467 0.021639703 -0.020500118 -0.02589669 -0.031661425
0.010582461 -0.046853308 0.04332923 0.013805012 -0.08694109 -0.005498897 0.04200459 -0.07024849
-0.0015625656 -0.049254302 0.0359876 -0.029516034 -0.059537422 -0.015208978 -0.0700386 0.001212077
0.0055934805 -0.055545628 -0.0518689 -0.052080683 0.027176943 -0.03459776 0.004305807 -0.08397629
-0.00020889934 -0.01412306 -0.039414886 0.02942354 -0.051020507 -0.05246125 -0.011657896 -0.04284042
00000000: 7734 88bd 7bdf 053d 60d4 5bbd 5cf4 09bc
00000010: d4c6 e73c 559b 78bc eb73 b7bc 5432 5ebd
00000020: 0b93 893c f43a f4bc 3aaa edbb 8096 933c
00000030: 32ae 1bbd 5343 b3bd baee ddbc 3040 3b3d
00000040: 2815 083c acfb 8cbd 6928 38bc 03e4 803c
00000050: d5de a03b 8879 4fbd d69b 97bd b801 babc
00000060: c69d ddbc 2cad 2bbd 81b1 82bd 77ed 8abd
00000070: 883e 85bd 3915 32bd 3727 cc3c 36eb a2bd
00000080: b14e 1cbd 9f5f 5ebd 9717 55bd 5024 ad3c
00000090: d46a 393d 0dc5 44bd d31c 953c 5f16 a43c
000000a0: 2d5e fdbc 2162 433c 0b3c 20bd 5f6c 22bd
000000b0: 98ad d23b 5ae9 cd3c bf43 ea3c 4095 0c3b
000000c0: ee7f 243c 00e2 4e3c 596f ffbb 3329 ed3b
000000d0: 6476 2ebd 51b4 9cbd c0d6 d9bd 35ac c2bc
000000e0: 74ef 3dbd 9cf7 53bc 0914 3abd 634f 1ebd
000000f0: 676d 2fbd 93ad 54bd 7480 7cbd 364b 333d
00000100: 01b5 e33c d89b 9dbd 36de a2bc d071 c3bc
00000110: 5a1f eb3c 40fb 97bc cea8 0fbc 471b 523c
00000120: cf8a 62bd 48e3 c93c 7ccb 4dbd 8523 0dbd
00000130: c49a 9b3c 36c0 fb3b f783 87bd 4d63 5ebd
00000140: dbfc 77bd a758 ab3b 1b72 8cbd a9cb 81bc
00000150: e60d 9ebd 33e8 423b 8ef7 8abd 62de 2fbc
00000160: 60c6 053b f47c 65bc 8cce 74bc 2614 8dbd
00000170: 06d4 24bd 23ce a0bc 46e3 763b 99b8 fa3a
00000180: cd13 0fbd a82d c7bd aa07 2ebd 54f9 e0bc
00000190: b1b6 c33c 9505 efbc a469 3abc ee46 8d3a
000001a0: 8fd7 b73c 9ce8 56bc e089 563b b42a 713c
000001b0: a3f6 88bd d202 d53b cf50 6abd 6df5 1f3d
000001c0: d805 413c d745 4cbd be69 8cbd ca96 a6bd
000001d0: 0daa 9dbd 754a ea3c ce98 d0bc 0130 ed3c
000001e0: b983 de3c e04c edbb de06 b23c 5f16 6abc
000001f0: a70c 4cbc 0a3e 82bc b7b9 ad3b 78b0 38bd
00000200: 907c bfbc 7195 89bd 8a12 8bbd 3fd8 7e3b
00000210: 1661 65bc 4b6f c5bc c611 d2bc c272 44bd
00000220: 7bf0 44bc a688 143d 02c5 46bc c18a 5fbd
00000230: 95b4 41bd 9e65 9dbd 50c7 f4bc fda9 87bd
00000240: 17f4 82bd aa0e a2bd 04b7 be3c 0e94 533d
00000250: 459b a23c 491e 8ebd 6115 bf3c d004 67bd
00000260: 9a9e 41bd 86c1 59bd 3d35 10bd 485c c8bd
00000270: 0a54 dabc 9def 98bd ab15 43bd d704 9b3b
00000280: 1212 92bb 033b 613c 9b03 853a c917 123d
00000290: 1236 27bd d20b 8e3c 87fe 2cbd d175 ac3c
000002a0: ccda adbd 0c6a e3bc 1dd3 1dbd 3065 2e3d
000002b0: d627 5abd 2ea8 153d 455e 253c 8a09 19bd
000002c0: bd56 e8bc d490 da3b 956d 36bc c0ec b13c
000002d0: ef94 2bbd db26 6a3c 8a05 7dbd b870 9e3c
000002e0: 2495 3e3d 52d5 33bc bb70 103d 9a17 32bd
000002f0: 2afc 96bd b8a7 73bd e740 92bd b31d f93c
00000300: 7f44 16bd 28cf 9bbd cafd bc3b e476 91bc
00000310: eca3 c7bd a3d9 94bd 23db 15bd aaaa c93b
00000320: a1d8 05bd 0ba8 2f3d 3371 e83c 2e2f 2ebc
00000330: 6e3c 6bbd 8bb4 973c 07e1 053d 60e1 d0bc
00000340: 56bf f03c c8e7 41bd 3d5e b2bc 3abf 383c
00000350: 9c10 52bd 6df6 25bd 4fa0 813c 2303 83bd
00000360: c230 5f3c 16dc 5ebd b4ba 083d 3bbe 993c
00000370: bf45 b13c ddef a7bc 4c25 d4bc 69af 01bd
00000380: 0f62 2d3c 41e9 3fbd fe79 313d 6b2e 623c
00000390: 2c0e b2bd 1730 b4bb 010d 2c3d 71de 8fbd
000003a0: 00cf ccba e1be 49bd bc67 133d 9ccb f1bc
000003b0: 83dd 73bd 142f 79bc 6670 8fbd 8ede 9e3a
000003c0: 8449 b73b d083 63bd 7c74 54bd 8e52 55bd
000003d0: 2ea2 de3c 61b6 0dbd ba17 8d3b c3fb abbd
000003e0: fd0b 5bb9 6864 67bc 8171 21bd a309 f13c
000003f0: e1fa 50bd 9ce1 56bd c300 3fbc 7079 2fbd

net.2.bias f4 [256]
-0.031134488 -0.06874525 0.021762047 -0.082508795 -0.16690181 -0.2260504 -0.3565605 -0.41501847
-0.008628568 -0.07827283 -0.05395304 -0.09303235 -0.22471781 -0.05948523 -0.0057262443 0.008628807
0.10945996 -0.105034 -0.11210395 -0.087120496 -0.08997272 -0.2774907 -0.03137788 -0.030868966
-0.044475194 -0.18193491 -0.03454097 -0.37151185 -0.4883164 -0.08716922 -0.07063724 -0.038021214
-0.077296875 -0.08907422 -0.06904718 -0.27672973 -0.044822022 0.7595218 -0.008993329 -0.07778623
-0.07611786 -0.0575587 -0.09244442 -0.25658014 -0.26453823 -0.032580093 -0.1582444 -0.19790465
-0.1925253 -0.15025865 -0.0074156043 -0.0032688389 -0.044246614 -0.07851905 0.018833077 -0.06998748
-0.048498485 -0.0802637 -0.08427713 -0.02920752 -0.08645262 0.0040194374 -0.021851193 -0.19666046
-0.14494288 0.01990778 -0.12555584 -0.3274221 -0.079151936 -0.16083801 -0.0835239 -0.051012233
-0.10051918 0.023047972 -0.15714139 -0.050710376 -0.043530293 -0.06373712 -0.05113413 -0.24355318
-0.2290644 -0.12271651 -0.6677301 -0.15600052 -0.077457786 1.0389932 -0.20732842 0.0072748903
-0.009856094 -0.08517595 -0.07774035 -0.15292089 -0.053277213 -1.4744178 -0.01775282 -0.05073455
-0.04124783 -0.24402192 -0.15886705 -0.028971422 -0.05633559 -0.054302525 -0.056746002 -0.12911394
-0.052465584 -0.08565298 0.67202276 -0.1295113 0.006172803 -0.029409554 -0.010693943 -0.07073204
-0.11058882 -0.053900253 -0.11468444 0.0067508654 -0.08271673 -0.2521631 -0.022975437 -0.07314016
0.008944915 -0.059912812 -0.11768617 -0.0177761 0.015353746 -0.19481742 -0.075937495 -0.085646726
-0.03589805 -0.48653498 -2.0469043 -0.08960884 -0.051284406 0.35425332 -0.06829386 -1.8038228
-0.0060771094 -0.010365479 -0.054039452 -0.08860887 -0.27877146 -0.012684891 -0.06317066 -0.08099578
-0.042809684 -0.020849673 -0.015483706 -0.030594097 -0.06790315 -0.07769976 -0.3349218 -0.0024832452
-0.76982933 -0.09057016 -0.08758053 -0.131155 -0.030922882 -0.029007135 -0.030865423 -0.1892232
-0.13677609 -0.029922979 -0.068342485 0.015711121 -0.29968694 -1.3777972 -0.13921463 0.016053995
-0.061148796 -0.105771296 -0.15898189 -0.09432163 -0.05217543 0.0035348574 -0.0535803 0.031855788
-0.14175746 0.43399137 -0.20726329 -0.29997545 -0.6277756 -0.5909833 0.02181261 -0.080013484
-0.07140123 -0.050782066 -0.045131214 -0.062057897 0.019224161 -0.14812097 -0.13531782 0.006513743
-1.8776189 -0.047681093 -0.08425998 -0.020101799 0.015520934 -0.10773705 -0.08135815 -0.08329324
-0.011778648 0.003901416 -0.06354012 1.3979841 -0.09154034 -0.24402107 -0.09022352 -0.02153791
-0.08700898 0.021559952 -0.2627355 -0.4352874 -0.13270827 -0.15717877 -0.97265273 -0.01630852
-0.06579799 -0.034512438 -0.0067010736 -0.08326612 -0.019447712 -0.02920197 -0.08114225 -0.06921167
-0.087577805 -0.06668414 -0.13588329 -0.124529116 -0.112310454 0.013280937 -0.08799475 -0.10579457
0.027121639 -0.20510647 -0.1355236 -0.0020633673 -0.03527017 -0.070247024 -0.004044743 -0.016104184
-0.08171429 -0.06765674 -0.011929571 -0.012051646 -0.0638869 -0.0023035898 -0.08549378 -0.31975827
-0.11015253 1.0345732 -0.084988125 0.021104774 0.01691795 -0.00871995 -0.055798266 -0.021684075
00000000: c10d ffbc 4fca 8cbd 5246 b23c 5ffa a8bd
00000010: 4fe8 2abe c279 67be 198f b6be 4d7d d4be
00000020: d65e 0dbc 814d a0bd ddfd 5cbd bf87 bebd
00000030: 6d1c 66be c9a6 73bd 38a3 bbbb d75f 0d3c
00000040: 8b2c e03d 111c d7bd c196 e5bd 3b6c b2bd
00000050: 9e43 b8bd 4313 8ebe 1886 00bd eae0 fcbc
00000060: 9f2b 36bd 254d 3abe d57a 0dbd cd36 bebe
00000070: 9b04 fabe c785 b2bd 42aa 90bd 22bc 1bbd
00000080: d34d 9ebd 8b6c b6bd 9c68 8dbd 85af 8dbe
00000090: 4c97 37bd 0570 423f c158 13bc 634e 9fbd
000000a0: aee3 9bbd acc2 6bbd 8053 bdbd 795e 83be
000000b0: 8e71 87be b472 05bd d20a 22be 84a7 4abe
000000c0: 5a25 45be 67dd 19be 99fe f2bb 043a 56bb
000000d0: f03b 35bd 98ce a0bd d347 9a3c 9955 8fbd
000000e0: 59a6 46bd 4b61 a4bd 7d99 acbd 9c44 efbc
000000f0: 120e b1bd 7cb5 833b 4601 b3bc 5c61 49be
00000100: e86b 14be a415 a33c b691 00be dfa3 a7be
00000110: 691a a2bd b8b2 24be 940e abbd 34f2 50bd
00000120: 00dd cdbd 1acf bc3c ace9 20be afb5 4fbd
00000130: d24c 32bd 9b88 82bd 0672 51bd 0166 79be
00000140: dc8f 6abe cb52 fbbd 5cf0 2abf 9abe 1fbe
00000150: 30a2 9ebd bbfd 843f e74d 54be 3462 ee3b
00000160: 747b 21bc ba70 aebd 5536 9fbd 4b97 1cbe
00000170: 3539 5abd b9b9 bcbf 5d6e 91bc 08cf 4fbd
00000180: 7cf3 28bd e2e0 79be 0bae 22be 7a55 edbc
00000190: 26c0 66bd 536c 5ebd 7f6e 68bd 7236 04be
000001a0: 27e6 56bd d46a afbd af09 2c3f 9c9e 04be
000001b0: 3a45 ca3b 4eec f0bc a635 2fbc f6db 90bd
000001c0: 647c e2bd 83c6 5cbd addf eabd 5d36 dd3b
000001d0: 6467 a9bd 861b 81be fc36 bcbc 82ca 95bd
000001e0: b18d 123c 2367 75bd 7205 f1bd 2f9f 91bc
000001f0: 478e 7b3c 387e 47be 1e85 9bbd 8d67 afbd
00000200: d509 13bd 1d1b f9be 7b00 03c0 d784 b7bd
00000210: 990f 52bd b160 b53e a7dd 8bbd aae3 e6bf
00000220: 7d22 c7bb f8d3 29bc 7958 5dbd 9178 b5bd
00000230: 22bb 8ebe 4ad4 4fbc 9e5f 81bd 1ee1 a5bd
00000240: 3559 2fbd efcc aabc 5faf 7dbc 79a0 fabc
00000250: cf10 8bbd 0d21 9fbd df7a abbe f1bd 22bb
00000260: 8913 45bf d97c b9bd 6c5d b3bd 7f4d 06be
00000270: fc51 fdbc 5fa0 edbc 7cd9 fcbc bac3 41be
00000280: 080f 0cbe 0921 f5bc 25f7 8bbd 9cb4 803c
00000290: 9170 99be a95b b0bf 488e 0ebe ab83 833c
000002a0: 2977 7abd 9f9e d8bd 26cc 22be b32b c1bd
000002b0: e7b5 55bd 11a9 673b 0477 5bbd 377b 023d
000002c0: de28 11be 1e34 de3e d43c 54be 6296 99be
000002d0: e7b5 20bf ae4a 17bf 5cb0 b23c 1cde a3bd
000002e0: cf3a 92bd db00 50bd 82db 38bd 6c30 7ebd
000002f0: fd7b 9d3c 06ad 17be c190 0abe 3d71 d53b
00000300: d155 f0bf 404d 43bd 7f90 acbd 87ac a4bc
00000310: 844b 7e3c 3ea5 dcbd 1a9f a6bd a595 aabd
00000320: 3bfb 40bc e6ae 7f3b 5321 82bd 25f1 b23f
00000330: 8079 bbbd a9e0 79be 1cc7 b8bd 4570 b0bc
00000340: c431 b2bd 7f9e b03c 4485 86be fddd debe
00000350: ade4 07be 79f3 20be c5ff 78bf 7299 85bc
00000360: 19c1 86bd ea5c 0dbd ae94 dbbb 6d87 aabd
00000370: cf50 9fbc f838 efbc e82d a6bd d9be 8dbd
00000380: fe5b b3bd b291 88bd fd24 0bbe 1f09 ffbd
00000390: 0603 e6bd 4a98 593c 9736 b4bd d3aa d8bd
000003a0: 332e de3c 6e07 52be b3c6 0abe 8f39 07bb
000003b0: 7477 10bd acdd 8fbd c389 84bb ecec 83bc
000003c0: d259 a7bd 9e8f 8abd 3f74 43bc 4474 45bc
000003d0: 23d7 82bd d3f7 16bb 5d17 afbd 5bb7 a3be
000003e0: a697 e1bd e56c 843f 410e aebd ebe3 ac3c
000003f0: 8397 8a3c 1fde 0ebc b98c 64bd cda2 b1bc

net.4.weight f4 [1, 256]
0.0073728445 -0.01641783 0.030443506 -0.024013013 -0.13045298 0.013703253 -0.12756658 0.0355538
0.010072015 0.0007527847 -0.026777742 0.05281344 -0.027350178 -0.029234918 0.002308449 -0.016865622
0.30425632 0.06631653 0.07982888 -0.02435314 -0.026031341 0.041815326 0.00869353 0.00014487751
-0.021478493 -0.036264416 -0.001349009 -0.042023666 -7.1255956 -0.011160002 -0.0030696136 -0.009989238
0.0020891896 -0.025778694 0.014282532 -0.0074574584 -0.008416047 -1.2033998 0.028562538 -0.031732887
0.010128828 0.00028360015 0.011054186 0.09148021 -0.13350338 0.027364094 -0.039984263 -0.011109777
-0.13414699 0.050510086 -0.002025354 -0.015708504 0.01442787 0.051268823 3.1951062e-05 0.0013393762
-0.012096808 0.028127678 -0.026928777 0.063558504 -0.043894503 -0.014579702 0.02088371 0.08419377
0.054990944 -0.022448707 0.056128833 -0.036219116 0.065155394 -0.006049723 0.0612518 0.054418158
0.06565316 -0.0023403154 0.1549168 0.0296515 -0.00810907 0.029032052 0.06811297 0.09064279
-0.13585897 0.0041511096 0.108631395 -0.009099634 0.016242785 -0.17091317 0.054537334 0.011855653
0.02479567 -0.021103026 0.022485118 0.031023843 0.063904576 -0.04650885 -0.015198004 -0.030573951
-0.017608486 0.0052914727 -0.009609761 -0.007324685 -0.016001862 0.02001461 -0.0035375888 0.010659002
-0.0044067116 0.05156423 -0.193231 0.15259139 -0.02199426 -0.0369181 -0.023749376 0.013767378
-0.0039610304 -0.019276632 0.058368128 -0.017038995 0.0011610059 -0.03162113 -0.012754683 0.025913818
0.023629913 -0.009716782 -0.0143108005 0.0017097986 0.011384316 0.09013797 0.033820316 0.04430866
-0.020567717 0.33370426 -0.37052682 -0.02819877 -0.025844565 2.509647 0.07164846 -0.16691169
-0.04139846 0.006436964 -0.024221862 0.0012027207 -0.13045886 -0.0032907308 -0.0091229305 -0.0026949574
-0.023137884 0.014117905 -0.021143107 0.06885297 -0.02262922 0.05457208 0.21656111 -0.0032568185
0.14234284 0.06301511 -0.011916833 -0.0217143 0.07127919 0.001716772 0.00035260528 -0.32174492
0.035870515 0.0063450295 0.016640646 0.0034691421 0.056220185 -0.22913004 -0.0042405347 -0.0038847865
0.006080403 0.0071517373 0.019810189 -0.0031308103 0.017770737 -0.015750434 0.06982707 0.010921465
0.06818952 1.3827876 -0.032530695 -0.0110029075 -2.0195928 0.2727249 0.025387023 -0.018980691
-0.006150957 0.024541019 -0.010416931 -0.023110693 0.01482571 0.03699293 -0.03156724 0.023547746
-0.066955134 -0.024255725 -0.007919876 -0.0045968103 0.009391899 -0.0068480116 0.055243414 0.012189756
0.023669038 0.013096423 -0.030391017 -0.2733285 -0.050428573 -0.0065260916 0.0049512517 0.04463783
-0.03362844 0.004370832 -0.040131684 0.12112508 -0.00025465537 0.0869097 -1.8315548 -0.017640762
0.033393554 -0.014867702 0.026867945 0.014375149 -0.015026759 -0.013312228 0.0071453 -0.009805698
-0.020888392 0.05121508 -0.028418003 -0.03676753 -0.001335095 0.02172339 0.00556251 0.14462084
-0.018432887 -0.0500984 0.00045915693 -0.015170477 -0.016890157 -0.018063432 0.01879802 -0.047535256
-0.044577103 -0.008797032 -0.02003877 -0.0006557452 -0.0001094431 -0.018422093 -0.02293255 0.008149817
-0.002751366 -10.021158 0.0019934252 -0.017883992 -0.008270311 0.0025150983 0.07288533 -0.017194035
00000000: e797 f13b af7e 86bc a964 f93c f0b6 c4bc
00000010: 7795 05be 9c83 603c d0a0 02be dda0 113d
00000020: 1805 253c 8756 453a ff5c dbbc e852 583d
00000030: 7b0d e0bc 117e efbc 5949 173b c629 8abc
00000040: 7cc7 9b3e f6d0 873d 537d a33d 3c80 c7bc
00000050: ae3f d5bc 8c46 2b3d 4f6f 0e3c 43ea 1739
00000060: aaf3 afbc ff89 14bd 3bd1 b0ba 0221 2cbd
00000070: e104 e4c0 71d8 36bc 922b 49bb e7a9 23bc
00000080: c9ea 083b d72d d3bc 4801 6a3c b25d f4bb
00000090: 76e3 09bc 0109 9abf fcfb e93c 58fa 01bd
000000a0: 62f3 253c 2bb0 9439 9e1c 353c fa59 bb3d
000000b0: 1cb5 08be aa2a e03c 8ac6 23bd c805 36bc
000000c0: d45d 09be aae3 4e3d cdbb 04bb 1faf 80bc
000000d0: df62 6c3c 42ff 513d 3103 0638 028e af3a
000000e0: b131 46bc 046c e63c bd99 dcbc f62a 823d
000000f0: b9ca 33bd b4df 6ebc 5014 ab3c c96d ac3d
00000100: 2f3e 613d 5ae6 b7bc 59e7 653d 7f5a 14bd
00000110: 3170 853d c13c c6bb 2be3 7a3d 93e5 5e3d
00000120: 2a75 863d fa5f 19bb 82a2 1e3e b4e7 f23c
00000130: e8db 04bc a0d4 ed3c d07e 8b3d eda2 b93d
00000140: 9d1e 0bbe 0806 883b 237a de3d a216 15bc
00000150: 970f 853c dd03 2fbe 8a62 5f3d 363e 423c
00000160: 4a20 cb3c 41e0 acbc b632 b83c b725 fe3c
00000170: 67e0 823d 1080 3ebd 0d01 79bc 3976 fabc
00000180: ac3f 90bc 1764 ad3b 4272 1dbc e903 f0bb
00000190: 5616 83bc aef5 a33c e4d6 67bb 18a3 2e3c
000001a0: 2d66 90bb 0435 533d 59de 45be eb40 1c3e
000001b0: 4e2d b4bc 6f37 17bd 0d8e c2bc 9290 613c
000001c0: 88cb 81bb 07ea 9dbc 6b13 6f3d 5d95 8bbc
000001d0: e52c 983a 2885 01bd 05f9 50bc 3749 d43c
000001e0: 8593 c13c 2333 1fbc d977 6abc 521b e03a
000001f0: 4885 3a3c 429a b83d 2c87 0a3d ff7c 353d
00000200: a17d a8bc 49db aa3e b1b5 bdbe 1b01 e7bc
00000210: fbb7 d3bc 0e9e 2040 6ebc 923d e6ea 2abe
00000220: 6e91 29bd 2bed d23b ed6c c6bc 9ca4 9d3a
00000230: 0297 05be 4da9 57bb 5878 15bc e29d 30bb
00000240: a98b bdbc c94e 673c 4f34 adbc c902 8d3d
00000250: ea60 b9bc f986 5f3d 32c2 5d3e 5970 55bb
00000260: 52c2 113e 110e 813d d23e 43bc 30e2 b1bc
00000270: d3fa 913d 4f05 e13a e1dd b839 c0bb a4be
00000280: f6ec 123d f7e9 cf3b f751 883c 8c5a 633b
00000290: 2347 663d 11a1 6abe 2ff4 8abb e797 7ebb
000002a0: 1e3e c73b 1f59 ea3b fa48 a23c 482e 4dbb
000002b0: f093 913c 0e07 81bc 7f01 8f3d f2ef 323c
000002c0: f2a6 8b3d 2fff b03f e83e 05bd 8a45 34bc
000002d0: 0241 01c0 99a2 8b3e 72f8 cf3c 657d 9bbc
000002e0: f88d c9bb 3f0a c93c c6ab 2abc a352 bdbc
000002f0: 89e7 723c e685 173d a64c 01bd 34e7 c03c
00000300: c61f 89bd f1b3 c6bc 5ec2 01bc d7a0 96bb
00000310: 7be0 193c 4965 e0bb eb46 623d 8bb7 473c
00000320: 92e5 c13c 6192 563c 95f6 f8bc b7f1 8bbe
00000330: 318e 4ebd d3d8 d5bb 1c3e a23b 28d6 363d
00000340: fabd 09bd 3239 8f3b 1f61 24bd 6d10 f83d
00000350: 4483 85b9 b6fd b13d 6370 eabf 5c83 90bc
00000360: aec7 083d a997 73bc 2a1a dc3c bf85 6b3c
00000370: cc32 76bc 881b 5abc 1f23 ea3b 14a8 20bc
00000380: 221e abbc e7c6 513d dfcc e8bc 8d99 16bd
00000390: 5bfe aeba 40f5 b13c b745 b63b 7c17 143e
000003a0: 9100 97bc fb33 4dbd 00bb f039 988d 78bc
000003b0: 3a5d 8abc c3f9 93bc 4efe 993c 54b4 42bd
000003c0: 7b96 36bd 6d21 10bc 5928 a4bc 51e6 2bba
000003d0: d184 e5b8 eee9 96bc 0bdd bbbc cf86 053c
000003e0: 4350 34bb aa56 20c1 20a4 023b 7381 92bc
000003f0: 3380 07bc 59d4 243b e744 953d 81da 8cbc

obs_net.0.weight f4 [256, 3]
-0.4695515 -2.3044572 -0.3891375 1.650128 -1.9608842 -0.6609415 -0.17544432 0.29434344
-0.0018902139 -0.6372879 -1.3386315 -0.35012454 -0.69233644 0.10324328 -0.21071336 -0.79969525
1.1554582 0.34066767 -1.0020181 1.2738701 0.401109 -0.5102633 2.4881494 0.57894087
-0.57928705 -1.3024638 -0.32194278 0.19174623 -2.8132594 -0.59337443 0.5331147 2.804751
0.5979673 -0.2039731 -1.9581957 -0.37816423 -0.94003034 -0.015034657 0.2254446 -1.6141474
0.7587951 0.24554299 2.1238534 1.6309006 0.73830307 -0.42755285 -2.5396128 -0.53982866
1.3534741 0.8330774 0.7790089 -1.0738343 -0.17616795 -0.17841001 -0.9958457 -1.7256148
-0.93322384 -0.75532216 -0.6708659 -0.2413685 -0.198566 3.2429852 0.60457826 -0.56777114
-1.2976757 0.045420446 1.4282511 -2.2395618 -0.53775567 0.5024878 0.21808296 0.58785003
0.343101 -3.1854775 -0.5128264 2.0849998 -1.2390549 -0.82849693 -0.0005706064 -2.1041036
-0.43359262 0.18222168 0.49715474 -0.21298401 0.05943283 1.46194 -0.21430707 1.4885615
-2.3524811 -0.544814 -1.2478659 -1.6207108 0.17174451 -0.5613981 -2.193833 -0.42923993
1.1229765 -1.6069162 -0.011424756 -0.042899627 -0.22814882 0.033109203 0.91500884 0.45738617
-0.8520428 0.53537434 1.0977442 -0.3078011 -0.3053335 2.2854242 0.5288854 1.7939354
1.1812388 0.66938514 -0.7437127 1.459267 0.21696275 -0.29160663 -0.3112569 0.16749968
-0.74808836 -0.056490984 0.025362836 0.3220272 3.1874802 0.69879943 1.67656 -0.8371459
-0.67946386 -0.47176662 -0.12139707 0.21423607 -0.7669871 1.170354 0.6545599 -0.5274447
2.193901 0.33277845 -0.15534167 -1.7513678 -0.020928513 -0.4397065 3.583223 0.61608857
-0.42742267 -0.4503141 0.122061215 -0.103670225 -2.1832442 -0.4673279 0.84272313 -0.6596473
-0.56703013 -0.8545636 -1.3014984 -0.31410304 -0.5926525 -2.2832198 -0.5500958 1.9687815
-1.2511207 -0.74264324 -1.1671212 -0.8306489 -0.29755285 -0.567881 0.08161637 0.0929523
0.70290315 2.656053 0.6424526 -1.051937 -0.25950497 -0.18210472 -0.5547055 -1.9731438
-0.013969326 -0.0032760666 -0.18216316 -0.4673147 -0.2571177 1.2952698 -0.3615443 -0.17166823
-1.2147771 0.87111455 -0.6662921 1.5257063 0.3609486 1.7573497 2.3504586 0.77341026
1.5890282 -2.517145 -0.5528133 -0.5532421 2.422667 0.48506162 1.3854702 -0.93087167
0.6179029 1.7702543 2.361961 0.2189758 -0.5156731 3.1079922 0.69611967 -0.260786
-0.11159038 0.09723592 0.40707445 -1.5332826 -0.04375512 1.3580533 2.5800974 -0.50144434
0.43618962 2.550097 0.0027404039 -1.0826336 1.1241614 0.022558272 1.4650831 -1.6359488
-0.49171925 -0.6057139 -0.5599267 -0.39597458 1.3125583 1.3082274 -0.782963 -0.69658697
1.0698545 -0.24866717 1.4870293 2.0115657 0.6067105 -1.084826 -2.2295403 -0.5645
1.3676564 -3.1167378 -0.57636815 1.9498897 -1.4360381 -0.60521966 -2.062959 2.3389494
-0.05674015 -1.2066046 -2.1150439 0.045439426 0.4359537 -2.4336724 -0.5234056 -0.10006709
00000000: 0e69 f0be 3a7c 13c0 083d c7be 6537 d33f
00000010: 41fe fabf 7633 29bf ada7 33be 2fb4 963e
00000020: 0ec1 f7ba 4d25 23bf 4758 abbf 8643 b3be
00000030: f63c 31bf 3671 d33d 3ec5 57be d4b8 4cbf
00000040: 0ee6 933f fe6b ae3e 2142 80bf 2d0e a33f
00000050: 295e cd3e 9ea0 02bf d73d 1f40 7835 143f
00000060: 284c 14bf 22b7 a6bf afd5 a4be 2059 443e
00000070: 710c 34c0 63e7 17bf 347a 083f 0a81 3340
00000080: 6314 193f 53de 50be 28a6 fabf be9e c1be
00000090: d4a5 70bf ec53 76bc f3da 663e 629c cebf
000000a0: 6540 423f 9f6f 7b3e 37ed 0740 5ac1 d03f
000000b0: 6e01 3d3f 35e8 dabe 0489 22c0 3632 0abf
000000c0: a43e ad3f 8f44 553f 216d 473f 6773 89bf
000000d0: 5f65 34be 1db1 36be beef 7ebf f2e0 dcbf
000000e0: c2e7 6ebf cb5c 41bf debd 2bbf 4e29 77be
000000f0: e354 4bbe 128d 4f40 a4c5 1a3f 7359 11bf
00000100: 3d1a a6bf ca0a 3a3d efd0 b63f fb54 0fc0
00000110: 5baa 09bf 0aa3 003f 2451 5f3e 577d 163f
00000120: efaa af3e ddde 4bc0 9748 03bf a370 0540
00000130: 5a99 9ebf 6018 54bf bf94 15ba a2a9 06c0
00000140: daff ddbe 5298 3a3e 118b fe3e 7b18 5abe
00000150: d76f 733d da20 bb3f 5073 5bbe 2f89 be3f
00000160: 0d8f 16c0 ee78 0bbf 12ba 9fbf 7473 cfbf
00000170: cbdd 2f3e c9b7 0fbf c367 0cc0 56c5 dbbe
00000180: b2bd 8f3f 6eaf cdbf e62e 3bbc 85b7 2fbd
00000190: d89f 69be 849d 073d 053e 6a3f 852e ea3e
000001a0: 7a1f 5abf 4b0e 093f e282 8c3f 1b98 9dbe
000001b0: ac54 9cbe 6444 1240 0965 073f ad9f e53f
000001c0: d532 973f d35c 2b3f f563 3ebf 43c9 ba3f
000001d0: 7c2b 5e3e 774d 95be 105d 9fbe 0985 2b3e
000001e0: b882 3fbf 1763 67bd b9c5 cf3c c0e0 a43e
000001f0: adff 4b40 85e4 323f 8599 d63f 324f 56bf
00000200: 58f1 2dbf 658b f1be 079f f8bd b360 5b3e
00000210: 4459 44bf 29ce 953f 3d91 273f 9e06 07bf
00000220: e068 0c40 f061 aa3e e311 1fbe d22c e0bf
00000230: 4672 abbc 3621 e1be 8753 6540 fbb7 1d3f
00000240: 25d7 dabe 928f e6be 3bfb f93d 0e51 d4bd
00000250: 46ba 0bc0 9a45 efbe b4bc 573f a5de 28bf
00000260: e328 11bf aec4 5abf 8097 a6bf 1dd2 a0be
00000270: 13b8 17bf 4620 12c0 14d3 0cbf 0801 fc3f
00000280: b924 a0bf de1d 3ebf 3a64 95bf 68a5 54bf
00000290: d958 98be a660 11bf 7c26 a73d c75d be3d
000002a0: 76f1 333f c6fc 2940 c677 243f dfa5 86bf
000002b0: d6dd 84be a979 3abe 2e01 0ebf fa8f fcbf
000002c0: 9adf 64bc 47b3 56bb fb88 3abe df43 efbe
000002d0: eea4 83be 67cb a53f 561c b9be ccc9 2fbe
000002e0: d17d 9bbf 5d01 5f3f 1e92 2abf 584a c33f
000002f0: 41ce b83e d6f0 e03f ea6d 1640 37fe 453f
00000300: 4765 cb3f e718 21c0 2c85 0dbf 46a1 0dbf
00000310: fa0c 1b40 ff59 f83e 1657 b13f 9b4d 6ebf
00000320: e22e 1e3f b197 e23f 5e2a 1740 313b 603e
00000330: 2703 04bf 58e9 4640 e634 323f be85 85be
00000340: 7f89 e4bd a023 c73d 106c d03e 9b42 c4bf
00000350: 9238 33bd b1d4 ad3f 5120 2540 a85e 00bf
00000360: 3f54 df3e ca34 2340 5998 333b bd93 8abf
00000370: 85e4 8f3f 20cc b83c d887 bb3f c566 d1bf
00000380: a0c2 fbbe 1110 1bbf 5b57 0fbf 2ebd cabe
00000390: e901 a83f ff73 a73f 4370 48bf 8653 32bf
000003a0: fef0 883f 9ba2 7ebe fa56 be3f 7ebd 0040
000003b0: 6151 1b3f 94db 8abf cab0 0ec0 1283 10bf
000003c0: 5d0f af3f a278 47c0 dd8c 13bf fc95 f93f
000003d0: 19d0 b7bf adef 1abf 8507 04c0 59b1 1540
000003e0: 5c68 68bd 0572 9abf e15c 07c0 b11e 3a3d
000003f0: 5335 df3e 4ac1 1bc0 e9fd 05bf f9ef ccbd

obs_net.0.bias f4 [256]
-1.3632704 -0.8290499 -0.45776 0.08023216 0.6541351 0.29772958 0.4602965 -0.41216406
-0.009109809 -1.2695112 0.689772 -0.7521162 -0.13608505 -0.43787512 -1.2531654 -0.72987133
-2.3659534 0.77953804 -1.0144019 0.3699625 -0.8052232 0.12408695 -0.47181705 -0.6049495
0.40491223 -1.9136988 -0.70172304 -0.0939886 -0.2933528 -0.30648226 -1.3039689 -1.0692637
-2.0143309 -0.13397071 -0.7717778 -0.5052893 -0.501914 -1.3418872 0.084939376 -0.040706407
0.17794152 -1.1842996 -1.6717098 0.2419964 -1.5663947 0.24700761 -0.88591254 -0.79824746
-0.059297662 -0.9015022 -0.086898156 0.1654648 -0.67454207 -1.5340687 -0.2473786 0.42946932
-1.4452304 0.68064123 -1.3213217 0.43386117 -0.225362 -1.6529573 0.15247455 -0.64508194
-0.5725547 -0.5416907 -0.061497737 -0.55914533 -0.44328558 -0.070894316 -0.94850534 -1.3042861
-0.9121875 0.23871957 -0.68527424 0.19904496 -0.9777612 -1.2595544 -0.52077776 0.051900946
-0.53229254 -1.1743597 -0.08172947 -1.2226636 -1.4132056 -0.110858664 0.412695 -1.1691728
-0.42899004 -1.7239639 0.57922786 0.40836722 0.48373288 -0.4684976 -0.16905427 -0.9560783
-0.70282704 0.33848083 -0.46486625 -0.8519901 -0.23031591 -0.43580964 0.5788706 -1.6973895
-1.3210424 -1.3875867 -0.25935176 -1.2237395 -1.0384002 0.60048175 -0.17879704 -0.5458809
-0.5732462 -0.4603928 -1.5154907 -0.58058923 -0.037153948 -1.2688187 0.52721536 -0.64393544
0.034193866 -1.9550682 -0.9480004 -1.1309073 -0.5825704 -0.30110767 -1.4877489 -0.18469116
-0.1769902 -0.28819868 0.76022404 -0.95771337 -0.09723772 -0.9362421 0.3799345 0.78492755
0.5699428 -1.1813859 -0.23180637 -2.3704329 -0.5473926 -0.38227707 0.12672591 -0.33924347
-0.3919767 -0.1873845 -0.39744428 -0.11287377 0.6914024 0.54173 0.7329534 0.0017505575
-0.15202631 0.093850255 0.38651234 0.21792847 0.493497 -0.3776282 -0.024347607 -0.9863011
-0.12997656 -0.6994943 -1.4018764 -0.25489482 -0.4116797 -2.1472354 0.096187755 -0.011309664
-1.6497209 -0.7372662 0.3712094 -0.8074988 -0.26208416 -0.653458 0.17113504 -1.3868896
-1.3521043 -0.8886388 -0.8869374 0.04221134 0.16177762 -0.674567 -0.17231354 0.18364562
0.18835442 -1.2351215 0.35442755 -2.202947 -0.26433825 -0.8879323 0.41819987 -1.2692426
-0.91455394 0.2016757 -1.3330672 -0.42787293 -0.7851595 -1.3862514 -0.017345058 -0.84752345
0.3141505 -0.16828027 -0.21684894 -1.6153128 -0.096404284 -0.39644313 0.6789062 -2.5178204
-0.23469408 0.37956765 0.055235617 -0.6427143 0.15674035 -0.38537225 -1.8471785 -1.308243
-1.5266253 -0.8927013 -0.9288758 -0.23528375 0.556487 0.0128168445 -1.5068549 -0.5873802
-0.43211153 -0.09523089 0.51355535 -1.1667764 -0.65069246 -0.13437887 -0.88046277 -1.0526994
0.10721337 0.118062384 -1.3832909 -0.7145852 -0.72711897 -0.17647138 0.10828424 0.4782739
-1.1009557 0.29054675 -0.010583465 -1.9925275 -2.1264102 0.24190728 -0.75476515 0.10175479
0.13308804 -0.85349965 -1.0427614 -0.20928295 0.2871487 0.12346894 -0.8724522 0.41213024
00000000: a57f aebf 9d3c 54bf 855f eabe c250 a43d
00000010: 6675 273f 0370 983e fcab eb3e 2b07 d3be
00000020: 4f41 15bc 587f a2bf e694 303f b08a 40bf
00000030: e159 0bbe 2b31 e0be b967 a0bf d9d8 3abf
00000040: c86b 17c0 ce8f 473f ecd7 81bf ba6b bd3e
00000050: 1c23 4ebf 4d21 fe3d 0192 f1be f8dd 1abf
00000060: a850 cf3e 15f4 f4bf 1fa4 33bf 187d c0bd
00000070: 5732 96be 3eeb 9cbe 74e8 a6bf a2dd 88bf
00000080: ccea 00c0 9e2f 09be 3b93 45bf a45a 01bf
00000090: 707d 00bf f6c2 abbf b2f4 ad3d c3bb 26bd
000000a0: 4d36 363e 2197 97bf 96fa d5bf e7cd 773e
000000b0: 9f7f c8bf 90ef 7c3e 2acb 62bf f259 4cbf
000000c0: 1be2 72bd d9c8 66bf a9f7 b1bd 9b6f 293e
000000d0: caae 2cbf 5d5c c4bf d150 7dbe 67e3 db3e
000000e0: 4ffd b8bf 813e 2e3f 1221 a9bf 0d23 de3e
000000f0: 4cc5 66be 1b94 d3bf 4a22 1c3e 1724 25bf
00000100: f292 12bf 3eac 0abf 0de5 7bbd 2624 0fbf
00000110: 54f6 e2be 0a31 91bd 3fd1 72bf d9f2 a6bf
00000120: 1f85 69bf e772 743e 226e 2fbf 71d2 4b3e
00000130: 8f4e 7abf 1439 a1bf b151 05bf 1696 543d
00000140: 5344 08bf 6b51 96bf c861 a7bd 3e80 9cbf
00000150: ece3 b4bf de09 e3bd c24c d33e 74a7 95bf
00000160: 95a4 dbbe d9aa dcbf 4748 143f 8215 d13e
00000170: d6ab f73e ebde efbe 901c 2dbe 8cc1 74bf
00000180: 79ec 33bf 5c4d ad3e f302 eebe 061c 5abf
00000190: efd7 6bbe 7122 dfbe dd30 143f 0f44 d9bf
000001a0: eb17 a9bf 719c b1bf c1c9 84be 7fa3 9cbf
000001b0: 4cea 84bf 2cb9 193f 9216 37be dabe 0bbf
000001c0: 43c0 12bf 9bb8 ebbe 99fb c1bf 7fa1 14bf
000001d0: bd2e 18bd a768 a2bf 96f7 063f f4d8 24bf
000001e0: de0e 0c3d ad3f fabf 27b0 72bf 92c1 90bf
000001f0: 5523 15bf c92a 9abe 8e6e bebf ae1f 3dbe
00000200: eb3c 35be c78e 93be 0b9e 423f b42c 75bf
00000210: 9224 c7bd 90ad 6fbf c686 c23e 03f1 483f
00000220: c5e7 113f a737 97bf a65e 6dbe 2cb5 17c0
00000230: ec21 0cbf d2b9 c3be 70c4 013e 52b1 adbe
00000240: 2cb1 c8be b9e1 3fbe d17d cbbe 5d2a e7bd
00000250: bfff 303f d1ae 0a3f d6a2 3b3f f672 e53a
00000260: c9ac 1bbe 9034 c03d f2e4 c53e a428 5f3e
00000270: a4ab fc3e 7c58 c1be a274 c7bc 3b7e 7cbf
00000280: 9318 05be 0f12 33bf b070 b3bf 9381 82be
00000290: aec7 d2be 4e6c 09c0 16fe c43d 2b4c 39bc
000002a0: 0e2a d3bf 7abd 3cbf 290f be3e 3eb8 4ebf
000002b0: e52f 86be 0649 27bf 063e 2f3e 9985 b1bf
000002c0: c111 adbf d57d 63bf 540e 63bf cce5 2c3d
000002d0: 08a9 253e 6cb0 2cbf f672 30be 990d 3c3e
000002e0: fbdf 403e 7618 9ebf 8777 b53e 15fd 0cc0
000002f0: 5857 87be 884f 63bf 4b1e d63e 8b76 a2bf
00000300: 3520 6abf 1384 4e3e f2a1 aabf 2912 dbbe
00000310: 3700 49bf b070 b1bf 3917 8ebc 4cf7 58bf
00000320: 56d8 a03e aa51 2cbe a60d 5ebe 92c2 cebf
00000330: 9c6f c5bd 98fa cabe cccc 2d3f f823 21c0
00000340: a553 70be b156 c23e be3e 623d ed88 24bf
00000350: 8b80 203e 834f c5be 5870 ecbf 8274 a7bf
00000360: 7568 c3bf 1388 64bf ceca 6dbf 39ee 70be
00000370: ef75 0e3f befd 513c 9fe0 c0bf 8c5e 16bf
00000380: b93d ddbe 6a08 c3bd 5d78 033f ee58 95bf
00000390: c893 26bf 9d9a 09be 0266 61bf dbbe 86bf
000003a0: af92 db3d b1ca f13d ad0f b1bf 0eef 36bf
000003b0: 7824 3abf eab4 34be 21c4 dd3d 51e0 f43e
000003c0: 1eec 8cbf 8bc2 943e 4566 2dbc 240b ffbf
000003d0: 1b17 08c0 8bb6 773e 4a38 41bf d164 d03d
000003e0: 3b48 083e f47e 5abf 3579 85bf 454e 56be
000003f0: 2805 933e 49dd fc3d 0759 5fbf bc02 d33e

action_net.0.weight f4 [256, 1]
-0.0022916205 0.03855897 -0.092936955 0.0018097133 0.005204875 0.0007429337 0.36871925 0.04822402
-0.75167763 0.05749317 -0.025128623 0.03166964 0.0011411221 -0.004715085 0.038224977 -0.0052939537
0.016781678 -0.04139985 0.26964903 -0.07166327 -8.60627e-05 0.30797753 0.059862025 -0.063120045
-0.041518543 0.0013860291 -0.796482 0.45353281 -0.001991784 0.014196504 -1.1368043 -0.023508474
0.045401566 -0.03267555 -0.2343618 0.0005148699 -0.39634833 0.00073034596 0.004251365 0.037224967
-0.4610419 0.0067397733 0.03809037 -0.044989713 -0.071057655 0.30691475 -0.00018357772 -0.42923158
-0.0012354725 -0.023372002 -0.028231297 -0.038410194 -0.9288138 0.051179353 -0.0146615505 0.03546313
0.74826264 -0.044287927 -0.024880514 -0.012178898 0.086375296 0.046738375 -0.02840416 0.00030896027
-0.25186536 0.0014654902 0.029890357 -0.0063614543 0.0014949549 0.06392867 0.04685839 -0.032991342
-0.6904294 0.00991746 0.07530767 -0.0024491737 -0.45812395 -0.010224382 0.0005008739 9.922947e-06
-0.0015492873 -0.43430555 -0.0020613123 0.0012982737 -0.04209532 -0.058587283 -0.025380937 -0.0141155245
0.05108998 0.02381736 0.008825859 0.391513 -0.7417553 0.00085071195 -0.04125142 -0.058511104
-0.016237842 -0.0038269758 -0.03542467 -0.001409418 0.357952 0.0022716695 -0.45905265 0.12284173
-0.7720885 -0.6414141 -1.2853955 -0.0006673672 0.033934344 -0.018208152 -0.064914085 0.07317129
0.026920192 -0.0001970269 -0.03785214 0.0021717586 0.075090624 -0.03556688 0.07038575 -1.440596
0.40702096 -0.01648829 -0.00066970696 0.009792253 0.00020293573 -0.010835745 0.3046846 0.4379413
0.42068246 0.24536605 0.016805895 -0.60949314 -0.21995062 -0.0003564057 -0.0021107197 -0.5552416
-0.06270977 0.001891272 -0.04389901 0.017109884 -0.53937286 -0.001938341 -0.022019263 -0.7581062
0.00018694307 -0.7587668 -0.020605175 -0.056231633 -0.03830079 -0.020548629 -0.046347275 0.028245958
-0.7877454 -0.0004911398 0.0634835 0.0007170153 0.16801217 -0.028648162 0.0013696436 -0.81945497
0.02432084 -0.009080351 -0.7624779 0.057592057 0.11007668 -0.087671995 0.0063424706 0.0025339073
-0.009648424 -0.05747694 0.114147745 0.018533785 0.30935046 -0.32570603 -0.0013592872 0.04098551
0.012558818 -0.00063456164 0.008705457 -0.024884993 -0.12777771 -0.9534939 0.00038626321 0.010547621
-0.01947241 0.00059405074 -0.017625578 -0.5161787 0.0003228818 0.051186975 -0.024081966 0.0012703537
0.0015205992 -0.7919519 -0.060049374 0.04762331 0.0003733499 -0.47321478 -0.0024946833 0.0015763764
-0.031712767 -0.036291946 -0.0009634543 -1.3869534 -1.0718617 -0.025618084 0.051971585 -0.023466013
0.00031369904 0.046830967 0.002062203 0.000724344 -0.0031940234 -0.79878205 -0.019453859 -0.8026226
0.0038375293 -0.044104308 -0.079479866 -0.040352784 -0.00064279285 -1.1325783e-05 -0.0004028762 -0.015325944
-0.05501841 -0.015864404 -0.043491215 0.060447454 0.037607495 0.074283734 0.42898515 0.09553784
0.02383609 0.0006482971 -0.040199295 0.007180006 0.022953987 -0.05142001 0.3709626 -0.00586103
0.019144837 -0.0022594787 -0.0014379901 0.006645172 0.001110079 -0.07722527 -0.77942574 0.40720615
-1.1891296 -0.49338457 0.03616726 0.43143982 0.008759164 0.0011080893 -0.010278257 -0.021055672
00000000: 032f 16bb 03f0 1d3d bb55 bebd e733 ed3a
00000010: a88d aa3b 70c1 423a c5c8 bc3e 8d86 453d
00000020: f26d 40bf f57d 6b3d 8bda cdbc 06b8 013d
00000030: b491 953a 0081 9abb cb91 1c3d e778 adbb
00000040: bb79 893c e492 29bd 700f 8a3e 31c4 92bd
00000050: 8f7c b4b8 3baf 9d3e e231 753d 1545 81bd
00000060: 590f 2abd 6bab b53a 3fe6 4bbf 7435 e83e
00000070: 9788 02bb 7498 683c ce82 91bf d894 c0bc
00000080: fef6 393d ccd6 05bd 8afc 6fbe 56f8 063a
00000090: 2bee cabe b074 3f3a 094f 8b3b 3579 183d
000000a0: af0d ecbe 51d9 dc3b a604 1c3d 2247 38bd
000000b0: ad86 91bd ee23 9d3e c57e 40b9 3ec4 dbbe
000000c0: 94ef a1ba a476 bfbc 5245 e7bc 0254 1dbd
000000d0: bec6 6dbf 71a1 513d 0037 70bc c941 113d
000000e0: 248e 3f3f 4267 35bd 38d2 cbbc 008a 47bc
000000f0: 88e5 b03d bd70 3f3d d7af e8bc f2fb a139
00000100: 7ff4 80be b115 c03a 9fdc f43c bf73 d0bb
00000110: 5df2 c33a 09ed 823d 95ee 3f3d ee21 07bd
00000120: fbbf 30bf d87c 223c e83a 9a3d 5182 20bb
00000130: 398f eabe 2b84 27bc 144d 033a bc7a 2637
00000140: 7511 cbba 4c5d debe 1517 07bb d62a aa3a
00000150: 246c 2cbd 38f9 6fbd afeb cfbc cd44 67bc
00000160: ba43 513d a01c c33c 569a 103c 6474 c83e
00000170: ade3 3dbf 5002 5f3a 40f7 28bd 57a9 6fbd
00000180: 3905 85bc 00ce 7abb 7519 11bd 38bc b8ba
00000190: 7c45 b73e 4ae0 143b f308 ebbe 7294 fb3d
000001a0: 98a7 45bf b733 24bf d787 a4bf 41f2 2eba
000001b0: bdfe 0a3d 4329 95bc adf1 84bd d4da 953d
000001c0: bc87 dc3c 0199 4eb9 d80a 1bbd 1054 0e3b
000001d0: 1dc9 993d 94ae 11bd 6726 903d 7365 b8bf
000001e0: 0d65 d03e 7312 87bc 468f 2fba b06f 203c
000001f0: 25cb 5439 6988 31bc 9fff 9b3e d839 e03e
00000200: b163 d73e 3d41 7b3e 84ac 893c be07 1cbf
00000210: bc3a 61be f7db bab9 0054 0abb 5024 0ebf
00000220: fb6d 80bd 8fe4 f73a 73cf 33bd 072a 8c3c
00000230: 5714 0abf ee0f feba be61 b4bc 3f13 42bf
00000240: 2606 4439 8a3e 42bf 2fcc a8bc 2453 66bd
00000250: 4ae1 1cbd 9955 a8bc a4d6 3dbd 1164 e73c
00000260: afa9 49bf d6bf 00ba a303 823d 15f6 3b3a
00000270: 620b 2c3e 8daf eabc 9d85 b33a cdc7 51bf
00000280: 803c c73c c1c5 14bc c031 43bf a6e5 6b3d
00000290: e26f e13d 608d b3bd 80d4 cf3b e90f 263b
000002a0: 6c14 1ebc f16c 6bbd 4bc6 e93d 2ad4 973c
000002b0: 2f63 9e3e f1c2 a6be 1c2a b2ba 6ce0 273d
000002c0: 80c3 4d3c b658 26ba 55a1 0e3c 9ddb cbbc
000002d0: 29d8 02be 2d18 74bf 5f83 ca39 eecf 2c3c
000002e0: 9b84 9fbc 12ba 1b3a 8463 90bc 4a24 04bf
000002f0: 7648 a939 6fa9 513d 8b47 c5bc ff81 a63a
00000300: d84e c73a 5cbd 4abf 55f6 75bd a910 433d
00000310: 2dbe c339 3549 f2be d77d 23bb 6a9e ce3a
00000320: 3fe5 01bd dda6 14bd 5390 7cba b087 b1bf
00000330: c432 89bf 04dd d1bc 28e0 543d cc3b c0bc
00000340: f977 a439 d4d1 3f3d 0626 073b e7e1 3d3a
00000350: d252 51bb fb7c 4cbf b35d 9fbc ad78 4dbf
00000360: 0f7f 7b3b b8a6 34bd 57c6 a2bd f648 25bd
00000370: 1981 28ba de03 3eb7 2139 d3b9 ab19 7bbc
00000380: fc5a 61bd 11f6 81bc d823 32bd c097 773d
00000390: 510a 1a3d 1222 983d f1a3 db3e 58a9 c33d
000003a0: e743 c33c 7bf2 293a 04a8 24bd 4146 eb3b
000003b0: 000a bc3c ca9d 52bd cfee bd3e e20d c0bb
000003c0: a2d5 9c3c c313 14bb f17a bcba bebf d93b
000003d0: 1280 913a 4828 9ebd 7288 47bf 537d d03e
000003e0: 6635 98bf e79c fcbe 1f24 143d aee5 dc3e
000003f0: 9982 0f3c 4f3d 913a 2266 28bc f27c acbc
