playground/classic_controls/continuous/pendulum/a2c/model.pth (torch, 21935 bytes, 9 tensors)

base.0.weight f4 [64, 3]
0	0x3ff24a3d	1.8928906
1	0xbe9f187e	-0.31073374
2	0xbed68078	-0.4189489
3	0x3f97d30a	1.1861279
4	0x3fb4eee5	1.4135405
5	0x3dd15e25	0.10223035
6	0x3e882aec	0.26595247
7	0xbd363e40	-0.04449296
8	0xbcc9fe20	-0.024657309
9	0xbf3b4d95	-0.73165256
10	0xbfdd53b6	-1.7291172
11	0x3f174f87	0.59105724
12	0xbe0f061c	-0.13967174
13	0xc001e9b4	-2.029889
14	0x3cd6859a	0.026186753
15	0x3f8cea8d	1.1009079
16	0x3faeba3e	1.3650587
17	0x3ebaa48d	0.36453667
18	0x3d6830e0	0.056687236
19	0xbfa22e12	-1.267031
20	0xbda67bf5	-0.08129112
21	0x3ec6e8d8	0.3884952
22	0xbf68bc35	-0.9091218
23	0x3f3400a5	0.70313483
24	0x3f177f17	0.591783
25	0xbfaecdc4	-1.3656545
26	0x3e9ff5ae	0.31242126
27	0x3f1a0306	0.60160863
28	0x3fa165f3	1.2609237
29	0x3e9a2509	0.3010638
30	0x3f882488	1.0636148
31	0x3e8379d1	0.25678876
32	0xbee18733	-0.4404846
33	0x3fad7766	1.3552063
34	0x3ecce3d3	0.40017566
35	0x3efce2ef	0.49391887
36	0x3f51df6e	0.8198155
37	0xbf1359cd	-0.575589
38	0x3dc44578	0.095835626
39	0x3e56c97e	0.209753
40	0xbeff83cb	-0.49905238
41	0x3d1b633c	0.037936434
42	0x3fead68b	1.8346723
43	0xbf59e6b6	-0.8511766
44	0x3f3ac73c	0.7296026
45	0x3fdbdeec	1.7177405
46	0xbf979137	-1.1841191
47	0xbeed6719	-0.4636772
48	0x3ff3eb2a	1.9056141
49	0xbf6d5b12	-0.9271709
50	0x3edb3a95	0.42818132
51	0x3f92f42d	1.1480767
52	0x3f1eedcb	0.62081593
53	0xbee45cf9	-0.44602183
54	0x3dc46300	0.09589195
55	0x3eb65654	0.35612738
56	0xbaef1600	-0.001824081
57	0x3e932107	0.28736135
58	0xbfd78375	-1.6836993
59	0xbeb8d7b0	-0.36102057
60	0x3f711259	0.9416862
61	0xbf09c803	-0.5382082
62	0xbe3de2f9	-0.18543614
63	0x3f9e5c09	1.2371837
64	0x3fa01bc6	1.2508476
65	0xbe93bd57	-0.28855392
66	0x3ef453bc	0.47720134
67	0x3e9707ba	0.29498082
68	0x3dc77514	0.09739128
69	0x3e5719c9	0.2100593
70	0xbfa5c2cc	-1.2950072
71	0x3dbf8d84	0.09353164
72	0x3f8864f4	1.0655808
73	0xbf4fc562	-0.8116056
74	0x3ed3d315	0.4137198
75	0x3f94a2f1	1.1612226
76	0xbf38f345	-0.722462
77	0x3e9f6955	0.3113505
78	0x3f9c7468	1.2223024
79	0x3e23a688	0.15981495
80	0xbf0adb79	-0.5424114
81	0x3fb7decc	1.4364867
82	0x3ee13091	0.43982366
83	0x3f1cd60e	0.6126412
84	0x3e13ea78	0.14444911
85	0x3fab28ea	1.3371861
86	0x3f2e39e8	0.6805711
87	0xbf653486	-0.8953327
88	0x3f429070	0.76001644
89	0x3d0af46c	0.033924505
90	0x3f938b15	1.152682
91	0xbf2f0ff9	-0.6838375
92	0x3ec55dea	0.38548213
93	0x3f1a67f3	0.60314864
94	0xbf75673e	-0.9586066
95	0xbe5ff07b	-0.2186908
96	0x3f6cfbac	0.9257152
97	0x3e28625b	0.1644377
98	0x3e5e646e	0.21717998
99	0x3e579455	0.21052678
100	0xbfbfd087	-1.4985512
101	0xbf08cdb1	-0.5343886
102	0xbd073770	-0.033011854
103	0x3dd99114	0.106233746
104	0x3c50e2b4	0.012749363
105	0x3f61c485	0.8819049
106	0x3f3a06bf	0.72666544
107	0xbec463f2	-0.38357502
108	0x3f6e5dae	0.93111694
109	0x3faf8817	1.3713406
110	0x3dacaf1e	0.084318385
111	0x3fdad41c	1.7095981
112	0x3e0fc618	0.1404041
113	0xbf10630a	-0.5640112
114	0x3f816ea6	1.0111892
115	0x3f80796a	1.0037053
116	0x3f0e3817	0.55554336
117	0x3f80e668	1.0070314
118	0x3fc2915c	1.520061
119	0x3eca5f58	0.39525867
120	0xbd928e32	-0.07156028
121	0xbf2266b5	-0.6343797
122	0x3d548972	0.05188889
123	0x3dff72f8	0.124731004
124	0xbd780b20	-0.060557485
125	0x3e079135	0.13238986
126	0x3f890d71	1.0707227
127	0x3f90b545	1.1305319
128	0xbd937ab3	-0.072011374
129	0x3e5d95e1	0.21639206
130	0xbf859bcf	-1.0438174
131	0xbe575c44	-0.2103129
132	0xbe5ba02f	-0.21447824
133	0xbd4a5b14	-0.049403265
134	0x3ae552dc	0.0017496007
135	0xbfa4c44b	-1.2872404
136	0xbedcf093	-0.43152294
137	0x3f0ea317	0.55717605
138	0x3f703b84	0.93840814
139	0xbec56abb	-0.3855799
140	0x3eb6dfd2	0.35717636
141	0x3fe2b25a	1.7710679
142	0xbf79e64b	-0.97617024
143	0xbebafa66	-0.36519164
144	0x392bcceb	0.00016384169
145	0x3e9ead9c	0.30991828
146	0x3ca17e3c	0.019713514
147	0x3f30354b	0.6883132
148	0x3f3712d2	0.7151309
149	0x3bdbebb9	0.00671145
150	0x3fc81e18	1.5634184
151	0x3e6af78f	0.22945999
152	0xbf22dc05	-0.63616973
153	0x3e8f220e	0.2795567
154	0x3d276b83	0.040874016
155	0xbcf982ad	-0.030457819
156	0x3f1a6b3f	0.60319895
157	0xbd723b60	-0.059138656
158	0x3e9f9bc5	0.3117353
159	0x3f8139db	1.0095781
160	0xbfeadeed	-1.8349282
161	0x3ead1eb6	0.33812493
162	0x3f0cdcba	0.550243
163	0xbcacb4dc	-0.021082334
164	0xbd4b00e3	-0.049561393
165	0x3ffdaf8d	1.9819199
166	0xbf72a1ce	-0.94778144
167	0xbf16d252	-0.58914673
168	0x3f197708	0.5994725
169	0xbf0d9b96	-0.5531553
170	0xbd9da85f	-0.0769813
171	0xbf128f7a	-0.5725018
172	0x40026740	2.0375519
173	0x3e4d7d67	0.20067368
174	0x3f7e1951	0.9925738
175	0x3ee70d5f	0.4512739
176	0x3eb0a7f9	0.34503153
177	0x3fa473eb	1.2847875
178	0xbfc85284	-1.5650182
179	0xbef97199	-0.4871948
180	0x3ddf5531	0.10904921
181	0xbfd9f1c0	-1.7026901
182	0xbe833f20	-0.25634098
183	0x3f821fbb	1.0165933
184	0xbea24fba	-0.31701452
185	0xbf253fba	-0.64550364
186	0x3f91d1fc	1.1392207
187	0xbd876897	-0.06611746
188	0x3f3deb45	0.7418712
189	0x3f93c39f	1.1544074
190	0x3f36b4f2	0.7136985
191	0x3e4de446	0.2010661

base.0.bias f4 [64]
0	0xbf9c405d	-1.2207142
1	0xbeafa187	-0.34302923
2	0xbf10ff7a	-0.56639826
3	0xbec79c13	-0.38986263
4	0x3eaa66d6	0.33281583
5	0xbf48323b	-0.78201646
6	0x3dd52b98	0.104087055
7	0xbe87feaa	-0.2656148
8	0x3f91d40a	1.1392834
9	0xbed7fb67	-0.42183992
10	0xbfdd9d61	-1.7313653
11	0xbe8059c0	-0.25068474
12	0x3df5108d	0.119660474
13	0x3e173877	0.14767633
14	0xbfa4ecdf	-1.2884787
15	0xbe2fad10	-0.17155862
16	0xbf7c7993	-0.9862301
17	0xbeb0e751	-0.3455148
18	0xbeed01f4	-0.46290553
19	0x3ecad69f	0.39616868
20	0x3f28e7dd	0.65978795
21	0xbf1c4034	-0.61035466
22	0xbf4466a3	-0.7671911
23	0xbe7c3720	-0.24630404
24	0xbedd0b11	-0.43172505
25	0xbed4f50c	-0.41593206
26	0xbff68674	-1.9259782
27	0x3c025710	0.007955328
28	0x3dfabbd3	0.12242856
29	0xbe56c59e	-0.20973822
30	0xbef546ad	-0.47905484
31	0x3f6abc6d	0.91693765
32	0xbf192f86	-0.5983814
33	0xbd050d95	-0.032483656
34	0xbe6a2781	-0.22866632
35	0xbf9f6ac4	-1.2454457
36	0xbf56935f	-0.8381862
37	0xbfc27548	-1.5192041
38	0xbcfe15ba	-0.03101622
39	0x3d7664b1	0.06015462
40	0xbeaf7f3c	-0.3427676
41	0xbf4406ca	-0.7657286
42	0xbf048d02	-0.5177766
43	0x3db14aa6	0.08656816
44	0xbe9c2b0c	-0.30501592
45	0x3f37c1fc	0.7178037
46	0x3eceac0d	0.4036564
47	0xbf3dcd1a	-0.74141085
48	0xbf00af5b	-0.5026757
49	0xbf0584c4	-0.5215571
50	0xbff45569	-1.9088565
51	0xbf5b8479	-0.8574901
52	0xbf72c57f	-0.94832605
53	0xbd03c616	-0.03217133
54	0xbf5d9eef	-0.8657064
55	0xbf999fd1	-1.2001897
56	0x3e926144	0.28589833
57	0x3f8bfac3	1.0935901
58	0xbd833f83	-0.06408598
59	0xbe1636ee	-0.14669392
60	0x3ed10623	0.40824994
61	0xbfdf9df7	-1.7470082
62	0xbea3d534	-0.319986
63	0xbdfc0e8d	-0.12307463

base.2.weight f4 [64, 64]
0	0xbe9847c4	-0.29742253
1	0x3cda15ea	0.026621778
2	0xbd4c0c00	-0.04981613
3	0xbe86fc86	-0.26364535
4	0xbea750bf	-0.32678792
5	0xbecd3c52	-0.40085083
6	0xbeec02c2	-0.46095854
7	0xbe7b1518	-0.24519765
8	0xbea94167	-0.3305771
9	0xbe249c02	-0.16075137
10	0xbea1c7e9	-0.31597832
11	0xbed04ecf	-0.40685126
12	0x3bee4298	0.007271122
13	0xbdfe25db	-0.12409564
14	0xbf26167c	-0.6487806
15	0xbf4374fa	-0.7635037
16	0x3d1602f4	0.03662391
17	0x3efbc643	0.491747
18	0x3cbb16d8	0.022838041
19	0xbeaa6df3	-0.3328701
20	0xbc1aeedb	-0.009456362
21	0xbdc29517	-0.09501093
22	0xbeb0d97c	-0.34540927
23	0x394d18d0	0.00019559567
24	0xbe309ee6	-0.17248115
25	0xbf253f16	-0.64549387
26	0xbe865ff9	-0.26245096
27	0xbe31c028	-0.17358458
28	0x3d8df5d5	0.06931654
29	0x3df63912	0.12022604
30	0xbf0bc726	-0.5460075
31	0xbe71987a	-0.23593321
32	0x3e8aa4d3	0.27078876
33	0x3cacd1f3	0.021096205
34	0x3c92ad10	0.017904788
35	0xbe9e8963	-0.30964193
36	0xbe4a6a5f	-0.1976714
37	0xbf0f0261	-0.55863005
38	0xbe980319	-0.29689863
39	0x3e454ba2	0.19267133
40	0xbf479050	-0.7795458
41	0xbe6877d9	-0.22701968
42	0x3b4d0648	0.0031284261
43	0xbdae9d3a	-0.08526082
44	0xbe295795	-0.16537316
45	0xbf3aaa3a	-0.72915995
46	0xbeaf7618	-0.34269786
47	0xbdfb6bcc	-0.1227642
48	0xbe130e0b	-0.14360826
49	0x3f706ae1	0.93913084
50	0xbf3c4582	-0.7354356
51	0xbef4bcc7	-0.47800276
52	0xbe79dc6f	-0.24400495
53	0x3e25065b	0.16115706
54	0xbca6a105	-0.020340452
55	0xbecc2c8d	-0.3987774
56	0xbc739ad9	-0.0148684615
57	0xbe8877b9	-0.2665384
58	0xbe582390	-0.21107316
59	0xbe852d55	-0.26011148
60	0xbebc938f	-0.36831328
61	0xbf2132f2	-0.6296836
62	0xbe87a5d9	-0.2649372
63	0x3d9f24be	0.0777068
64	0xbef4c1c9	-0.47804096
65	0xbf89aa73	-1.0755142
66	0xbd8ef05e	-0.0697944
67	0xc02169a2	-2.5220723
68	0x3d9a3736	0.07530062
69	0xbfa2ccb8	-1.2718725
70	0xbd9d606e	-0.07684408
71	0xbf450721	-0.76964
72	0xbf398b69	-0.7247835
73	0xbe0aaeb6	-0.1354321
74	0xbf134c55	-0.5753835
75	0xbf88f57a	-1.0699914
76	0xbcd39884	-0.025829561
77	0x3cfae5e6	0.030627202
78	0x3eb85d61	0.36008742
79	0xbeb4754c	-0.3524574
80	0x3f17bf88	0.5927663
81	0xbd3b4e3a	-0.0457289
82	0x3de41232	0.11136283
83	0x3ed89167	0.42298433
84	0x3e052921	0.1300397
85	0xbd9233c1	-0.071387775
86	0x3e80c335	0.2514893
87	0xbe6134dd	-0.21992822
88	0x3dd0e7ca	0.1020046
89	0x3e151079	0.14557065
90	0xbf344eba	-0.7043263
91	0xbdaa2373	-0.08307543
92	0xbfc0f576	-1.5074909
93	0x3f0026a3	0.50058955
94	0x3e1583f4	0.14601117
95	0x3eab75ee	0.3348841
96	0xbdc26b9a	-0.094931796
97	0x3f18146a	0.5940615
98	0xbc133fda	-0.008987391
99	0xbec3148d	-0.38101617
100	0xbf56c6b5	-0.8389695
101	0xbf17358f	-0.590661
102	0xbf99d66f	-1.2018565
103	0x3e0b2b25	0.13590677
104	0xbdad71cb	-0.0846897
105	0x3e6fd6b4	0.23421746
106	0x3e1c6a62	0.15274957
107	0xbdb5eca0	-0.08883023
108	0xbb804fd0	-0.0039157644
109	0xc0264522	-2.5979695
110	0xbf6543a5	-0.8955634
111	0xbedda2de	-0.4328832
112	0x3d82a866	0.06379776
113	0xbf7ae1de	-0.98000896
114	0xbf2b9cfc	-0.67036414
115	0x3d5f44ff	0.05450916
116	0xbf415d29	-0.75532776
117	0x3ecc3f40	0.39892006
118	0xbd7066fb	-0.05869196
119	0xbf030d45	-0.5119212
120	0xbcf8bad2	-0.03036252
121	0xbf0ea238	-0.55716276
122	0xbf56ad83	-0.8385851
123	0xbe2ad18c	-0.16681498
124	0x3e5242c9	0.20533289
125	0xbf3a49b2	-0.727687
126	0xbf5a024b	-0.8515975
127	0xbf7002ae	-0.9375409
128	0xbede7760	-0.4345045
129	0x3e278b55	0.16361745
130	0xbdedd9be	-0.11613797
131	0x3f0fb1f0	0.56130886
132	0x3ef66d31	0.4813018
133	0x3f3cd880	0.7376785
134	0x3ebf59b8	0.37373137
135	0x3e7ceb43	0.2469912
136	0x3f6fde04	0.93698144
137	0x3d14d1de	0.036332957
138	0xbeae8416	-0.3408515
139	0x3ed8ba40	0.42329597
140	0x3ef18836	0.47174233
141	0x3e271515	0.16316636
142	0xbf4cf18a	-0.8005606
143	0xbcb7ae3a	-0.022421945
144	0xbebf75eb	-0.37394652
145	0x3e5cf8c0	0.21579266
146	0xbda5e8e0	-0.08101058
147	0x3ee77322	0.45205027
148	0x3f31fc7a	0.69525874
149	0x3ecc52e9	0.39907005
150	0xbe1a3d95	-0.15062554
151	0x3d1fd008	0.039016753
152	0x3ceae782	0.028674845
153	0x3e7f5b6b	0.24937217
154	0xbf166c1e	-0.58758724
155	0x3edeb947	0.4350073
156	0x3f5b0c5e	0.85565746
157	0xbc80273b	-0.015643707
158	0xbc53b239	-0.01292091
159	0x3f3e507c	0.7434156
160	0x3e494c83	0.19658093
161	0x3eba5e59	0.36400107
162	0x3dcd85d8	0.10035294
163	0xbdd03b74	-0.1016759
164	0x3e3a27e5	0.18179281
165	0xbf6ac774	-0.9171059
166	0x3ea29cb8	0.31760192
167	0x3ed77a8a	0.42085677
168	0x3c586363	0.013207289
169	0xbe728759	-0.23684444
170	0x3ee8dcf4	0.45481074
171	0x3e5d6d8b	0.21623819
172	0xbe263290	-0.16230226
173	0x3f18df06	0.59715307
174	0x3e842316	0.25808018
175	0xbecce184	-0.40015805
176	0x3d7fb576	0.062428914
177	0x3ee7aa10	0.45246935
178	0xbfbf1001	-1.4926759
179	0xbed20069	-0.41015938
180	0x3c801083	0.015632873
181	0x3f0a90cb	0.54127187
182	0x3ebbc021	0.3667002
183	0xbfbcc2d6	-1.4746959
184	0x3edc3a2b	0.4301313
185	0x3f32803b	0.69726914
186	0x3e6aeb89	0.22941412
187	0xbe45d304	-0.19318777
188	0x3ed62e4b	0.41832194
189	0xbf9a9e49	-1.2079555
190	0x3ef1e58a	0.47245437
191	0x3e4d15ff	0.20027922
192	0xbeccd33e	-0.40004915
193	0xba6b6d43	-0.000898082
194	0xbd527988	-0.051385432
195	0x3ed21d15	0.41037813
196	0x3ed57941	0.41694072
197	0xbe82def9	-0.2556074
198	0x3d9765ef	0.07392489
199	0xbdf869b3	-0.121295355
200	0x3e8b018e	0.27149624
201	0xbdf11438	-0.117714345
202	0xbe951785	-0.29119506
203	0xbdfa1af7	-0.122121744
204	0x3b659280	0.0035029948
205	0xbe438a7f	-0.19095801
206	0xbf0ae83a	-0.542606
207	0xbecdd8e7	-0.40204546
208	0x3d469608	0.048482925
209	0xbe95bca4	-0.29245484
210	0x3d0cb6f4	0.034354165
211	0x3da7714b	0.08175906
212	0xbe0f81cf	-0.14014362
213	0xbe4be572	-0.19911745
214	0xbde8ff70	-0.11376846
215	0xbdb8bbec	-0.09020218
216	0xbe6a7e55	-0.22899754
217	0xbdb74004	-0.08947757
218	0xbeb482f3	-0.35256156
219	0xbd9f9910	-0.07792866
220	0xbebe1024	-0.3712169
221	0xbf05edd0	-0.52316
222	0xbe198c48	-0.1499492
223	0x3dad21d6	0.08453719
224	0xbe5e86d0	-0.21731114
225	0x3e338cbc	0.17534155
226	0x3de6686a	0.11250384
227	0xbea193d9	-0.3155811
228	0x3d629f8d	0.05532794
229	0xbf318c06	-0.69354284
230	0xbea5c702	-0.32378393
231	0xbe8199c5	-0.2531263
232	0xbca4f665	-0.020137021
233	0xbc4fb3bc	-0.012677129
234	0xbe32062b	-0.17385165
235	0x3c13d731	0.009023474
236	0x3d6139ce	0.054986767
237	0x3c81a0f5	0.01582382
238	0xbe6c482b	-0.23074405
239	0xbeb37796	-0.35052174
240	0x3d1d2878	0.038368672
241	0xbe14ea45	-0.14542492
242	0xbf680fbf	-0.90649027
243	0xbd810fae	-0.06301819
244	0xbeca0ffb	-0.39465317
245	0xbf56dbd1	-0.83929163
246	0xbd67d4ce	-0.05659943
247	0xbf405a6b	-0.75137967
248	0x3ceebced	0.029142821
249	0xbf168f97	-0.5881285
250	0xbe9e6f31	-0.30944207
251	0xbedfc747	-0.43706724
252	0x3baaf4f4	0.005217189
253	0xbf018bca	-0.50603926
254	0xbe0e5861	-0.13900901
255	0xbeb0750d	-0.34464303

base.2.bias f4 [64]
0	0xbed9486a	-0.4243806
1	0x3f6b7436	0.919742
2	0x3ff28957	1.8948163
3	0x3f157a4d	0.5838974
4	0xbe820a52	-0.253985
5	0xbe458503	-0.19289021
6	0xbd906044	-0.07049611
7	0xbe3e53bd	-0.18586631
8	0xbe841d89	-0.25803784
9	0x3f4fe179	0.8120342
10	0x3eb18d30	0.3467803
11	0x3fa6600f	1.2998065
12	0xbdf8c6ee	-0.12147318
13	0x3fdf3822	1.7439005
14	0xbf01aa8b	-0.5065085
15	0xbe617665	-0.2201782
16	0x3f253f4d	0.64549714
17	0xbdb7b5de	-0.08970235
18	0x3f24bbbd	0.64348966
19	0x3d04fcfa	0.03246782
20	0x3e556937	0.20840918
21	0xbe904d60	-0.28184032
22	0x3fdd797b	1.7302698
23	0xbd39f548	-0.045399934
24	0xbf087d92	-0.53316605
25	0xbd62a4f7	-0.055333104
26	0xbe9ee95a	-0.31037408
27	0x3f7fce5d	0.9992426
28	0xbd363376	-0.04448267
29	0xbe91df4b	-0.28490672
30	0xbcf684d7	-0.03009264
31	0x3ec8eb9d	0.3924226
32	0xbe54d409	-0.2078401
33	0xbe44742e	-0.19184944
34	0xbc9ae330	-0.01890716
35	0x3e17aedf	0.14812802
36	0xbd89a77a	-0.06721397
37	0x3e4552e0	0.19269896
38	0xbe54eab0	-0.20792651
39	0x3e85003f	0.2597675
40	0xbe1d6369	-0.15369953
41	0xbe6f00ba	-0.23340121
42	0xbea25f48	-0.3171332
43	0x3f39d0af	0.7258405
44	0xbf03b5a6	-0.5144905
45	0xbdaf5ddf	-0.08562826
46	0xbe77c314	-0.2419551
47	0x3db46421	0.088081606
48	0xbee46946	-0.44611567
49	0x3fc4fa90	1.5388966
50	0xbc126d96	-0.00893726
51	0xbe30eb26	-0.17277202
52	0x3f1c9a7c	0.61173224
53	0xbe4c2254	-0.1993497
54	0x3f8658a1	1.0495797
55	0x3ebd01a3	0.3691531
56	0x3f693736	0.9109987
57	0xbe7607cd	-0.24026413
58	0x3ef21150	0.47278833
59	0xbe6e02c6	-0.23243245
60	0x3fb26524	1.3937116
61	0x3f11576c	0.5677402
62	0x3f37a50d	0.7173622
63	0x3cfa7757	0.030574484

mu.0.weight f4 [2, 64]
0	0xbe3540d9	-0.17700519
1	0xbe892393	-0.26784953
2	0xbf6383e6	-0.88873136
3	0xbe635f6a	-0.22204366
4	0xbe1532fe	-0.14570233
5	0xbfb9bcba	-1.451072
6	0xbd2dcc74	-0.04243131
7	0x3df08c4e	0.11745511
8	0xbd85c2e8	-0.06531316
9	0xbf286a5c	-0.6578729
10	0xbeb64adf	-0.35603997
11	0xbea676cc	-0.3251251
12	0x3a6b7d00	0.0008983165
13	0xbf2cd114	-0.6750653
14	0x3d8e4e59	0.069485374
15	0xbe003d19	-0.12523307
16	0xbde6bf48	-0.11266953
17	0x3dff8c96	0.124779865
18	0x3d014c38	0.03156683
19	0xbe841842	-0.25799757
20	0xbea4219d	-0.32056895
21	0xbeae9cab	-0.34103903
22	0xbf20c421	-0.6279927
23	0x3d74a8fc	0.05973147
24	0xbe861194	-0.26185286
25	0xbe184ff2	-0.14874247
26	0xbc52216d	-0.012825352
27	0xbec13f20	-0.37743473
28	0x3cdf5e7c	0.027266733
29	0xbd278f3c	-0.040908083
30	0xbe092d60	-0.13396215
31	0xbf000dd1	-0.5002108
32	0xbd132c9a	-0.035931207
33	0xbe17e972	-0.14835146
34	0xbdb664f0	-0.08905971
35	0xbed77ab6	-0.4208581
36	0xbdac20d4	-0.08404699
37	0xbc2b5bbb	-0.010458882
38	0x3e7ea3a9	0.24867119
39	0xbf239864	-0.63904405
40	0xbd3946a6	-0.04523339
41	0xbe6791ea	-0.22614256
42	0xbd1fb0f8	-0.03898713
43	0xbe9c539d	-0.30532542
44	0x3e0377ae	0.12838623
45	0xbf0e0e69	-0.5549074
46	0xbd48714c	-0.048936173
47	0xbebc0277	-0.3672063
48	0x3d9d595c	0.076830596
49	0xbde140bd	-0.10998676
50	0xbc272ca3	-0.010203513
51	0xbe6a9196	-0.22907099
52	0xbf042d4c	-0.5163162
53	0xbe0f052d	-0.13966818
54	0xbf281237	-0.65652794
55	0xbdd62cd1	-0.10457767
56	0xbe759ff5	-0.239868
57	0x3de5f3a4	0.112281114
58	0xbef53ca1	-0.4789782
59	0x3d551bbe	0.05202841
60	0xbf31d698	-0.6946807
61	0x3d93032e	0.07178341
62	0xbe0feadb	-0.14054434
63	0x3e7c00b0	0.24609637
64	0xbdf9f698	-0.12205237
65	0xbe744d72	-0.23857668
66	0xbcda9654	-0.02668301
67	0xbed16204	-0.40895092
68	0xbc8b4193	-0.016999042
69	0xbe771632	-0.2412956
70	0x3db3d00e	0.08779918
71	0xbda5cddf	-0.080959074
72	0xbdb51b1c	-0.08843061
73	0xbd853c5b	-0.065056525
74	0xbe7c7df6	-0.24657425
75	0xbe3be99b	-0.18350832
76	0x3dfcc9a0	0.123431444
77	0xbe9f8ab0	-0.31160498
78	0xbdd1a49d	-0.102364756
79	0x3d6b1342	0.057391413
80	0xbe9bd38d	-0.30434838
81	0xbdb323f0	-0.08747089
82	0xbe91013f	-0.28321263
83	0xbd8e0bcd	-0.069358446
84	0xbe732df1	-0.23747994
85	0xbf29e87a	-0.66370356
86	0xbe8e4b49	-0.27791813
87	0xbd01b224	-0.03166403
88	0xbe6404cc	-0.22267455
89	0x3bd339b8	0.0064460896
90	0x3c21c8df	0.009874552
91	0xbe2b9e89	-0.16759695
92	0x3c591784	0.0132502355
93	0xbd5dacf5	-0.054120023
94	0xbdd0c958	-0.10194653
95	0xbe691596	-0.2276214
96	0xbabdcbc1	-0.0014480279
97	0xbed366da	-0.41289407
98	0xbc555f7d	-0.013023254
99	0xbf441b33	-0.76604
100	0xbd82bcf6	-0.06383698
101	0xbe573c90	-0.21019197
102	0xbd502f3b	-0.050826292
103	0xbea00942	-0.31257063
104	0x3df01190	0.117221
105	0x3d24c015	0.040222246
106	0xbd5e5374	-0.054278806
107	0x3e03969a	0.12850419
108	0x3d42cabd	0.047556628
109	0xbe14e754	-0.1454137
110	0x3d94f498	0.07273215
111	0xbe737023	-0.23773246
112	0xbd1e6f08	-0.038680106
113	0x3ddc3764	0.107527524
114	0x3d48e7c5	0.049049158
115	0x3f126e52	0.57199585
116	0xbe87eeb5	-0.26549307
117	0xbd297bc4	-0.041377798
118	0xbe4de8b4	-0.201083
119	0xbe0db791	-0.13839556
120	0xbede7185	-0.43445984
121	0xbd6f2e98	-0.058394045
122	0xbeb76ea1	-0.3582659
123	0xbe822469	-0.25418404
124	0xbeb583df	-0.35452172
125	0xbdb991d6	-0.09061019
126	0xbea07d80	-0.3134575
127	0xbda096ef	-0.07841288

mu.0.bias f4 [2]
0	0xbf02e521	-0.5113087
1	0xbe942eed	-0.28942052

sigma.0.weight f4 [2, 64]
0	0x3e20b22d	0.15692969
1	0x3e619c96	0.22032389
2	0xbe96d73e	-0.29461092
3	0xbd361dc3	-0.044461977
4	0x3e08bd35	0.13353427
5	0x3f03f3e8	0.51544046
6	0x3c1d3c00	0.009596825
7	0xbd826c44	-0.06368306
8	0xbe0ead04	-0.13933188
9	0xbe0819ef	-0.13291143
10	0xbdb4dfc7	-0.08831745
11	0xbe13f294	-0.14448005
12	0x3c92bf28	0.017913416
13	0xbece86c7	-0.40337202
14	0x3e7ec09a	0.24878159
15	0x3e91fc09	0.285126
16	0x3ebd7c65	0.37008968
17	0xbe52a42c	-0.20570439
18	0x3e30f4f9	0.1728095
19	0xbd8c3749	-0.06846482
20	0x3cd6e444	0.026231892
21	0xbedbd3b4	-0.42934954
22	0xbe1fea6a	-0.15616766
23	0x3cf273d0	0.02959624
24	0xbe36fa5d	-0.17868944
25	0xbdb0ae89	-0.0862704
26	0xbe845f74	-0.25854075
27	0x3f194d88	0.5988393
28	0xbd52734e	-0.051379494
29	0x3e5b3caa	0.2140986
30	0x3e0f4f34	0.13995057
31	0x3db43c50	0.08800566
32	0xbeaf159e	-0.3419618
33	0xbebb108a	-0.36536056
34	0xbe363027	-0.17791806
35	0x3e4d0a94	0.20023566
36	0x3dad7584	0.0846968
37	0x3c99ff48	0.018798485
38	0x3d7bbc5e	0.061458938
39	0xbe283284	-0.1642552
40	0xbd867240	-0.0656476
41	0xbecde0a1	-0.4021044
42	0xbb30681b	-0.002691752
43	0xbcf78d40	-0.03021872
44	0x3ebb3da2	0.3657046
45	0x3e8a23e2	0.269805
46	0xbe145239	-0.1448449
47	0x3e7c0242	0.24610236
48	0x3e5e29be	0.21695611
49	0x3ebc63bf	0.3679485
50	0xbe4721cb	-0.19446485
51	0x3dc33cd2	0.09533085
52	0x3e7092a9	0.23493446
53	0x3dfba3de	0.122871146
54	0x3f459a83	0.7718889
55	0xbcfe5823	-0.031047886
56	0xbdc5050f	-0.096201055
57	0xbe6a0ccf	-0.22856449
58	0xbd004d90	-0.03132397
59	0x3e591db4	0.21202737
60	0xbe515ed5	-0.20446332
61	0x3e20a2cd	0.15687104
62	0xbe7b7657	-0.24556862
63	0x3e92b232	0.28651577
64	0x3e513b55	0.2043279
65	0x3f55c0ec	0.834975
66	0x3f088f9c	0.5334413
67	0x3edfadbf	0.43687245
68	0x3ee52880	0.44757462
69	0x3f24a84b	0.64319295
70	0x3d3e8910	0.04651743
71	0xbeefae08	-0.46812463
72	0xbe86a606	-0.2629854
73	0x3e26dda6	0.1629549
74	0x3e9159e8	0.28388906
75	0x3f124469	0.57135636
76	0xbbaa7c60	-0.005202815
77	0x3f0d2a24	0.55142426
78	0x3dd14dc5	0.102199115
79	0xbc80828d	-0.015687251
80	0x3f0ee25c	0.55814147
81	0x3cd6cb95	0.026220122
82	0x3f1e839e	0.6191958
83	0xbd986218	-0.07440585
84	0x3e5947a9	0.21218742
85	0xbd968922	-0.07350375
86	0x3f4b9cc2	0.7953607
87	0xbc2fe260	-0.010735124
88	0x3e4ef5e4	0.20210987
89	0xbe32ff6a	-0.17480245
90	0x3e54d7d2	0.20785454
91	0x3f041d14	0.5160687
92	0xbba33c8e	-0.004981584
93	0x3ed8eb4b	0.42367014
94	0xbe64a62c	-0.22329015
95	0x3e52fca9	0.20604195
96	0xbe6cedd5	-0.231376
97	0xbdb788bd	-0.08961628
98	0x3e008e9e	0.12554404
99	0xbe478c98	-0.19487226
100	0xbd5ce6f8	-0.053931206
101	0x3e49a503	0.19691853
102	0x3d443f6e	0.047912054
103	0xbcb6a204	-0.022294052
104	0xbd817c38	-0.06322521
105	0x3e8ee803	0.27911386
106	0x3ab9b95b	0.001416962
107	0x3f154383	0.5830614
108	0x3eb84d12	0.359963
109	0xbe97b854	-0.2963282
110	0x3eb105dd	0.34574786
111	0x3e5b7974	0.2143305
112	0xbe793995	-0.24338372
113	0x3f1b7647	0.6072735
114	0xbd98f7cd	-0.07469139
115	0x3edc6f1f	0.4305353
116	0x3f0c2f8b	0.54760045
117	0xbe054ab9	-0.13016786
118	0x3f70efd5	0.94115955
119	0x3ee7197a	0.45136625
120	0x3eeecc73	0.46640357
121	0x3e09d7d1	0.13461234
122	0x3ece4360	0.40285778
123	0xbe8274c5	-0.25479713
124	0x3f05f86c	0.52332187
125	0x3eba909a	0.36438447
126	0x3f868b63	1.0511287
127	0x3e0497ed	0.1294858

sigma.0.bias f4 [2]
0	0xbfa1c722	-1.2638896
1	0x3f314be2	0.69256413

value.weight f4 [1, 64]
0	0x3c0d1c5f	0.008612721
1	0xbe888a54	-0.26668036
2	0xbf2e0d14	-0.67988706
3	0x3e245f76	0.1605204
4	0xbf03c1e5	-0.51467735
5	0xbdbdf9a7	-0.09276133
6	0x3d1231c8	0.035692006
7	0x3e59c388	0.21265996
8	0xbdb046db	-0.086072646
9	0x3e321ca4	0.17393738
10	0x3e56f0df	0.20990323
11	0xbf82f72b	-1.023168
12	0xbcca6870	-0.024708003
13	0x3e8fc7b6	0.28082055
14	0xbe969c7f	-0.29416272
15	0xbe28079b	-0.16409151
16	0xbe746b3f	-0.23869036
17	0x3ceb5510	0.028727084
18	0xbe89a9b9	-0.268873
19	0x3c8496d7	0.016185207
20	0xbeccd200	-0.40003967
21	0xbece1fce	-0.4025864
22	0xbdeb70e7	-0.11496144
23	0x3d66d794	0.056357935
24	0x3e5e1f75	0.21691687
25	0x3c8b0094	0.01696805
26	0x3ddefc04	0.10887912
27	0xbe84650f	-0.25858352
28	0xbd8c1594	-0.06840053
29	0xbe5a0f4f	-0.21294902
30	0xbeecb729	-0.4623349
31	0xbeba7c45	-0.36422935
32	0xbe1aef8a	-0.1513044
33	0xbe92d5ed	-0.28678837
34	0x3dcd39c9	0.10020787
35	0xbf7e898e	-0.9942864
36	0xbd81defc	-0.06341359
37	0x3cbef91a	0.02331214
38	0x3e966035	0.29370275
39	0xbdd2ed42	-0.102991596
40	0x3d039133	0.032120895
41	0x3dc6f709	0.09715087
42	0xbed420ba	-0.41431218
43	0xbe14ee29	-0.14543976
44	0xbe8c0cb6	-0.27353448
45	0xbe37259a	-0.17885438
46	0xbe856744	-0.26055348
47	0xbf3ba4d0	-0.7329836
48	0x3e36ea29	0.17862763
49	0xbf30d0fb	-0.6906888
50	0xbe12670a	-0.14297119
51	0x3daefd4b	0.085444055
52	0xbe833fd6	-0.2563464
53	0x3dc14dc8	0.09438664
54	0xbf03bbe4	-0.51458573
55	0x3f0f2868	0.5592103
56	0xbd6d110b	-0.05787758
57	0x3e6d97b7	0.23202406
58	0x3d4b74b7	0.049671855
59	0xbf0cbced	-0.5497578
60	0x3e2f7a10	0.17136407
61	0xbf8739fd	-1.0564572
62	0x3f1f7ab9	0.62296635
63	0xbefe57d3	-0.4967638
