playground/classic_controls/continuous/mountaincarcontinouus/a2c/model.pth (torch, 21615 bytes, 9 tensors)

base.0.weight f4 [64, 2]
0.03292722 -0.35299483 -0.079745434 0.42562175 0.6172778 0.56888247 0.10942113 0.11384493
0.433559 -0.45845672 0.6217919 -0.50988185 -0.5689592 -0.8551959 0.53681797 0.25229266
-0.55612975 0.34993652 0.64592034 -0.56731737 0.4288336 -0.5822705 -0.09338299 0.55405414
-0.1788406 0.26348576 0.17449397 0.41659802 -0.41231194 0.3358792 -0.46500105 -0.16600823
-0.29685694 0.47206956 0.12434504 0.3779323 -0.02648145 -0.06597936 0.5153222 0.020948358
0.60487956 0.46445113 0.40957922 0.250476 0.62404275 -0.2719216 -0.39135632 -0.39876303
0.5204708 0.70162493 -0.48326537 0.07169831 0.5361546 -0.2831177 -0.259798 -0.122997165
0.39337546 -0.061398923 0.0042962013 -0.5462682 -0.147607 -0.36141613 -0.16543749 -0.23238188
-0.5860001 -0.6311887 -0.69043833 -0.13331456 0.45682472 -0.7826811 0.039741695 0.45970052
-0.3869532 -0.5534085 0.1726373 -0.3045485 0.29047006 0.62977314 -0.54711163 -0.59667766
0.49133343 -0.46628642 -0.36210668 -0.35377163 -0.6298639 -0.73042846 0.24296492 -0.18032008
-0.637175 0.13527194 0.07935828 -0.2158877 0.6104006 -0.612934 -0.6795757 -0.51786035
0.16329098 -0.511226 -0.15693876 0.6415817 -0.122635335 -0.063717104 0.4160616 0.054251425
0.5146695 0.6456079 -0.42750683 0.5429641 0.5424811 -0.35673362 0.13399102 -0.31091815
0.60787255 0.38220078 0.40186736 0.7189464 0.07879573 -0.23980409 -0.15420446 0.2127786
-0.33792138 -0.3991246 0.2255879 0.48175818 0.3386652 -0.21605021 -0.15572344 -0.50507206
00000000: b1de 063d bdbb b4be 9351 a3bd 18eb d93e
00000010: eb05 1e3f 48a2 113f 2f18 e03d 8827 e93d
00000020: 72fb dd3e d7ba eabe c12d 1f3f 9e87 02bf
00000030: 4fa7 11bf 1eee 5abf e76c 093f 812c 813e
00000040: 855e 0ebf e12a b33e 095b 253f b63b 11bf
00000050: 1490 db3e ae0f 15bf 953f bfbd 7ed6 0d3f
00000060: fe21 37be 9be7 863e 8cae 323e 564c d53e
00000070: 8d1a d3be 5cf8 ab3e 9e14 eebe 10fe 29be
00000080: a2fd 97be 1ab3 f13e 9da8 fe3d 5880 c13e
00000090: a0ef d8bc 3020 87bd 28ec 033f e49b ab3c
000000a0: 63d9 1a3f 8acc ed3e 5eb4 d13e 643e 803e
000000b0: 44c1 1f3f 4f39 8bbe db5f c8be ab2a ccbe
000000c0: 933d 053f b19d 333f 8f6e f7be 90d6 923d
000000d0: 6e41 093f cef4 90be 3e04 85be f0e5 fbbd
000000e0: 8268 c93e 707d 7bbd 26c7 8c3b 3cd8 0bbf
000000f0: 4a26 17be 890b b9be 7268 29be 84f5 6dbe
00000100: 1a04 16bf 9595 21bf 91c0 30bf 9d83 08be
00000110: eee4 e93e ca5d 48bf 30c8 223d de5d eb3e
00000120: bb1e c6be 2eac 0dbf d5c7 303e c8ed 9bbe
00000130: 7eb8 943e d038 213f 820f 0cbf debf 18bf
00000140: 0e90 fb3e 18bd eebe 0c66 b9be 8e21 b5be
00000150: c33e 21bf 5cfd 3abf cccb 783e d4a5 38be
00000160: e71d 23bf ba84 0a3e 9886 a23d aa11 5dbe
00000170: 3743 1c3f 3ee9 1cbf acf8 2dbf 7f92 04bf
00000180: c035 273e b5df 02bf 8eb4 20be b33e 243f
00000190: 3c28 fbbd 1d7e 82bd 0706 d53e be36 5e3d
000001a0: 61c1 033f 8f46 253f 2de2 dabe b2ff 0a3f
000001b0: 0be0 0a3f caa5 b6be f134 093e aa30 9fbe
000001c0: 899d 1b3f d2af c33e 8fc1 cd3e df0c 383f
000001d0: a85f a13d 348f 75be c6e7 1dbe a2e2 593e
000001e0: 0804 adbe 0f5a ccbe 8400 673e 02a9 f63e
000001f0: 8665 ad3e 443c 5dbe f775 1fbe 674c 01bf

base.0.bias f4 [64]
0.54991233 0.13164814 0.6687012 0.50229657 -0.5426377 0.56067103 -0.2137972 0.63293743
0.3869169 -0.055304587 0.40615845 0.49077097 0.7124024 0.69196326 0.30867696 -0.46402448
-0.074168615 0.68694365 -0.19343573 0.33822975 -0.13759452 -0.20907179 0.49571028 -0.68928176
-0.5479504 -0.63879585 0.32647517 0.72499067 -0.6300437 0.14128277 0.11462776 0.35915366
-0.21403565 0.24987283 0.49729532 -0.60451555 0.29648557 0.56382424 0.21485072 -0.22648981
-0.55630076 0.33998114 -0.23060448 -0.54867464 0.25768736 -0.25055432 -0.6107852 0.5206878
-0.13240927 0.4919896 0.25197232 0.3572567 -0.1411922 -0.18664414 -0.43217918 0.360767
0.3414426 0.26809707 -0.15836138 0.588768 -0.49276292 -0.35445827 -0.22104952 0.6045488
00000000: 0ec7 0c3f c5ce 063e 0030 2b3f 8296 003f
00000010: 4eea 0abf 2388 0f3f a7ed 5abe 3008 223f
00000020: f919 c63e 1087 62bd 00f4 cf3e 5546 fb3e
00000030: 0160 363f 8124 313f e80a 9e3e 9e94 edbe
00000040: b7e5 97bd 8adb 2f3f 0414 46be 732c ad3e
00000050: 94e5 0cbe ea16 56be bdcd fd3e c574 30bf
00000060: 7a46 0cbf 2088 23bf c127 a73e fd98 393f
00000070: 8b4a 21bf 6eac 103e f6c1 ea3d fde2 b73e
00000080: 292c 5bbe aade 7f3e 7e9d fe3e 88c1 1abf
00000090: f5cc 973e c956 103f d401 5c3e f2ec 67be
000000a0: ba69 0ebf 0212 ae3e 9523 6cbe f175 0cbf
000000b0: 99ef 833e a848 80be 6b5c 1cbf cc4b 053f
000000c0: 4c96 07be 10e6 fb3e 8402 813e 5aea b63e
000000d0: b094 10be a41f 3fbe 9746 ddbe 74b6 b83e
000000e0: 91d1 ae3e 0544 893e 7c29 22be 80b9 163f
000000f0: 6c4b fcbe 8e7b b5be ce5a 62be b6c3 1a3f

base.2.weight f4 [64, 64]
-0.06475666 -0.05152398 -0.0721534 0.109023295 -0.010088012 -0.04404333 -0.021339217 0.11363734
-0.052462976 -0.00573574 0.023076516 -0.07348559 -0.0041982085 0.099034354 0.08229622 -0.10834864
-0.08260012 -0.08464241 -0.1096784 0.09663698 0.038219303 0.0014206022 0.029184686 0.0008777678
0.12275919 -0.1095525 -0.06906798 -0.03267693 0.121400476 0.07733141 -0.1284877 0.09106836
0.014808499 0.03997396 0.039704576 0.05621399 0.07607018 0.07578785 -0.017142197 0.091510385
0.058452785 0.007052337 -0.05828341 -0.050293535 0.06656383 0.08772038 0.006822109 -0.0998985
-0.024058238 -0.042184833 0.08415681 -0.100706816 -0.027639419 -0.02445833 -0.0819018 -0.067010745
0.08038925 0.059199423 -0.012178779 -0.015884444 0.0761524 -0.105600506 -0.008289561 0.0036041227
-0.12650529 0.10486121 -0.10211693 0.030254044 0.082896695 -0.026764117 -0.041825324 0.049153328
0.09188077 0.06631668 -0.07135651 -0.0769602 -0.04638528 0.04933599 -0.05313875 0.0377533
-0.0174281 0.111985624 -0.09561935 -0.034994237 0.03311652 0.03497179 -0.050263215 -0.11484647
0.014610201 0.1143875 0.017079541 -0.057339653 0.10880573 -0.13229825 0.11062891 0.06252437
0.03357487 0.03355637 -0.07046161 -0.123997614 0.042815644 0.06816052 -0.030438798 0.020312836
0.08600342 0.052853346 0.0777801 0.0045749843 -0.071299724 -0.0109001845 0.037322745 -0.0062829354
0.118483216 -0.033010077 -0.10702006 -0.041795395 -0.03193164 -0.0668821 0.076149955 0.01174183
0.049981445 0.028236555 -0.124474406 0.066384815 0.11505771 0.0500727 0.058383256 -0.015628373
-0.071992055 0.023528727 0.016933074 0.06040434 -0.0938371 0.098677 -0.06603501 -0.060916327
-0.0393653 -0.041425496 0.05967631 0.103188336 -0.012725256 0.031635504 -0.0368489 -0.091067314
-0.08344859 0.1223549 -0.084015176 -0.054077674 0.11236784 -0.0457626 -0.020460945 0.03773202
0.11950444 0.02255632 -0.009146717 0.0076990686 0.12467438 0.04140979 -0.02158643 -0.07705806
-0.07079055 0.009186948 0.017542526 0.05515574 0.069261484 0.06258859 -0.015839692 0.11550054
0.001631856 0.0371676 -0.08196691 -0.003432557 0.10446183 0.001582995 -0.049810916 0.006797124
-0.08760081 0.118864134 0.05879342 0.060340907 0.10747321 -0.054276206 -0.119322464 0.09714445
0.01778636 -0.045165382 -0.077162564 0.12421279 0.05281265 0.057732657 -0.10390718 -0.021542147
-0.03019929 0.0109106 -0.08167544 0.09522919 -0.11275524 0.042996258 -0.04041773 0.023075491
-0.106084704 0.01975818 -0.0049439073 -0.052473083 0.10164541 -0.08726387 0.036190584 0.11620681
-0.03350991 0.078675896 0.07903102 0.088059396 -0.11076827 0.04409872 0.11516377 -0.0139544755
0.069245666 0.060507923 -0.0022192001 -0.09902546 -0.003060326 0.10188609 -0.095640436 -0.07632716
-0.07848956 -0.10725817 -0.014295727 -0.0058434457 -0.1224421 0.060522124 -0.06610142 0.04802455
-4.082918e-05 0.12427223 0.020172521 0.016884059 -0.016241163 -0.08146846 0.015995026 -0.0142276585
-0.003490314 0.0031399578 -0.042304724 0.038265526 -0.07841356 -0.03695737 -0.09719363 -0.034248367
-0.07131505 -0.09604539 -0.024508625 -0.040598884 0.08554675 -0.084301546 -0.015213087 -0.05206445
00000000: 249f 84bd cf0a 53bd 29c5 93bd 9b47 df3d
00000010: 3048 25bc c766 34bd 95cf aebc b2ba e83d
00000020: 6be3 56bd e0f2 bbbb f60a bd3c 9d7f 96bd
00000030: 2091 89bb 86d2 ca3d ec8a a83d e4e5 ddbd
00000040: 402a a9bd 0059 adbd 129f e0bd 9ce9 c53d
00000050: d88b 1c3d 8033 ba3a b914 ef3c 001a 663a
00000060: 2c69 fb3d 105d e0bd 8373 8dbd 3fd8 05bd
00000070: d0a0 f83d ee5f 9e3d 4892 03be 0c82 ba3d
00000080: 599f 723c bcbb 233d 44a1 223d a440 663d
00000090: afca 9b3d a936 9b3d cb6d 8cbc cc69 bb3d
000000a0: 306c 6f3d 4a17 e73b 96ba 6ebd 9800 4ebd
000000b0: 9e52 883d bea6 b33d 008c df3b 9697 ccbd
000000c0: c815 c5bc 01ca 2cbd 685a ac3d 603f cebd
000000d0: 106c e2bc d65c c8bc 22bc a7bd ee3c 89bd
000000e0: 1ea3 a43d 187b 723d 8089 47bc 1820 82bc
000000f0: caf5 9b3d 1445 d8bd f0d0 07bc 2533 6c3b
00000100: 9a8a 01be 79c1 d63d ae22 d1bd 54d7 f73c
00000110: bec5 a93d 6c40 dbbc 0851 2bbd 0055 493d
00000120: fc2b bc3d 0ad1 873d 5d23 92bd 4f9d 9dbd
00000130: 7efe 3dbd 8914 4a3d 05a8 59bd 34a3 1a3d
00000140: 60c5 8ebc b858 e53d 14d4 c3bd 1e56 0fbd
00000150: 30a5 073d 943e 0f3d cde0 4dbd a034 ebbd
00000160: a05f 6f3c fe43 ea3d 65ea 8b3c fcdc 6abd
00000170: 8ad5 de3d 3179 07be 6991 e23d c70c 803d
00000180: ce85 093d 6772 093d 2d4e 90bd 76f2 fdbd
00000190: 755f 2f3d be97 8b3d c95a f9bc 1b67 a63c
000001a0: 9022 b03d c07c 583d 2c4b 9f3d c0e9 953b
000001b0: 9705 92bd b096 32bc bcdf 183d 15e1 cdbb
000001c0: 54a7 f23d 9335 07bd 552d dbbd a631 2bbd
000001d0: c0ca 02bd 7cf9 88bd 82f4 9b3d ce60 403c
000001e0: 58b9 4c3d 5950 e73c 70ec febd c3f4 873d
000001f0: 60a3 eb3d 0819 4d3d 4823 6f3d 1307 80bc
00000200: 9270 93bd 51bf c03c 3bb7 8a3c 8b6a 773d
00000210: aa2d c0bd 2b17 ca3d 5d3d 87bd 6683 79bd
00000220: 823d 21bd c8ad 29bd 256f 743d 6854 d33d
00000230: 987d 50bc 3b94 013d dfee 16bd 8081 babd
00000240: 18e7 aabd 3595 fa3d 2610 acbd 8d80 5dbd
00000250: 1c21 e63d 9071 3bbd b69d a7bc e48c 1a3d
00000260: bebe f43d 08c8 b83c 1ddc 15bc 7848 fc3b
00000270: 4855 ff3d 509d 293d 06d6 b0bc 9ed0 9dbd
00000280: a3fa 90bd da84 163c 58b5 8f3c fcea 613d
00000290: f7d8 8d3d 722e 803d 3ec2 81bc 8c8b ec3d
000002a0: 00e4 d53a 0e3d 183d 44de a7bd c0f4 60bb
000002b0: 15f0 d53d 807c cf3a 8806 4cbd 69ba de3b
000002c0: 0e68 b3bd 0a6f f33d 5fd1 703d 0728 773d
000002d0: ea1a dc3d ba50 5ebd 565f f4bd abf3 c63d
000002e0: b3b4 913c 56ff 38bd 6807 9ebd 4663 fe3d
000002f0: 1452 583d 1479 6c3d 4acd d4bd 2879 b0bc
00000300: 8064 f7bc 60c2 323c 7445 a7bd 8607 c33d
00000310: 38ec e6bd d81c 303d 108d 25bd d008 bd3c
00000320: f042 d9bd e8db a13c 8000 a2bb 04ee 56bd
00000330: 782b d03d 66b7 b2bd 943c 143d d6fd ed3d
00000340: b041 09bd d420 a13d 04db a13d 7c58 b43d
00000350: 7ada e2bd dca0 343d fcda eb3d 50a1 64bc
00000360: acd0 8d3d 28d7 773d 0070 11bb dccd cabd
00000370: c08f 48bb a8a9 d03d 22df c3bd 6a51 9cbd
00000380: 22bf a0bd 2caa dbbd a038 6abc 607a bfbb
00000390: ecc2 fabd 0ce6 773d 2e60 87bd 64b5 443d
000003a0: 0040 2bb8 7082 fe3d d840 a53c 7050 8a3c
000003b0: 300c 85bc f0d8 a6bd 0008 833c 201b 69bc
000003c0: c0bd 64bb c0c7 4d3b b847 2dbd 50bc 1c3d
000003d0: 4a97 a0bd 9c60 17bd 740d c7bd 0448 0cbd
000003e0: a00d 92bd 72b3 c4bd 50c6 c8bc 044b 26bd
000003f0: 2233 af3d 4aa6 acbd 5040 79bc 8841 55bd

base.2.bias f4 [64]
0.11456288 -0.088429235 -0.062404446 0.0039257407 0.068808556 -0.11470938 0.111382365 0.059408784
-0.04310338 0.06301048 0.029499179 -0.100565195 -0.02817049 0.0042929547 0.11826628 0.11029269
0.061050683 -0.0688928 0.033178344 0.045896344 0.0149855465 0.11650092 -0.011835363 -0.021324307
0.06513559 -0.029540753 0.05192197 0.124582805 0.057705253 -0.024378479 0.028857186 -0.053299353
0.013647775 0.02153276 -0.07228351 -0.054391004 0.021472966 -0.08439466 0.07315533 -0.03591682
0.019714713 0.0119036585 -0.0033438327 -0.032344848 -0.09702255 0.092788726 -0.000493139 -0.07945694
-0.030721745 -0.07656357 0.085888736 -0.06556105 -0.0167777 -0.034024745 -0.032168396 0.15050566
-0.07574093 0.12275136 0.103685975 -0.124343455 -0.041177362 -0.005283113 -0.012754253 0.05974975
00000000: f19f ea3d 631a b5bd ce9b 7fbd 80a3 803b
00000010: 80eb 8c3d c0ec eabd 701c e43d a056 733d
00000020: 2b8d 30bd a30b 813d 43a8 f13c 20f5 cdbd
00000030: cdc5 e6bc eaab 8c3b 9735 f23d 22e1 e13d
00000040: 4810 7a3d ab17 8dbd 04e6 073d cefd 3b3d
00000050: f085 753c 0998 ee3d 1ce9 41bc 50b0 aebc
00000060: cf65 853d 73ff f1bc 22ac 543d 4525 ff3d
00000070: 585c 6c3d 60b5 c7bc e865 ec3c 6c50 5abd
00000080: eb9a 5f3c 7865 b03c 6009 94bd 1ac9 5ebd
00000090: 13e8 af3c 1cd7 acbd 76d2 953d 841d 13bd
000000a0: c080 a13c 9007 433c 3424 5bbb 087c 04bd
000000b0: c2b3 c6bd 0408 be3d 0046 01ba 52ba a2bd
000000c0: 2bac fbbc 5ccd 9cbd 6fe6 af3d df44 86bd
000000d0: 6371 89bc 885d 0bbd 02c3 03bd 281e 1a3e
000000e0: 101e 9bbd 1165 fb3d 5059 d43d c8a7 febd
000000f0: 98a9 28bd f71d adbb 37f7 50bc 27bc 743d

mu.0.weight f4 [2, 64]
-0.024328575 -0.077561095 -0.052686825 0.08034219 -0.0105609 0.058665365 0.036022946 -0.070658386
-0.008942401 -0.11166389 0.0179033 0.07795036 -0.0018933406 -0.08826317 -0.07445067 0.060254753
-0.084822305 -0.109695725 0.08491349 0.010752931 0.0019101892 -0.017661251 -0.070269324 0.075375244
0.09339878 0.08568694 -0.11860969 0.063419424 -0.071938425 0.024542471 -0.052763894 -0.00093343854
-0.072822385 0.013104528 0.013146684 0.09092487 -0.105681315 -0.10419427 -0.101852596 -0.078167796
0.022287637 -0.10097432 -0.08754313 -0.0206362 0.04270646 0.11061959 0.056379035 0.060934234
-0.044530537 -0.105641216 0.009160256 0.0256842 -0.016796973 -0.056576997 -0.015758343 -0.082644306
0.107748166 0.09542312 -0.07302656 -0.031628966 -0.06044324 -0.011779336 0.113428466 -0.016870309
0.036265455 -0.08762408 0.07998322 0.11877076 -0.06433204 0.07090907 -0.030401155 0.021348342
0.03232807 -0.08574513 0.07990206 0.055161044 -0.015098165 -0.041044433 0.08862721 0.110899135
-0.049726725 0.14284092 0.059956014 0.07271946 0.040172 -0.0061239204 -0.08856926 0.07291561
0.028706582 0.0521018 -0.08098635 0.09916492 0.05132424 0.08797827 0.10132252 -0.12106751
0.10802186 0.046000764 -0.11490233 -0.048050076 -0.06830707 -0.096872136 -0.08397679 0.016663015
-0.041681543 0.05375968 -0.06401669 -0.02367191 -0.054428406 0.06378771 0.10894704 0.10958364
0.038278535 0.10788783 -0.021352055 -0.0035749513 0.073185 0.024217963 -0.10954192 0.10576856
0.011526035 0.14582604 -0.06690069 0.030509323 -0.10762834 0.079315044 0.046380218 -0.09292048
00000000: b84c c7bc 5ad8 9ebd 24ce 57bd 728a a43d
00000010: a007 2dbc 184b 703d cc8c 133d 58b5 90bd
00000020: 2683 12bc 0ab0 e4bd f1a9 923c 70a4 9f3d
00000030: f829 f8ba 52c3 b4bd 9879 98bd b0cd 763d
00000040: 51b7 adbd 27a8 e0bd 20e7 ad3d 102d 303c
00000050: 505f fa3a 54ae 90bc 5de9 8fbd 565e 9a3d
00000060: dc47 bf3d a27c af3d a3e9 f2bd 0be2 813d
00000070: 7454 93bd 4b0d c93c f41e 58bd 00b2 74ba
00000080: e723 95bd 60b4 563c 3065 573c d136 ba3d
00000090: 726f d8bd ce63 d5bd 1898 d0bd 7016 a0bd
000000a0: 9094 b63c a0cb cebd d049 b3bd 400d a9bc
000000b0: f8ec 2e3d 868c e23d b4ed 663d 2d96 793d
000000c0: a765 36bd 6c5a d8bd e614 163c ac67 d23c
000000d0: ce99 89bc 48bd 67bd a417 81bc 6b41 a9bd
000000e0: 12ab dc3d 326d c33d f38e 95bd 608d 01bd
000000f0: 5593 77bd 1efe 40bc 2f4d e83d 9a33 8abc
00000100: 168b 143d 4174 b3bd 3ece a33d 163e f33d
00000110: 84c0 83bd c638 913d d80b f9bc b8e2 ae3c
00000120: 706a 043d 259b afbd b1a3 a33d 8cf0 613d
00000130: 4b5e 77bc 351e 28bd 2f82 b53d 161f e33d
00000140: 40ae 4bbd e444 123e 7094 753d f1ed 943d
00000150: 658b 243d 2bab c8bb cd63 b5bd c854 953d
00000160: 112a eb3c b268 553d 2cdc a5bd fa16 cb3d
00000170: 5e39 523d f42d b43d 2e82 cf3d 3ef2 f7bd
00000180: 913a dd3d 4c6b 3c3d ea51 ebbd 28d0 44bd
00000190: 94e4 8bbd e664 c6bd 06fc abbd e080 883c
000001a0: 44ba 2abd 1c33 5c3d 2f1b 83bd 98eb c1bc
000001b0: 52f0 5ebd 22a3 823d a01f df3d 636d e03d
000001c0: f4c9 1c3d 4bf4 dc3d 81ea aebc bb49 6abb
000001d0: 04e2 953d c064 c63c 8457 e0bd 309d d83d
000001e0: b2d7 3c3c 6c53 153e 3b03 89bd b0ee f93c
000001f0: 3f6c dcbd ed6f a23d 2ff9 3d3d 184d bebd

mu.0.bias f4 [2]
0.060850687 -0.019378575
00000000: 923e 793d d1bf 9ebc

sigma.0.weight f4 [2, 64]
-0.0064344397 -0.049231 -0.04607695 -0.12278165 -0.054584995 -0.11146781 -0.09689507 0.046442494
0.07011259 -0.12648615 -0.028363077 -0.027714893 0.005868997 -0.15259223 -0.07899703 0.061204135
0.01267767 -0.20641546 -0.06986743 -0.17991398 -0.23419884 -0.108340204 0.08798717 0.013689652
-0.100204736 -0.093405835 0.08209884 -0.2111555 -0.076425396 0.05591956 0.11664103 0.016634569
-0.19934288 0.06736779 -0.07838902 0.05147696 -0.093161225 0.10528478 -0.097696654 0.06582512
0.04879582 0.005169794 -0.02024818 0.06369737 0.08653707 0.023192178 -0.12410422 -0.14567962
-0.07370067 -0.055955485 0.048541915 0.062032547 -0.0959374 0.0027900487 -0.0956525 -0.14308122
-0.017964175 -0.20163602 0.12984325 0.053220496 -0.1038395 0.027813694 -0.124081396 -0.012611305
-0.108140565 -0.040466987 0.10563534 0.06780508 0.043985203 -0.113946095 0.0116443485 -0.026168302
-0.096260995 0.038605943 -0.032425612 -0.01647693 -0.015694937 0.093845785 -0.11653738 -0.11501132
-0.081162445 -0.10173818 0.031177044 0.085482806 -0.09017094 0.013700896 0.013902339 -0.05629973
-0.052877676 -0.03851731 0.045188967 0.047575146 0.106373034 0.09883709 -0.10018946 0.0623668
0.072908536 0.05510162 0.02850832 0.031557165 -0.05696037 -0.07873374 -0.079282016 -0.094134554
0.08230464 0.10768084 -0.07910388 0.0009956509 0.022524757 -0.02823065 -0.09806642 -0.022769397
-0.025956543 0.025312614 0.054521292 -0.051727727 -0.060565125 0.008896545 -0.008942725 -0.02991109
0.0087885745 -0.119057454 0.025117163 0.046378016 -0.026950436 0.01608299 0.10976889 -0.09623332
00000000: fed7 d2bb 72a6 49bd 2fbb 3cbd f274 fbbd
00000010: 8494 5fbd 3c49 e4bd ec70 c6bd 7c3a 3e3d
00000020: 3197 8f3d 9685 01be af59 e8bc 580a e3bc
00000030: b750 c03b 2341 1cbe 32c9 a1bd 30b1 7a3d
00000040: 01b6 4f3c 935e 53be a816 8fbd 5f3b 38be
00000050: d2d1 6fbe 78e1 ddbd 9e32 b43d 904a 603c
00000060: 2438 cdbd 8f4b bfbd 7023 a83d 2639 58be
00000070: eb84 9cbd e90b 653d 7ee1 ee3d 3845 883c
00000080: 8a20 4cbe 20f8 893d 6c8a a0bd 81d9 523d
00000090: 50cb bebd 8c9f d73d 2f15 c8bd 52cf 863d
000000a0: 20de 473d 6067 a93b 83df a5bc c473 823d
000000b0: 593a b13d 86fd bd3c 5a2a febd 0a2d 15be
000000c0: 60f0 96bd 9431 65bd e3d3 463d d715 7e3d
000000d0: d47a c4bd 40d9 363b 75e5 c3bd e283 12be
000000e0: 9b29 93bc ac79 4ebe a1f5 043e bcfd 593d
000000f0: cea9 d4bd 8bd9 e33c 631e febd a69f 4ebc
00000100: cd78 ddbd b6c0 25bd 5757 d83d 64dd 8a3d
00000110: d429 343d 925c e9bd f0c7 3e3c e85e d6bc
00000120: 7c24 c5bd 4421 1e3d b8d0 04bd a0fa 86bc
00000130: ab92 80bc 3832 c03d 26ab eebd 0e8b ebbd
00000140: 7f38 a6bd 1b5c d0bd 0067 ff3c 9c11 af3d
00000150: 8bab b8bd b979 603c a3c6 633c 8c9a 66bd
00000160: 4396 58bd 54c4 1dbd 1118 393d 28de 423d
00000170: 1bda d93d 1a6b ca3d 2230 cdbd 5474 7f3d
00000180: 1251 953d 3cb2 613d 488a e93c 1642 013d
00000190: 474f 69bd 283f a1bd 9c5e a2bd 9ec9 c0bd
000001a0: 568f a83d c687 dc3d 3701 a2bd 8080 823a
000001b0: d785 b83c f743 e7bc 0cd7 c8bd e386 babc
000001c0: d1a2 d4bc 665c cf3c b851 5f3d 74e0 53bd
000001d0: 2313 78bd d0c2 113c 8284 12bc 1a08 f5bc
000001e0: f4fd 0f3c 65d4 f3bd 82c2 cd3c e0f6 3d3d
000001f0: 29c7 dcbc 7ac0 833c 83ce e03d fa15 c5bd

sigma.0.bias f4 [2]
0.0020813325 0.06350799
00000000: f766 083b 7a10 823d

critic.weight f4 [1, 64]
-0.06895958 -0.07656456 0.066817775 -0.12298556 -0.016911626 0.011681572 -0.09102014 -0.088747084
-0.0005475485 0.07465763 0.09120887 0.042777643 0.0010123212 -0.0679236 -0.12984735 -0.12181997
0.0057036313 -0.020755358 -0.009159744 -0.11029632 0.14891154 0.030480478 -0.06476516 -0.032300472
0.038905453 -0.008412344 0.021561146 -0.12443562 0.09614389 -0.0041076345 -0.04697883 -0.03134939
-0.11202906 -0.0777957 -0.009535834 -0.103129156 -0.05700103 -0.07921067 -0.06243779 0.08956961
0.07039513 0.05145046 0.12967102 0.055415884 -0.18299833 0.0989082 0.031400204 0.15578716
-0.04868663 -0.021031216 -0.06743604 -0.12891112 -0.1420128 0.10586336 0.030209523 0.03335838
0.110611245 0.013128434 -0.034685925 0.055470347 0.020447364 -0.025074027 0.044963535 -0.08589392
00000000: ae3a 8dbd e1cd 9cbd c2d7 883d dadf fbbd
00000010: 408a 8abc 1064 3f3c c468 babd 08c1 b5bd
00000020: 5c89 0fba 19e6 983d b7cb ba3d 9c37 2f3d
00000030: ddaf 843a 871b 8bbd b4f6 04be c07c f9bd
00000040: 87e5 ba3b 2407 aabc c012 16bc 09e3 e1bd
00000050: 447c 183e 32b2 f93c 99a3 84bd 804d 04bd
00000060: 535b 1f3d eed3 09bc 00a1 b03c 1ad8 febd
00000070: 16e7 c43d 5699 86bb e06c 40bd 3868 00bd
00000080: 7e6f e5bd 5a53 9fbd 303c 1cbc 6135 d3bd
00000090: e979 69bd 3439 a2bd c5be 7fbd 4670 b73d
000000a0: 522b 903d b8bd 523d 7bc8 043e c4fb 623d
000000b0: ea63 3bbe 6290 ca3d 809d 003d ab86 1f3e
000000c0: a26b 47bd a849 acbc e81b 8abd 4701 04be
000000d0: ce6b 11be e4ce d83d f679 f73c cca2 083d
000000e0: 2688 e23d a518 573c d412 0ebd e034 633d
000000f0: 3b81 a73c 0c68 cdbc af2b 383d 27e9 afbd
