playground/classic_controls/discrete/lunarlander/pg/model.pth (torch, 21831 bytes, 6 tensors)

net.0.weight f4 [64, 8]
0.005987717 -0.15867129 0.10626305 -0.31283122 -0.021082688 0.020610519 -0.073404476 -0.016952489
0.17078513 -0.00083196844 -0.17193702 -0.3900631 -0.25212914 0.027220033 -0.33347023 -0.025428917
-0.31310853 0.16108498 -0.100575775 0.022199675 -0.098396406 -0.120011464 0.28579977 -0.12696303
-0.23850913 -0.011479524 0.2768052 0.38171852 -0.24525608 0.3631507 0.15427768 0.15074104
-0.3502027 0.056038234 -0.02389382 0.3678824 -0.16605753 -0.18662979 -0.27569646 -0.21163552
-0.29615656 -0.1338756 0.04327713 0.39693937 -0.050486468 0.32113034 -0.30213687 0.011679015
0.050495062 0.2555013 -0.09360932 0.34917906 0.3469766 0.18413211 -0.08460497 0.24919213
-0.21138708 -0.32910267 -0.051347364 -0.4010479 0.11442793 0.30514237 -0.31813857 -0.05523428
-0.24490847 -0.010497294 -0.024560178 -0.42865154 0.4211417 0.28688642 -0.2918168 -0.23118672
-0.23789883 0.2757047 0.11283171 0.23596619 -0.50378895 0.10329723 0.2171494 -0.026949307
-0.019692658 0.094003014 0.06939865 -0.1637309 -0.00018542478 -0.48486167 -0.29150695 0.053869333
0.35722122 0.1979341 -0.1111007 0.36742586 -0.3267389 -0.3542425 0.28776005 -0.16993785
-0.050945614 0.00041651548 0.008612609 -0.30612463 0.44779775 0.24358584 0.26181608 0.3140342
-0.2044998 0.09518743 -0.22923812 -0.1642847 -0.07205089 0.11683516 -0.03168899 -0.33156952
0.2868185 -0.12891583 -0.31938946 0.38129535 -0.4775178 0.018919779 -0.13308072 0.05146211
-0.10531784 -0.012091546 -0.018660294 -0.21851735 -0.381511 -0.18750423 0.19695953 -0.035468843
0.2649993 0.165109 -0.40139627 -0.047035456 0.37523684 0.3528301 -0.064141616 0.07903962
0.06544866 -0.24118702 0.26845744 -0.04399421 0.36605376 0.23290487 0.23831573 0.22973937
0.067476 -0.17608769 -0.09821205 0.32948714 0.29378542 0.047448937 0.04707244 0.078460574
-0.024203658 -0.022947252 0.22026114 0.31922764 -0.18877855 -0.25227782 -0.20496647 -0.32171932
-0.17430237 0.19293974 0.09791695 -0.41480932 -0.1641776 0.026449043 0.2526604 -0.006799746
-0.10877882 0.26705498 -0.088376135 0.34281823 0.39410502 -0.077158995 -0.22684751 0.13572603
-0.29746467 -0.06805926 -0.10845866 -0.41013494 0.393206 0.17715156 0.019840345 -0.019319674
-0.08892815 0.32474822 -0.21722732 0.33021352 0.13501891 0.39581436 -0.040195875 0.086722195
-0.18385507 -0.07579958 0.37575385 0.1710348 -0.118941925 -0.22124264 -0.046705507 0.111946024
-0.11813042 0.19577664 0.27486375 0.3323956 -0.40827745 -0.071780354 0.26374212 0.33565122
0.33320037 0.12629822 -0.2176721 0.48038954 -0.24072906 -0.08398849 0.29848224 0.0064344765
-0.117447406 -0.06910726 0.06754482 0.09025975 -0.44488704 -0.03191843 -0.14867663 0.012061357
-0.19503814 -0.21355335 -0.1083956 0.35603866 0.47193903 -0.14262953 0.04778715 0.12917359
-0.19632712 0.11493524 0.31167457 0.30521455 0.28172553 -0.1506576 0.20505768 0.29533038
0.24485488 -0.16150875 0.36598775 -0.33546925 -0.40078875 0.15900196 0.33387256 0.32310566
0.075994484 -0.053388808 -0.34261206 0.17572409 0.46697313 0.41255462 0.14014171 0.08470396
00000000: 9c34 c43b ba7a 22be 71a0 d93d 6a2b a0be
00000010: 9ab5 acbc 64d7 a83c 1655 96bd f2df 8abc
00000020: 4ce2 2e3e 7518 5aba 4210 30be 5ab6 c7be
00000030: 1217 81be 8cfc de3c 9cbc aabe 4e50 d0bc
00000040: c34f a0be 76f3 243e acfa cdbd 18dc b53c
00000050: 0e84 c9bd 92c8 f5bd 5954 923e 9902 02be
00000060: bd3b 74be 9d14 3cbc 69b9 8d3e 9c70 c33e
00000070: 6924 7bbe e3ee b93e f8fa 1d3e dc5b 1a3e
00000080: c54d b3be 5988 653d f9bc c3bc 155b bc3e
00000090: fc0a 2abe e11b 3fbe 1628 8dbe fbb6 58be
000000a0: d5a1 97be af16 09be 5c43 313d a33b cb3e
000000b0: e6ca 4ebd 326b a43e afb1 9abe 5759 3f3c
000000c0: e9d3 4e3d 11d1 823e 3eb6 bfbd 99c7 b23e
000000d0: eba6 b13e 218d 3c3e 5f45 adbd 392c 7f3e
000000e0: db75 58be 2580 a8be 9d51 52bd 2656 cdbe
000000f0: 3159 ea3d 9f3b 9c3e 0fe3 a2be 573d 62bd
00000100: 49c9 7abe d8fc 2bbc 6d32 c9bc 3778 dbbe
00000110: e39f d73e c7e2 923e 0369 95be 36bc 6cbe
00000120: c09b 73be 2b29 8d3e 5014 e73d 1fa1 713e
00000130: 50f8 00bf 808d d33d 6a5c 5e3e cbc4 dcbc
00000140: 7f52 a1bc a784 c03d e120 8e3d 13a9 27be
00000150: 966e 42b9 ca3f f8be 6640 95be 17a6 5c3d
00000160: b3e5 b63e 3daf 4a3e c488 e3bd 3e1f bc3e
00000170: 524a a7be 465f b5be 4955 933e 3004 2ebe
00000180: 59ac 50bd c35f da39 e61b 0d3c 5ebc 9cbe
00000190: bf45 e53e 916e 793e c20c 863e 17c9 a03e
000001a0: 6568 51be a1f1 c23d 66bd 6abe 403a 28be
000001b0: 6b8f 93bd 4647 ef3d 50cc 01bd 7bc3 a9be
000001c0: e0d9 923e 8302 04be 0487 a3be 2539 c33e
000001d0: 377d f4be a7fd 9a3c 5046 08be efc9 523d
000001e0: e1b0 d7bd 9f1b 46bc 79dd 98bc 03c3 5fbe
000001f0: 6955 c3be 1c01 40be c2af 493e c747 11bd
00000200: fdad 873e 5512 293e d083 cdbe 40a8 40bd
00000210: 0b1f c03e 26a6 b43e ae5c 83bd 86df a13d
00000220: f209 863d bbf9 76be 4173 893e 4633 34bd
00000230: 666b bb3e 9d7e 6e3e 0a09 743e cc40 6b3e
00000240: db30 8a3d 5550 34be 6623 c9bd 8ab2 a83e
00000250: 0b6b 963e d159 423d 08cf 403d f0af a03d
00000260: c046 c6bc e0fb bbbc 238c 613e ce71 a33e
00000270: 2a4f 41be 8f2a 81be bbe2 51be 65b8 a4be
00000280: 527c 32be ff91 453e af88 c83d e361 d4be
00000290: 2c1e 28be aaab d83c b45c 813e 67d0 debb
000002a0: 6ec7 debd 6ebb 883e 8cfe b4bd df85 af3e
000002b0: 22c8 c93e 8905 9ebd b74a 68be c4fb 0a3e
000002c0: 4a4d 98be a762 8bbd 931f debd 35fd d1be
000002d0: 4c52 c93e 3867 353e 3888 a23c 4b44 9ebc
000002e0: f61f b6bd 6645 a63e d770 5ebe bf11 a93e
000002f0: 6642 0a3e 2ea8 ca3e 6ea4 24bd 689b b13d
00000300: 8144 3cbe cf3c 9bbd cf62 c03e bf23 2f3e
00000310: d397 f3bd 6e8d 62be 464e 3fbd f543 e53d
00000320: 5dee f1bd ac79 483e f1ba 8c3e c22f aa3e
00000330: be09 d1be 9401 93bd 3509 873e 7ada ab3e
00000340: 3d99 aa3e 5254 013e 6fe5 5ebe 9ef5 f53e
00000350: ae81 76be 2802 acbd aad2 983e 4dd8 d23b
00000360: 4488 f0bd 1b88 8dbd f054 8a3d 1bda b83d
00000370: 3cc8 e3be e6bc 02bd b03e 18be ff9c 453c
00000380: 14b8 47be bbad 5abe 83fe ddbd b34a b63e
00000390: fea1 f13e 7a0d 12be 75bc 433d 1546 043e
000003a0: fa09 49be 2b63 eb3d cf93 9f3e 1545 9c3e
000003b0: 543e 903e fc45 1abe a4fa 513e 8b35 973e
000003c0: 3dbb 7a3e 8d62 25be bf62 bb3e a0c2 abbe
000003d0: 2f34 cdbe 69d1 223e 58f1 aa3e 1b6e a53e
000003e0: ffa2 9b3d 39ae 5abd d96a afbe 04f1 333e
000003f0: 1a17 ef3e 5c3a d33e 4f81 0f3e 4579 ad3d

net.0.bias f4 [64]
-0.20374107 0.22383349 0.17153753 -0.060215726 0.2758104 -0.06391424 -0.3112475 0.27021495
-0.17932574 -0.15246557 -0.20282944 0.17534958 -0.18809158 0.041421324 -0.15154238 0.2168792
-0.10098843 -0.08063233 -0.19351251 -0.29066172 -0.27621293 -0.158431 -0.21548904 -0.08328561
0.1841771 -0.3361156 0.29960927 -0.16738558 -0.033009607 0.29403663 -0.09163804 -0.2370948
-0.13822305 0.07516535 -0.3039266 -0.2566241 -0.12251784 -0.028226236 0.29839507 0.251346
-0.30182317 -0.3197327 -0.32476833 0.22985941 0.102176845 0.18694642 0.09972463 0.05300417
-0.08431134 0.16092826 -0.1568231 0.111481935 0.29646617 0.33012214 -0.0151551245 -0.17462991
0.04270697 -0.090734325 0.23271133 0.041073028 0.09154008 0.32427835 -0.11696813 -0.12497068
00000000: 80a1 50be 9b34 653e 89a7 2f3e c4a4 76bd
00000010: 0537 8d3e 78e5 82bd d55b 9fbe 9d59 8a3e
00000020: 2ba1 37be ef1f 1cbe 85b2 4fbe d78e 333e
00000030: 149b 40be 68a9 293d ed2d 1bbe 9515 5e3e
00000040: 06d3 cebd 9022 a5bd 2528 46be 9dd1 94be
00000050: c86b 8dbe bc3b 22be 29a9 5cbe a591 aabd
00000060: ec98 3c3e 5817 acbe 6366 993e 2067 2bbe
00000070: 1535 07bd f88b 963e baac bbbd fbc8 72be
00000080: 588a 0dbe 4bf0 993d 449c 9bbe 3c64 83be
00000090: a2ea fabd b53a e7bc 3dc7 983e 6cb0 803e
000000a0: 9188 9abe 01b4 a3be 0948 a6be 4460 6b3e
000000b0: 1842 d13d e26e 3f3e 6d3c cc3d e71a 593d
000000c0: 6cab acbd 61ca 243e 3c96 20be a450 e43d
000000d0: 6aca 973e c505 a93e 334d 78bc 2fd2 32be
000000e0: 81ed 2e3d ebd2 b9bd e14b 6e3e 313c 283d
000000f0: 5e79 bb3d d007 a63e fd8c efbd a1f0 ffbd

net.2.weight f4 [64, 64]
-0.03777376 0.14311112 0.023440085 -0.055537052 0.104671866 0.06239203 -0.020416746 -0.0035320907
-0.09024848 0.059646755 0.10044784 0.08758172 -0.11453722 0.010853602 0.008614778 -0.068961814
-0.12387177 -0.12750065 -0.08010755 0.0075960713 0.13647704 -0.1618885 -0.038147077 -0.19027425
0.14584284 0.01641383 -0.08857506 0.07529098 0.03863571 -0.12162896 0.091388606 -0.1374856
-0.015266204 -0.094662696 0.09039587 -0.07481243 0.12393135 -0.01865534 -0.15569173 -0.062456153
-0.031378668 -0.07787676 -0.07561225 -0.018778605 -0.06521982 -0.11210369 -0.13066584 0.11823435
0.037914783 -0.10682412 -0.14539784 -0.048722662 0.11948178 -0.044500824 0.18468745 -0.17159778
0.18999659 -0.12258103 0.0105462745 0.047879443 -0.19218414 0.014980295 0.020601772 0.048109777
0.099189624 -0.016012141 -0.017189717 -0.0612114 -0.12481732 -0.10542214 -0.06717165 0.23584162
0.20624635 -0.19868378 -0.104066305 -0.115320794 -0.04519698 0.04595204 0.040673416 0.0151789095
0.12588367 -0.057138816 -0.04607889 0.050373938 -0.07967513 -0.08463961 0.11020386 0.08723768
-0.14526254 -0.0034089687 -0.11348518 0.057269208 0.010629948 0.037875168 -0.062101234 -0.056323055
-0.12722984 -0.029355284 -0.06694873 0.019690448 -0.039844356 0.0016703095 -0.09547753 -0.07562074
0.090745434 0.1015392 -0.08486066 -0.16774346 -0.08188185 0.10712357 -0.02140079 -0.16116874
-0.00995968 0.15967482 -0.023682438 -0.09884069 0.1183421 0.011841429 -0.011742253 0.07455991
-0.12588793 0.08477716 0.104712114 -0.082203634 -0.09428281 0.1655222 -0.06321258 0.055845007
-0.0825193 -0.027152257 0.03104082 0.092199 -0.06615339 -0.07426207 0.062072758 -0.14576136
-0.06590176 0.04101806 -0.025865793 0.12487058 -0.04763004 -0.01684654 0.027597168 -0.05704504
0.07556227 -0.030097209 0.13481025 0.11103649 -0.13702226 0.19812496 -0.13393241 0.22309986
-0.02522323 0.106130175 0.13381797 0.046039518 0.031248758 0.077706575 0.08771638 0.03303239
0.18755545 0.03588681 0.016672712 -0.037907623 -0.080133624 -0.10846115 0.12974893 0.01983645
-0.067955524 0.042652547 0.13091117 -0.07455428 0.10446312 -0.14480238 -0.042280674 -0.06722284
-0.07796459 0.029988272 0.22314568 0.01498101 0.109225936 -0.017598597 -0.21738541 0.05153359
0.07685437 -0.1115178 0.117085494 -0.036614873 0.1821403 -0.014463593 0.09687378 -0.06929172
-0.044874735 0.010262471 0.09631844 -0.1613324 -0.13374062 -0.00042470108 -0.02369704 0.033251964
0.036287926 0.022526795 0.0845459 -0.048417527 0.089561105 0.0061826636 -0.104800165 -0.07868247
-0.012477456 0.024923304 0.12636212 0.019722035 -0.08240801 -0.043603327 0.0015929674 -0.0033113842
0.038783584 -0.08249555 -0.08862422 -0.06379116 -0.06565301 0.036038686 -0.14119358 0.0052379942
0.115681045 -0.027683318 -0.023428146 0.118702814 0.009735213 -0.0593021 0.10687013 0.07793763
0.059022028 -0.03109993 0.028769838 0.00810548 -0.016556464 0.071512334 0.13522989 -0.01815588
-0.12774627 -0.03572343 -0.064551 0.011751172 -0.099730015 0.018564418 -0.09962002 -0.023096072
-0.17137681 0.070115976 -0.073752716 -0.00875336 -0.06178451 0.005258351 0.080235414 -0.08755259
00000000: a8b8 1abd b98b 123e 6c05 c03c d27a 63bd
00000010: 345e d63d c98e 7f3d 0541 a7bc a67a 67bb
00000020: 32d4 b8bd 2850 743d 99b7 cd3d 0b5e b33d
00000030: 7d92 eabd 4ed3 313c ff24 0d3c da3b 8dbd
00000040: 7cb0 fdbd 888f 02be 6d0f a4bd 77e8 f83b
00000050: a3c0 0b3e 19c6 25be 1c40 1cbd 41d7 42be
00000060: d357 153e 4c76 863c d766 b5bd 2832 9a3d
00000070: 7a40 1e3d 9b18 f9bd f329 bb3d 06c9 0cbe
00000080: 1a1f 7abc 84de c1bd 7821 b93d 4237 99bd
00000090: b8cf fd3d 15d3 98bc a76d 1fbe 06d2 7fbd
000000a0: eb86 00bd da7d 9fbd 98da 9abd 97d5 99bc
000000b0: f891 85bd 9f96 e5bd 44cd 05be da24 f23d
000000c0: 884c 1b3d 9bc6 dabd 2ce3 14be 6a91 47bd
000000d0: ddb2 f43d 7f46 36bd b51e 3d3e 54b7 2fbe
000000e0: 778e 423e c30b fbbd 48ca 2c3c 3c1d 443d
000000f0: ebcb 44be e96f 753c 0cc5 a83c c20e 453d
00000100: ee23 cb3d e52b 83bc 73d1 8cbc ceb8 7abd
00000110: 39a0 ffbd 90e7 d7bd 4a91 89bd 7780 713e
00000120: 3e32 533e c373 4bbe b720 d5bd 4f2d ecbd
00000130: 7820 39bd 3538 3c3d 2b99 263d f6b0 783c
00000140: a6e7 003e 640a 6abd 38bd 3cbd e754 4e3d
00000150: b72c a3bd 8857 adbd 90b2 e13d aba9 b23d
00000160: b4bf 14be 0169 5fbb eb6a e8bd 1e93 6a3d
00000170: 3c29 2e3c fe22 1b3d dd5d 7ebd 01b3 66bd
00000180: 8a48 02be 7e7a f0bc 6a1c 89bd dd4d a13c
00000190: d633 23bd 49ee da3a b989 c3bd 0cdf 9abd
000001a0: bed8 b93d c9f3 cf3d 6dcb adbd f1c4 2bbe
000001b0: acb1 a7bd 9a63 db3d b650 afbc 6b09 25be
000001c0: ed2d 23bc cc81 233e ac01 c2bc fd6c cabd
000001d0: 585d f23d 8e02 423c 9462 40bc deb2 983d
000001e0: c4e8 00be a69f ad3d 4e73 d63d 615a a8bd
000001f0: 5917 c1bd a77e 293e 9975 81bd bcbd 643d
00000200: e1ff a8bd 696e debc 5149 fe3c d4d2 bc3d
00000210: 6e7b 87bd b616 98bd 0140 7e3d 7742 15be
00000220: 80f7 86bd 8e02 283d 80e4 d3bc 26bc ff3d
00000230: b817 43bd c101 8abc 7513 e23c 0fa8 69bd
00000240: 64c0 9a3d 6c8e f6bc b30b 0a3e 1967 e33d
00000250: 904f 0cbe 45e1 4a3e 9425 09be 4a74 643e
00000260: f2a0 cebc c75a d93d 9407 093e ef93 3c3d
00000270: 65fd ff3c a024 9f3d a5a4 b33d f94c 073d
00000280: 890e 403e 0cfe 123d 3695 883c 0645 1bbd
00000290: 191d a4bd e120 debd e7dc 043e 0d80 a23c
000002a0: 442c 8bbd 70b4 2e3d 940d 063e eaaf 98bd
000002b0: c3f0 d53d 1347 14be 802e 2dbd 21ac 89bd
000002c0: e6ab 9fbd f7a9 f53c 4d80 643e e972 753c
000002d0: d9b1 df3d ef2a 90bc 489a 5ebe e314 533d
000002e0: d365 9d3d 7263 e4bd 85ca ef3d 7af9 15bd
000002f0: fd82 3a3e b5f8 6cbc c365 c63d d1e8 8dbd
00000300: 92ce 37bd ec23 283c 9a42 c53d 5234 25be
00000310: 4df3 08be 6aaa deb9 4b20 c2bc 3633 083d
00000320: a6a2 143d 1d8a b83c 6726 ad3d 7551 46bd
00000330: d06b b73d f197 ca3b 78a1 d6bd 4624 a1bd
00000340: 3e6e 4cbc f52b cc3c 1265 013e 1b90 a13c
00000350: 88c5 a8bd 6799 32bd 1ecb d03a cf03 59bb
00000360: 89db 1e3d 6df3 a8bd 9d80 b5bd f1a4 82bd
00000370: 1675 86bd 4d9d 133d 0d95 10be 7ba3 ab3b
00000380: 2fea ec3d 20c8 e2bc 62ec bfbc 761a f33d
00000390: 7180 1f3c c2e6 72bd bade da3d c49d 9f3d
000003a0: 15c1 713d 48c5 febc b9ae eb3c d9cc 043c
000003b0: 6ca1 87bc 0f75 923d b479 0a3e a4bb 94bc
000003c0: ebcf 02be bb52 12bd 5133 84bd fd87 403c
000003d0: 403f ccbd 6814 983c 9505 ccbd f933 bdbc
000003e0: 677d 2fbe f798 8f3d aa0b 97bd 416a 0fbc
000003f0: c111 7dbd 3f4e ac3b 7752 a43d c64e b3bd

net.2.bias f4 [64]
-0.024714697 -0.0034176686 -0.0792995 0.012216882 -0.086798154 -0.05282762 0.08720115 0.11475735
0.07435978 -0.02417876 0.05008013 0.09017049 0.036123276 -0.02963901 -0.005002416 -0.10590951
0.016310673 0.019399688 0.09265607 0.035658643 0.095104516 -0.103311785 -0.026294058 0.020449944
0.036537096 0.07427281 0.0866558 0.000340748 -0.06382722 -0.123463206 0.11175016 0.009722677
-0.054446697 0.084176555 -0.123323806 -0.07059542 0.11663088 0.10491089 0.08596945 -0.091164365
-0.10289432 0.003539643 0.054131363 -0.05846153 0.021231383 0.0883711 0.05748954 -0.06642104
-0.06411421 -0.058901843 -0.042250983 -0.11021727 -0.065759026 -0.013055819 -0.026582766 0.021335403
0.035606842 0.06372504 -0.04104018 -0.08573284 -0.020375347 0.014088587 -0.060183678 -0.10809392
00000000: 7a76 cabc f7fa 5fbb c767 a2bd 5129 483c
00000010: 3bc3 b1bd c661 58bd 8496 b23d e705 eb3d
00000020: f149 983d 8912 c6bc d320 4d3d 4eab b83d
00000030: 00f6 133d 82cd f2bc 4feb a3bb 16e7 d8bd
00000040: f69d 853c 18ec 9e3c 77c2 bd3d cc0e 123d
00000050: 28c6 c23d 2195 d3bd a366 d7bc a486 a73c
00000060: eca7 153d 581c 983d 9978 b13d 6ca6 b239
00000070: d8b7 82bd 47da fcbd 45dd e43d dd4b 1f3c
00000080: 8003 5fbd c264 ac3d 3191 fcbd 5594 90bd
00000090: 2cdc ee3d 85db d63d c010 b03d 62b4 babd
000000a0: 42ba d2bd 5bf9 673b d9b8 5d3d 5b75 6fbd
000000b0: 70ed ad3c e8fb b43d 277a 6b3d c107 88bd
000000c0: 504e 83bd 0f43 71bd 5e0f 2dbd 98b9 e1bd
000000d0: abac 86bd 13e8 55bc 1ac4 d9bc 95c7 ae3c
000000e0: 7bd8 113d 4682 823d bf19 28bd b394 afbd
000000f0: 33ea a6bc d1d3 663c 2983 76bd 5860 ddbd

net.4.weight f4 [4, 64]
-0.05294119 -0.085428074 0.16358954 -0.105067015 -0.06411778 -0.0068997336 -0.013728747 0.09648161
0.14169997 0.1274232 -0.120505564 -0.04901786 0.06816884 0.05096263 -0.026495967 0.124226704
-0.16917329 -0.025555106 0.06380715 0.043400005 0.1040286 0.078082986 0.049938533 -0.09486802
0.06530749 0.12603095 -0.0070281434 -0.09393151 -0.04540314 0.1530092 -0.008238167 0.008807865
0.09199974 -0.07753805 -0.037796125 0.113113575 -0.098510884 0.04906452 0.025343841 -0.16143338
-0.11374968 -0.03677792 0.11701203 0.081772596 -0.15679985 -0.057277087 -0.03163808 0.048616037
-0.15019499 0.08102159 -0.11054275 -0.08748551 0.14476219 0.07021788 0.008697563 -0.042410713
0.10214571 -0.04351287 -0.1364678 0.031218596 -0.124857895 0.074132755 -0.09663311 -0.07686649
0.1787628 -0.19371857 -0.017973594 -0.10068641 -0.223392 0.14414564 -0.23001218 -0.05309704
-0.018551065 -0.12380656 0.08908006 -0.17374021 0.1365196 0.1174861 0.10541984 -0.09577024
0.124838196 0.095406316 0.097475596 0.13245638 0.16350171 0.20640668 -0.10769859 -0.096481055
-0.1647615 0.18578093 -0.1587703 -0.054619633 -0.039022863 0.12019387 0.16802898 -0.07841586
-0.028228374 0.2628072 -0.17991643 -0.04876755 -0.23211463 0.07383198 -0.085441604 0.06662689
-0.053533286 -0.20823619 -0.08137408 0.015672164 -0.051089324 -0.10306061 -0.24047226 0.1419207
-0.17852657 0.05081044 0.0032633904 0.11753375 -0.043376014 -0.12309479 -0.18635227 -0.16627777
0.07376381 0.0560542 -0.087123394 0.17193326 0.07018361 0.19414334 -0.04241201 -0.11820293
0.11382285 0.22148912 -0.27600214 0.07625578 0.044519246 0.053867616 0.09130843 0.14781328
-0.21010272 -0.1752799 0.024939217 0.09662233 -0.0016875742 -0.17601918 -0.19332898 -0.05835646
0.20727392 0.108993694 0.16015199 -0.21279223 0.068717316 -0.09037558 0.1567666 0.27495164
0.14499106 -0.25825527 -0.11154625 0.0748843 0.1123354 -0.21072249 -0.026197238 -0.09380186
0.04403155 -0.16383588 -0.1266068 -0.2520766 0.11032462 0.13602085 0.18407208 0.123025544
0.05424876 0.04234743 -0.117818244 -0.069451705 0.19602387 0.068688944 -0.07968208 -0.20273288
0.07671629 -0.037408236 0.22638905 -0.16319011 -0.20405765 0.028222654 -0.18110448 0.15888634
-0.090805 0.08394005 0.05428187 -0.017090155 0.096121505 0.10421845 0.11936191 0.25767776
-0.19100665 0.10012774 0.12900175 0.13819848 0.16824949 -0.093707584 0.052018005 0.065914646
0.021930281 0.19390613 -0.008728614 0.08552992 0.06028379 -0.15489544 -0.04693543 -0.10331424
0.018869035 -0.11854974 -0.14979146 0.10528327 -0.15344979 -0.10571352 0.12686223 -0.11631019
0.088158526 0.1331412 0.20994444 0.14375705 -0.11375362 -0.053267453 -0.20795391 -0.007914293
0.057610225 -0.077436484 0.12401588 0.1170336 0.104276136 0.10223881 0.076575354 -0.22197925
-0.03348251 0.19607961 0.11499165 0.078411795 0.035555493 0.14211728 0.20735015 -0.015523538
-0.090721995 0.22108011 -0.21477541 0.07579311 0.18908331 0.1855071 0.22266786 -0.109549634
-0.100740016 -0.19575013 -0.06110186 -0.016767185 0.089056276 -0.24246709 -0.061322704 -0.042644437
00000000: dcd8 58bd eaf4 aebd 0484 273e 602d d7bd
00000010: 2f50 83bd 2917 e2bb 8aee 60bc 2698 c53d
00000020: cc19 113e 3a7b 023e 9fcb f6bd f4c6 48bd
00000030: 1b9c 8b3d 31be 503d 120e d9bc 926a fe3d
00000040: c33b 2dbe f158 d1bc 53ad 823d 34c4 313d
00000050: f20c d53d f9e9 9f3d 598c 4c3d 2a4a c2bd
00000060: efbf 853d 420e 013e 574c e6bb 2a5f c0bd
00000070: a5f8 39bd 72ae 1c3e 60f9 06bc dd4e 103c
00000080: 5c6a bc3d 45cc 9ebd 1cd0 1abd 17a8 e73d
00000090: 13c0 c9bd e1f7 483d e39d cf3c cb4e 25be
000000a0: 98f5 e8bd 72a4 16bd 01a4 ef3d 6478 a73d
000000b0: 2490 20be 619b 6abd ee96 01bd 9c21 473d
000000c0: b7cc 19be a6ee a53d 3d64 e2bd 9a2b b3bd
000000d0: 8a3c 143e 64ce 8f3d 3980 0e3c dbb6 2dbd
000000e0: c531 d13d 8d3a 32bd 37be 0bbe 24be ff3c
000000f0: 7fb5 ffbd ead2 973d 94e7 c5bd 2e6c 9dbd
00000100: 980d 373e 295e 46be 5c3d 93bc ad34 cebd
00000110: dfc0 64be ea9a 133e 5088 6bbe 487c 59bd
00000120: 67f8 97bc 4b8e fdbd 9b6f b63d f4e8 31be
00000130: cbcb 0b3e 8d9c f03d 5be6 d73d 3023 c4bd
00000140: 2bab ff3d 6364 c33d 49a1 c73d a5a2 073e
00000150: fe6c 273e 465c 533e 1491 dcbd dc97 c5bd
00000160: 3db7 28be 5b3d 3e3e ae94 22be d6b8 5fbd
00000170: 70d6 1fbd 3428 f63d ca0f 2c3e 7f98 a0bd
00000180: 313f e7bc aa8e 863e 033c 38be 7cc0 47bd
00000190: 75af 6dbe 3935 973d 02fc aebd ae73 883d
000001a0: b845 5bbd de3b 55be 74a7 a6bd e962 803c
000001b0: 0a43 51bd 7111 d3bd 5c3e 76be a953 113e
000001c0: abcf 36be 9c1e 503d 9bde 553b 89b5 f03d
000001d0: 0cab 31bd 1f19 fcbd 21d3 3ebe b844 2abe
000001e0: 7b11 973d 1799 653d c06d b2bd 460f 303e
000001f0: 6dbc 8f3d 83cd 463e 37b8 2dbd 6114 f2bd
00000200: f41b e93d 0bce 623e 2750 8dbe fe2b 9c3d
00000210: d059 363d 4aa4 5c3d eaff ba3d 5d5c 173e
00000220: 2b25 57be 937c 33be 544d cc3c eee1 c53d
00000230: 9831 ddba 5f3e 34be 08f8 45be 2f07 6fbd
00000240: 9d3f 543e 1638 df3d e2fe 233e 35e6 59be
00000250: aabb 8c3d d516 b9bd 6c87 203e 76c6 8c3e
00000260: 8978 143e 093a 84be 5c72 e4bd f15c 993d
00000270: 1a10 e63d a3c7 57be 979b d6bc 311b c0bd
00000280: 6d5a 343d 98c4 27be 37a5 01be 2f10 81be
00000290: e0f1 e13d 0d49 0b3e 647d 3c3e d1f4 fb3d
000002a0: f333 5e3d 8074 2d3d b14a f1bd b23c 8ebd
000002b0: 7bba 483e caac 8c3d 5c30 a3bd 3599 4fbe
000002c0: 6e1d 9d3d 6139 19bd 88d2 673e 4f1b 27be
000002d0: 7df4 50be 3233 e73c 7473 39be 1ab3 223e
000002e0: f9f7 b9bd c3e8 ab3d ab56 5e3d a700 8cbc
000002f0: 5adb c43d 7c70 d53d 0474 f43d 57ee 833e
00000300: 3f97 43be c60f cd3d 0919 043e e783 0d3e
00000310: 9849 2c3e c3e9 bfbd d510 553d 42fe 863d
00000320: 22a7 b33c 548f 463e 7602 0fbc 502a af3d
00000330: 23ec 763d e99c 1ebe 5e3f 40bd 6b96 d3bd
00000340: 3c93 9a3c 35ca f2bd ef62 19be c19e d73d
00000350: f121 1dbe 5480 d8bd 2ce8 013e 0934 eebd
00000360: 758c b43d 2b56 083e adfb 563e 0c35 133e
00000370: a8f7 e8bd f92e 5abd dff1 54be f3aa 01bc
00000380: b3f8 6b3d 0597 9ebd 0afc fd3d 50af ef3d
00000390: ba8e d53d 9562 d13d 8ad3 9c3d 874e 63be
000003a0: f524 09bd 18c9 483e be80 eb3d 5d96 a03d
000003b0: a3a2 113d 3187 113e 9953 543e 7056 7ebc
000003c0: 74cc b9bd d362 623e 16ee 5bbe 6b39 9b3d
000003d0: 0e9f 413e 93f5 3d3e 0b03 643e 8f5b e0bd
000003e0: c850 cebd b972 48be f245 7abd 565b 89bc
000003f0: 2363 b63d 4b49 78be 842d 7bbd efab 2ebd

net.4.bias f4 [4]
-0.03809156 0.0633623 -0.07898124 0.10444407
00000000: e505 1cbd 18c4 813d ebc0 a1bd c6e6 d53d
