playground/custom/trenv/pg/model.pth (torch, 15227 bytes, 8 tensors)

_net.0.weight f4 [32, 30]
000000 94 a8 29 bd 91 df 3b be ea 6d 64 be 0f 40 fc bb
       -0.041420534 -0.18347003 -0.22307554 -0.007698066
000010 3d 98 1d 3e bc a1 0d 3e e7 12 35 be a3 f5 6d be
       0.15390106 0.13831228 -0.17682992 -0.23238234
000020 01 c9 e2 3d 8d 24 b9 bd 3d d2 b6 3d 88 a6 91 3d
       0.11073495 -0.09040175 0.089268185 0.071118414
000030 1c fa bc bc 2e 1c b2 bc c6 58 30 be 70 1f 80 3d
       -0.02306848 -0.021741953 -0.17221364 0.06255996
000040 bf cd 4f 3d d7 49 c1 3d f2 e6 36 bd 83 22 99 bd
       0.050733324 0.09437912 -0.04465384 -0.07477286
000050 21 aa 82 bc 6f dd 80 3d 90 5f cc 3d 62 5e c7 bd
       -0.015950264 0.06292235 0.099791646 -0.09734799
000060 63 29 57 3e 5b f4 65 bd ba 5d 5b be 45 78 19 be
       0.21011882 -0.05614124 -0.21422473 -0.14987285
000070 e7 c5 97 bd dd 0d 1a 3e 67 0b a0 3d 6d dd 36 3e
       -0.07410794 0.15044351 0.07814675 0.17857905
000080 1b 1f 29 3d f0 59 14 3e 89 7e 57 be 54 73 ee 3d
       0.04128943 0.14487433 -0.21044363 0.11643091
000090 c5 d3 7d 3d 0f cc cb bc 2b 94 06 be 7a 1b 66 bc
       0.061969537 -0.024877576 -0.13142459 -0.014044637
0000a0 ee 07 05 bd 6a 88 3f be 78 56 36 bd 64 d4 0e 3e
       -0.032478265 -0.18704382 -0.044516057 0.13948208
0000b0 b3 8e d5 bd 33 1e 59 be 34 27 17 3e 8f 28 9e 3d
       -0.10427608 -0.21202926 0.14761049 0.0772258
0000c0 fd 62 b9 bd e2 a9 f8 3c 35 b4 83 bd 35 dc 1b 3e
       -0.09052084 0.030354444 -0.06430856 0.15220721
0000d0 be 52 55 3e a4 57 88 bd 4f 9d b4 bc c0 0b 1e 3e
       0.20832345 -0.06657341 -0.022047667 0.1543417
0000e0 e7 25 b5 3d 84 d8 66 bd 49 01 e9 3c c8 30 42 bd
       0.0884512 -0.05635883 0.028442996 -0.047409803
0000f0 84 7b 4b 3d 3e 5a 70 be f4 e1 3b be 6b c7 f6 bc
       0.04967834 -0.23471925 -0.18347913 -0.030124387
000100 90 14 23 3e d2 0b 40 3b 5d 49 ea 3c 8d b0 f0 bd
       0.15925813 0.002930392 0.028599435 -0.117524244
000110 08 5f 23 be 79 cf fd 3c 53 d9 86 bd 10 4f 7c be
       -0.1595422 0.03098272 -0.0658442 -0.24639535
000120 25 13 be bd 27 5f 80 bc 0d 92 09 3e 65 bd de 3d
       -0.09280995 -0.015670372 0.1343462 0.10875968
000130 ba 60 2f be 03 17 50 3e 52 28 7b be 0c 23 c5 bd
       -0.17126742 0.20321278 -0.245271 -0.09625825
000140 4b 2e ae 3d fe 8e 35 be c8 4b 56 3d ff 6d 12 be
       0.085049234 -0.17730328 0.052318364 -0.14299773
000150 4d 9e 8f bc d0 d4 8a 3d 69 ba a0 3c 21 f4 dd 3d
       -0.017531538 0.06778872 0.019620137 0.108375795
000160 6d c1 02 bd c1 87 2e 3d d8 db ee 3c 10 3b 99 3d
       -0.031922746 0.042609934 0.029157564 0.074819684
000170 0d 5f f7 bd 3b 6d d9 3c 87 7e 12 3d dc 83 33 be
       -0.120786764 0.026541343 0.035765197 -0.17530769
000180 bb 28 8a 3e 9c 37 1d bd 7a a5 8e 3e bf 1a 40 3e
       0.269842 -0.03838311 0.27860624 0.18760203
000190 33 c3 20 3e ed 2c c9 bd 6f a9 03 be 9b 48 7c bc
       0.15699463 -0.09823022 -0.12857603 -0.01539817
0001a0 3a 9b e3 bb 2e 71 91 be 32 ee a5 3d 42 c3 29 be
       -0.0069459947 -0.28406662 0.08102073 -0.16578391
0001b0 3b 6f 2d bd 78 3c 53 be 15 7c 19 be b9 47 7e 3e
       -0.042342406 -0.20628536 -0.1498874 0.24832048
0001c0 63 b2 05 3e 11 c8 56 bd 14 0d 86 bb ac 1c ba bc
       0.1305633 -0.052436892 -0.0040909145 -0.02271875
0001d0 da c3 33 3e 72 bd b5 bc 7e 3c 5a 3d 1d 5a 8a bd
       0.1755518 -0.022185061 0.053280346 -0.06755469
0001e0 d4 03 da 3d 36 95 af bd f1 01 0e 3e a4 8b a9 bd
       0.106452614 -0.085733816 0.13867928 -0.082785875
0001f0 42 d5 fe 3c dc f3 7e 3e 07 1d 52 be a3 c3 06 be
       0.031107549 0.24897712 -0.20518886 -0.13160567
000200 e5 a9 0e be a9 7b e4 3c c6 09 91 3c 83 4e 04 be
       -0.13931997 0.027890997 0.017704856 -0.12920575
000210 20 62 6b bd 8e 52 60 be 8a 89 de bd 44 e0 67 3e
       -0.057466626 -0.21906492 -0.10866077 0.22644144
000220 4c 1c 23 be e6 65 9d 3b e4 34 b5 bd 4f 40 d1 39
       -0.15928763 0.004803407 -0.08847979 0.000399115
000230 75 0b 49 3d 11 44 c6 bd e6 f6 1b be 4c 29 46 be
       0.049083192 -0.096809514 -0.15230903 -0.19351691
000240 16 51 6c bc 45 f6 4a be eb 8e 55 bd 1a 3b cd 3d
       -0.014423629 -0.19820507 -0.05213825 0.10021038
000250 ae 2b a3 3d 7e cd 0f 3d b9 68 48 be 16 f9 ec 3d
       0.079673156 0.035108082 -0.19571199 0.11570947
000260 9f 62 12 bc f6 f7 1b 3e 46 fd 9f bd a7 f5 04 be
       -0.008934646 0.15231308 -0.0781198 -0.12984334
000270 2e 84 7a 3e 59 77 be 3d df cd 89 3e d1 e1 a0 3d
       0.24464485 0.093001075 0.2691488 0.07855571
000280 79 ad da bc 81 c1 30 3d 56 a9 b8 3d b8 b6 96 3c
       -0.026694046 0.04315329 0.09016673 0.018397674
000290 cf dc b9 bd 88 4e 2b be ba cf 89 bd a4 b8 81 be
       -0.09075319 -0.16729176 -0.06729074 -0.25336182
0002a0 9a 74 55 3e 74 a8 42 be 69 9a 00 be b8 e9 ee 3d
       0.20845261 -0.19009572 -0.12558903 0.11665672
0002b0 09 7b f5 3d fd 2c ec bd af 69 7f be 59 7b 9d 3d
       0.11986358 -0.11532018 -0.24942659 0.07689542
0002c0 5f 0e 52 bd ec 11 50 3e 0d f4 3a 3d 35 8b 49 3d
       -0.051283237 0.20319337 0.0456429 0.049205024
0002d0 1b 94 ba 3d 84 da c1 3d fd 8d ba bd 70 25 97 bc
       0.0911028 0.09465507 -0.09109113 -0.018450469
0002e0 05 46 39 3e ed e9 06 3e c1 8f c3 3d a7 8e e0 3c
       0.18093117 0.13175173 0.09548903 0.027411772
0002f0 34 f7 f3 3c a0 d7 60 3e 95 7e 58 3e a6 bf f9 bd
       0.029780962 0.21957254 0.21142037 -0.12194757
000300 3f 86 8f bd 58 1d 4f be 00 3b 19 3e ae cc 59 be
       -0.07008027 -0.20226038 0.14963913 -0.21269485
000310 a5 8a eb bd f4 86 11 be 83 97 12 be 31 e6 19 3e
       -0.11501054 -0.14211637 -0.1431561 0.15029217
000320 fc cb 34 be 84 ae 09 3e 21 85 d2 3c 08 89 b2 3d
       -0.17655939 0.13445479 0.025698246 0.08717543
000330 d6 8f 08 3e dd b2 2c bd 3f 81 26 bd f6 aa bc 3d
       0.13336119 -0.042162765 -0.040650602 0.09212296
000340 eb e5 0a be 0b 9b 01 3e 05 9c fb 3c 1b d4 6e bd
       -0.13564269 0.126568 0.030714044 -0.05830775
000350 10 65 3c bd ca 8b 63 3e d4 d2 ff 3d 55 9b 64 be
       -0.04599482 0.22221294 0.12491384 -0.2232488
000360 4c 9d 9e bd af 67 c0 3d 56 19 3c 3e 42 87 15 bc
       -0.07744846 0.09394776 0.1836904 -0.009126486
000370 fb e6 de 3d 7c 1f ff bc d6 27 c7 ba 26 61 81 3d
       0.108839 -0.031142943 -0.0015194367 0.06317358
000380 c8 d3 0a 3e 54 ad e6 bd f8 35 15 3b 96 64 ca 3d
       0.1355735 -0.112635285 0.0022767764 0.098824665
000390 a7 86 aa bd 83 76 5b be 6f 15 97 bc 47 59 7f 3e
       -0.08326464 -0.21431927 -0.018442838 0.249364
0003a0 9a 74 aa bd 82 8d 46 3d 69 30 fb bc 07 57 4a be
       -0.08323021 0.048474796 -0.030662732 -0.19759761
0003b0 ae 8f 2c 3e f0 16 22 3e a9 74 e0 bd 30 34 0c be
       0.16851684 0.15829062 -0.10959751 -0.13691783
0003c0 ac 79 7c bd d0 0b ec bc bf f5 d5 3c d1 9f 25 be
       -0.061639473 -0.028814226 0.026118157 -0.16174246
0003d0 1d 1b 20 bc d2 96 c9 3d 77 24 95 bd 95 ad 46 be
       -0.009772089 0.0984322 -0.07282346 -0.19402154
0003e0 a6 8f f8 3c 14 25 fb bc b3 4b 8d bd ee 7c 86 3d
       0.030341934 -0.030657329 -0.06899204 0.06566797
0003f0 a2 54 7a bd 45 f5 dc ba e8 f5 4d be b3 14 a7 bd
       -0.06111587 -0.0016857764 -0.20113337 -0.08158245

_net.0.bias f4 [32]
000000 dd d7 67 be cc 80 cf bd 16 0d 13 be d4 51 f2 3d
       -0.22640939 -0.10131988 -0.1436046 0.11832014
000010 9a 85 7e 3d fa 7d 7a 3e e5 b9 a1 3d 63 6e 63 3e
       0.06213913 0.24462119 0.07896785 0.22210078
000020 d0 93 7f be 65 82 92 be 29 4d 0b 3d 5b b5 ed bc
       -0.2495873 -0.28615108 0.034009133 -0.029017141
000030 07 f8 12 bc e6 66 88 be 89 80 28 3e ff 37 7e 3e
       -0.008970267 -0.26641005 0.16455282 0.24826048
000040 20 e9 b9 bd 8b a0 11 be 66 be 41 3d da 23 51 be
       -0.09077668 -0.14221399 0.04730072 -0.20423833
000050 80 83 44 3e 79 a5 39 be 43 38 28 be ea dd b2 3b
       0.19190788 -0.18129529 -0.16427712 0.005458583
000060 7a 15 0b 3e d7 a7 93 bd 38 61 dd bd 4d c8 9c bd
       0.13582411 -0.07209747 -0.10809559 -0.07655392
000070 0a a0 a3 bd 14 b7 eb bc 9a f9 70 be 20 2c 34 3e
       -0.079895094 -0.028773822 -0.23532715 0.17594957

_net.2.weight f4 [32, 32]
000000 6b c0 fa 3d 86 be 84 3e 71 6d 54 3d 32 0c b2 3d
       0.12243732 0.25926608 0.051862184 0.08693732
000010 bd 2b 69 be 4e bb e5 bd c6 45 1b be 33 fa 4a be
       -0.22770591 -0.11217366 -0.15163335 -0.19822006
000020 ce e6 17 3e 16 fb 04 bb 9d c3 1f be c8 f2 8e bd
       0.14834139 -0.002029126 -0.15601964 -0.069799006
000030 a7 6b 57 bd d0 9a 02 bd 8b eb 21 3d 05 1a 8a 3d
       -0.0525929 -0.031885922 0.039531272 0.06743244
000040 b6 99 5a 3e fc 99 10 3e 89 3b 8b be 38 3c 6b 3d
       0.21347699 0.1412124 -0.2719386 0.057430476
000050 bc 04 42 be 08 a1 55 3d 9e be 2f 3e fd 6f 6f bc
       -0.18947119 0.052155524 0.17162558 -0.014614102
000060 f4 a6 60 be e8 cb 2a bc 47 75 95 3d 04 77 08 bd
       -0.21938688 -0.010424592 0.072977595 -0.033316627
000070 ed bf 93 bb e5 af 4c 3e a8 96 90 bd 22 1b 3e be
       -0.0045089633 0.19988973 -0.070599854 -0.18565038
000080 70 cc 7a 3d 61 fc 17 be 76 38 32 bd e7 19 26 bd
       0.061230123 -0.14842369 -0.043510877 -0.040552046
000090 14 c6 7c bd 89 00 85 3e b1 e2 a5 3d f4 06 71 3d
       -0.06171234 0.2597697 0.080998786 0.05884452
0000a0 51 65 0f bd ef 83 03 bd 69 bd 0b 3d 1a 6a f0 bc
       -0.035008732 -0.032108244 0.034116182 -0.029347468
0000b0 2c e9 a5 bd 21 2f 0e be ff 55 68 3e 04 d4 88 3e
       -0.08101115 -0.13885166 0.22689055 0.26724255
0000c0 f2 b1 26 be bb 58 34 3d a0 5a 84 bd ad 8f 95 3b
       -0.16278818 0.044029932 -0.06462598 0.0045642466
0000d0 91 39 49 bd 11 03 b2 ba ac 93 77 be 32 9c aa 3d
       -0.049127165 -0.0013581236 -0.24177426 0.08330573
0000e0 10 ad 6b 3e 31 0f 82 bd 31 97 54 3d 67 ee d5 bd
       0.23015237 -0.06350554 0.051902 -0.10445862
0000f0 b2 d9 92 bc 5d 16 1b 3b 83 be df ba 14 f1 92 3e
       -0.01792607 0.0023664453 -0.0017070327 0.28699553
000100 ae 3b f0 bc db 1e d5 bd 3b 20 fd 3d 5b 30 c1 bd
       -0.029325332 -0.10406276 0.12359663 -0.09433051
000110 44 c4 05 be 93 55 52 bd 6f 43 f3 3d cb eb e8 bb
       -0.1306315 -0.05135114 0.11878096 -0.007108187
000120 c0 b5 24 be 4a 92 0a be 2c bb 24 3d 89 79 b9 bd
       -0.16084957 -0.13532367 0.040217564 -0.09056384
000130 89 ba 93 3d 85 8c 49 3d ec 85 32 3e 22 e7 a5 3d
       0.07213313 0.049206275 0.174339 0.08100726
000140 17 8d 55 3d 0a 87 b1 3d b4 3b 17 be 0b 9f 2f be
       0.052136507 0.08668335 -0.14768869 -0.17150514
000150 4d 3c 12 be c4 f1 b1 3b 50 89 0c 3e 41 35 83 bd
       -0.14280815 0.005430432 0.13724256 -0.06406642
000160 af 73 50 3e 36 ee 3c be 84 9c c7 3d 05 8e 39 3e
       0.2035663 -0.18450245 0.0974665 0.18120582
000170 32 d1 9c 3c 69 56 bf bd e5 0d bd 3d 35 75 87 bd
       0.01914272 -0.09342653 0.09231166 -0.06614152
000180 50 bf 05 be 9d 65 89 3d 63 a3 d0 3d a4 36 04 3e
       -0.13061261 0.06708834 0.101874135 0.12911469
000190 90 63 b3 3d a8 40 1b be 95 44 12 be fd fb 0e bd
       0.087592244 -0.15161383 -0.14283974 -0.034908284
0001a0 5e 53 39 be a7 ff 2a be 6d 70 49 3e f0 ce 56 bc
       -0.18098208 -0.16699086 0.19671793 -0.013110861
0001b0 6c e2 25 be 10 da a2 3d 1a a9 59 bd 69 e6 25 3e
       -0.16199654 0.07951748 -0.053139783 0.16201176
0001c0 94 3a 17 bd 9a f4 73 bd 73 6f 09 3e b4 31 2c be
       -0.0369211 -0.059559442 0.13421421 -0.16815835
0001d0 1b 82 94 3d 8e fd 12 be c3 62 0a 3e 44 41 08 be
       0.07251378 -0.14354536 0.13514237 -0.13306147
0001e0 29 52 4c bd c9 b3 27 3e 18 a7 c1 bd df 99 65 be
       -0.04988304 0.16377176 -0.09455699 -0.22421978
0001f0 a4 a1 f7 3d 53 52 40 3e 3d f4 19 bd 7d 1e c2 3d
       0.120913774 0.18781404 -0.03758644 0.094784714
000200 c4 9b 98 bd de 53 66 3c 9c 26 be 3b f0 a3 71 bd
       -0.07451585 0.014058081 0.0058029424 -0.058994234
000210 26 3e 45 3d 65 5f 05 bd 54 68 60 bd 14 52 da bd
       0.048154972 -0.03256168 -0.054786995 -0.106601864
000220 93 5f 63 3e 48 92 9a 3d fa 1a 24 bd 5b 73 e4 bd
       0.22204427 0.07547432 -0.04006479 -0.11154815
000230 d6 9e 3c 3c 0b 76 3c bb 7f 01 aa bd 34 f8 b8 3d
       0.011512479 -0.0028756883 -0.083010666 0.09031716
000240 e2 f3 b8 3d 63 25 8c bc 7c 30 ae bd a3 6d 48 3e
       0.09030892 -0.017107671 -0.085053414 0.19573073
000250 52 23 6d 3d e0 8c 0f 3e 50 65 8c 3d 94 7d f5 bc
       0.057895012 0.14018583 0.06855261 -0.029967107
000260 69 09 c6 bd d5 74 4f 3e 96 be 03 3e 3f 38 59 bc
       -0.096697636 0.20259412 0.12865672 -0.013258039
000270 42 a6 fc 3d 6b e8 05 3e 68 01 d4 bc ed e6 3d be
       0.12336399 0.13076942 -0.025879577 -0.18545122
000280 24 39 4f 3d 60 5b bb bd ab 76 94 3c ba 1f 1c 3e
       0.050591603 -0.09148288 0.018122992 0.15246478
000290 5b 71 97 3d a7 2c 75 3e 50 56 22 bd 24 8b ed bc
       0.07394668 0.23942815 -0.039633095 -0.028997011
0002a0 61 c2 44 be 52 4e 50 be 97 d9 eb 3b 60 f4 2f be
       -0.19214775 -0.20342377 0.0071975696 -0.17183065
0002b0 93 f3 29 be c0 eb a3 3d e3 07 7f 3e 6d 89 b5 3c
       -0.16596822 0.0800395 0.24905352 0.022160256
0002c0 52 32 c1 3d bf 52 72 be b7 39 4c 3d 71 dc a9 bc
       0.09433426 -0.23664378 0.04985973 -0.020734997
0002d0 19 4d eb 3c 3c 3c 10 be 14 55 3a be db 21 10 3e
       0.028723286 -0.14085478 -0.18196517 0.14075415
0002e0 58 32 3b 3e 14 63 6a bd 62 45 73 3c 1a 95 9e 3d
       0.18280923 -0.057223395 0.014848085 0.077432826
0002f0 f3 e1 df bd 09 9e 3c be ba ad 5d 3c 10 1f 93 bd
       -0.10931768 -0.1841966 0.013530189 -0.07183659
000300 5f 10 f1 bc d8 f6 c9 3d 30 1c a3 3d 2b d5 21 be
       -0.029426752 0.09861535 0.07964361 -0.15803973
000310 5f e5 95 3d 87 5a 30 be 49 7c 17 be 79 0f 73 be
       0.0731914 -0.17222033 -0.14793505 -0.23736371
000320 2c 45 49 bd af ee 51 3e 44 ca 0a be f3 73 8f bd
       -0.049138233 0.20501207 -0.1355372 -0.070045374
000330 eb 9b 7d bd 51 ae 6c 3d 30 c2 52 be a6 73 ab bc
       -0.061916273 0.05778343 -0.20581889 -0.020929169
000340 59 bd 80 3e 39 ab 34 3e 6a 0c 6a be 8a 38 05 3e
       0.2514446 0.17643441 -0.22856298 0.13009849
000350 08 23 0a 3d f6 59 34 3e a3 35 7f 3e b1 8b 80 bc
       0.033724815 0.17612442 0.24922805 -0.01569161
000360 4e ac 79 3c 5d b3 d1 3d 5a b0 4b bc 14 4d 9f bc
       0.015238835 0.10239289 -0.012432182 -0.019445933
000370 53 52 03 3d 8f 53 98 bd b7 78 03 3e 20 ee 34 3d
       0.032060932 -0.074378125 0.12839018 0.044172406
000380 96 19 8f be fb 5a 9d 3b e1 4c 50 3d 29 f1 83 3e
       -0.27949208 0.0048021055 0.050854567 0.25769928
000390 ea a8 8c ba 3f 42 5b 3e b9 c9 22 3e 7c e3 ad 3d
       -0.0010731493 0.2141199 0.15897264 0.08490655
0003a0 62 2d 70 3c 3b bd 43 3d 2d 6c e8 bd b0 62 43 3c
       0.014659258 0.047787886 -0.11348758 0.011925384
0003b0 36 d8 97 bd 05 e7 8f be db 0a 59 3e 14 2d 27 3e
       -0.07414286 -0.2810594 0.21195547 0.1632579
0003c0 3b 16 90 bd f1 ae 0c bd 84 da 03 bd 3d d1 87 be
       -0.0703549 -0.034346525 -0.032190815 -0.26526824
0003d0 0e df 58 3e c2 99 6f 3d 9e bf f3 bc f9 b1 8d 3e
       0.21178839 0.058496244 -0.029754456 0.27674845
0003e0 73 c4 1c 3e 10 5e 05 be 48 21 e7 bd 81 12 87 bd
       0.15309314 -0.13024163 -0.11285645 -0.06595326
0003f0 37 4c 8c bc b3 96 b0 3d 8e 6b 46 bd 60 5d 73 3d
       -0.017126186 0.086224936 -0.048442416 0.05941522

_net.2.bias f4 [32]
000000 19 e9 65 be d2 3f 86 3e 49 51 6c bc da 4a 72 3d
       -0.22452201 0.26220566 -0.014423677 0.059153415
000010 52 50 0c be d7 2a bd 3d 9b be 0c bd 41 3c 76 3c
       -0.13702515 0.09236687 -0.034361463 0.015029014
000020 13 33 38 be d4 3d 04 bd 3c 6f 15 3c c3 7e 21 3e
       -0.17988233 -0.032285526 0.009120759 0.15771012
000030 14 5c 18 be 76 41 52 3c 5f 72 2b be 58 8f 06 be
       -0.14878875 0.01283299 -0.16742848 -0.13140619
000040 a6 cc d6 3d 00 e7 42 be fd 60 66 bd c0 7f 98 3d
       0.10488252 -0.19033432 -0.05624484 0.074462414
000050 33 84 32 bd 8d 0c 0f bd cb 43 fa 3c 01 ed 8f 3d
       -0.043583106 -0.03492408 0.030549904 0.07027627
000060 25 80 62 3e 6e b1 2f be 39 e8 d3 3c 4c 3c 53 3e
       0.22119196 -0.17157528 0.025867568 0.2062847
000070 39 73 89 bd d0 fe 2b 3e e6 a1 07 3e bd 21 93 be
       -0.0671143 0.16796422 0.13245353 -0.28736678

_net.4.weight f4 [32, 32]
000000 f2 e9 35 3e 6c dc 39 be da 45 7e bb f7 9a 3f 3d
       0.17765024 -0.1815049 -0.003879896 0.046778645
000010 9a 98 b7 bc 73 42 e7 bd fd d2 a2 3d d0 5f b7 3d
       -0.022411633 -0.11291971 0.07950399 0.08953822
000020 f7 42 59 3e fa f9 f2 bd 66 36 ff bd 93 66 b8 bd
       0.21216951 -0.118640855 -0.124615476 -0.090039395
000030 06 6f 4d 3e 60 f2 8d bd 31 bf 01 3e 93 17 21 be
       0.20061883 -0.06930995 0.1267059 -0.15731649
000040 12 32 07 bd aa 00 0c bd f2 fe cd bc a1 93 e5 bd
       -0.033006735 -0.03418032 -0.025145981 -0.112097986
000050 15 2a 87 bd 23 46 e8 bd d2 03 d4 ba e6 05 df 3d
       -0.065998234 -0.113415025 -0.0016175455 0.10889797
000060 0e 4d 6d bd 6d 6b f9 bd 25 b8 00 3c da 54 db bd
       -0.057934813 -0.12178693 0.0078564035 -0.107095435
000070 3f ca 7d bd b4 35 df 3d e8 44 34 be 34 67 7b 3d
       -0.061960455 0.10898915 -0.1760441 0.06137772
000080 f5 56 48 be bb 23 28 3d 2c 32 89 3d b5 62 09 3e
       -0.19564421 0.0410497 0.06699023 0.1341656
000090 3d 58 5b be 8e 45 1e be 14 fb dd bd c3 1e 12 bd
       -0.21420379 -0.1545622 -0.10838905 -0.035673868
0000a0 b9 af 57 be dc 43 5e 3c c4 4b e6 bd d5 e0 a9 3d
       -0.21063127 0.013565984 -0.1124492 0.082948364
0000b0 e7 0e d5 bd 23 a9 e1 bd fc 25 ed bd ee db dc 3d
       -0.10403233 -0.110185884 -0.115795106 0.10784136
0000c0 01 77 a3 bd b7 78 45 bd 86 a4 fa 3d 79 a4 ca bd
       -0.079816826 -0.048210826 0.122384116 -0.09894652
0000d0 a6 4c 2e 3d ad 5f e1 3d 31 a2 97 3c cc 7c 48 3d
       0.042553566 0.11004577 0.018509956 0.04894714
0000e0 3d 3b 2f 3d e8 2f 26 be b7 7f 4b 3d d5 32 26 3e
       0.042781103 -0.16229212 0.049682345 0.16230328
0000f0 38 62 9a 3d b9 5a ba 3d 06 33 c3 bd 2c 22 71 be
       0.07538265 0.09099335 -0.09531216 -0.23548192
000100 23 54 17 be 44 7a 81 3e c8 b4 c7 3d 32 0e 83 bd
       -0.1477819 0.25288594 0.09751278 -0.06399192
000110 ef b0 c0 3c 37 37 0b be 1d 37 86 bd 6d d4 d4 3c
       0.023521869 -0.13595282 -0.06553481 0.025980199
000120 91 74 02 3d 2c 4b 86 3b be cd 10 3c db 9a 31 3e
       0.031849448 0.0040983167 0.008838115 0.17344229
000130 e7 a4 8b be 9b 59 c8 ba 90 8a d7 bc d3 5f 6b be
       -0.27274248 -0.0015285494 -0.026311189 -0.22985773
000140 15 a3 17 3e 7d d6 50 be 24 bc 0f ba 3a 21 a6 3d
       0.14808305 -0.20394321 -0.0005483052 0.08111806
000150 0b 59 15 be 34 4e 09 3e 09 ce 60 3d 19 d9 b3 bd
       -0.14584748 0.13408738 0.05488399 -0.087816425
000160 1a 00 37 3e 37 2f 68 be e1 98 2e be 09 e4 e5 bc
       0.17871132 -0.22674261 -0.17050506 -0.028062837
000170 71 16 56 be 4a 1f 5d bd 12 00 aa 3d 05 ab 61 be
       -0.20906998 -0.053984918 0.08300795 -0.22037895
000180 b6 25 36 bd 42 93 93 3d 5d bc af 3d 46 da a1 bd
       -0.044469558 0.072058216 0.08580849 -0.079029605
000190 c2 ec aa 3d f0 9a 1e be 1c 42 3d 3e ef a7 74 be
       0.08345939 -0.15488791 0.1848225 -0.23892187
0001a0 fd 63 b4 3d db 54 7c bd ba d1 0c 3c e4 ab 71 3d
       0.08808134 -0.061604362 0.008594925 0.05900182
0001b0 dd 3a 49 be fa ab 27 bd c9 8d e7 3c 70 41 28 be
       -0.19651361 -0.040935494 0.02826585 -0.16431212
0001c0 fb ed 3b 3e 80 69 a9 bb 7d 28 da 3d 32 f3 4d 3d
       0.18352501 -0.0051700473 0.10652254 0.050280757
0001d0 b8 bb a6 3d a9 8a 93 bc ff d1 2e 3e 25 cf 80 3d
       0.08141273 -0.018010454 0.17072295 0.0628951
0001e0 e8 57 04 bd 43 dc e0 bc 2c 30 b0 bd 7d 8a c7 3d
       -0.032310396 -0.027448779 -0.08602938 0.097432114
0001f0 59 0b ff bd 74 fb 9d 3c 62 22 a6 3d 1c 6d 25 3d
       -0.12453336 0.019284941 0.08112027 0.040387258
000200 c6 36 0e bc f0 9b fa 3d 9b 3c d8 3b d4 85 3a 3e
       -0.008680051 0.12236774 0.0065990216 0.18215114
000210 3d b3 37 bd a3 7d e6 3d 70 a3 06 be 0d 8c 6e 3c
       -0.04484867 0.11254432 -0.13148284 0.014559758
000220 ea 97 5a be 24 47 19 bd be 83 42 3e 81 33 97 3e
       -0.21347013 -0.03742136 0.18995568 0.29531482
000230 d6 10 59 be 30 f3 00 bd fc 64 2b be fb 43 cb 3c
       -0.21197829 -0.03148192 -0.16737741 0.024812689
000240 f5 a4 17 3e 6a 98 79 be be 8a ad bd 62 2d 8f 3d
       0.1480902 -0.24374548 -0.084737286 0.06991078
000250 3c cc 43 be 24 e7 1c 3e b0 95 08 be 0d 11 7e 3e
       -0.19120878 0.15322548 -0.13338351 0.24811192
000260 9d c7 29 3e 46 f3 3f 3d 86 0b c3 bd 16 66 25 3e
       0.16580053 0.046862863 -0.09523682 0.16152224
000270 89 30 8f be a8 4b 29 3d a3 62 7b bd 97 38 16 be
       -0.27966717 0.041331917 -0.061373364 -0.14670025
000280 56 11 f9 3d 67 dc 46 be 55 6f 18 be f2 d4 dd bd
       0.1216151 -0.19420014 -0.1488622 -0.10831632
000290 f9 ca 29 3e 0f 5b fa bd 9b 63 db 3c ac 31 be bc
       0.16581334 -0.12224399 0.026780894 -0.023217045
0002a0 02 3c 73 3e 17 19 10 bd 8a 22 73 bd 3e 93 de bd
       0.2375336 -0.035180178 -0.05935911 -0.10867928
0002b0 cf 0d 64 3e cd 26 c5 bd 33 ef 61 3e 93 09 17 3d
       0.22270893 -0.09626541 0.22063904 0.036874365
0002c0 55 78 72 bd 4a b9 2f bd fb da 52 bd 44 73 d0 bc
       -0.05919679 -0.042901315 -0.051478367 -0.025445588
0002d0 24 46 1c bd 72 47 6c be b3 d9 00 be 3f 1b 09 3d
       -0.03815283 -0.23074129 -0.12583046 0.03347325
0002e0 8b 7c 81 be 62 f4 28 3e 58 f9 78 3d cd dc bd 3c
       -0.2529033 0.16499475 0.060784668 0.023176575
0002f0 37 6c f7 3d 81 1a 8b be 83 d3 1d be e6 8f 73 3e
       0.12081187 -0.27168658 -0.15412717 0.23785362
000300 a4 42 f7 bd 62 63 00 3d 45 c9 e9 3d c2 51 e7 3c
       -0.120732576 0.03134478 0.11415342 0.028237227
000310 97 f2 49 be a6 e6 13 3e 4a 6e b0 3d 6b 05 90 3d
       -0.19721447 0.14443454 0.08614786 0.070322834
000320 ca 07 8a bb f7 0b 1c 3e 16 6b 04 3e 89 b1 83 3e
       -0.0042123543 0.15238939 0.12931475 0.25721386
000330 07 80 0c 3d e7 27 d5 3d eb a8 92 be 02 c1 50 bc
       0.034301784 0.104080014 -0.286445 -0.012741329
000340 87 48 d0 3d 92 40 e4 bd 5c 11 f1 bd ad cd 86 3e
       0.101700835 -0.11145128 -0.11770889 0.26328793
000350 91 b3 4b be bc f1 39 bd 3a fe 85 bd 2a ce 06 3e
       -0.19892718 -0.04539655 -0.065426305 0.13164583
000360 5b 6e 7a 3e c8 86 7f be aa 2b b4 3d a7 a2 9c 3c
       0.2445616 -0.24953759 0.08797391 0.019120527
000370 c6 0a e8 bd 43 42 43 3e 8b da 52 3d 54 b5 59 be
       -0.1133018 0.19068246 0.05147795 -0.21260577
000380 9f 28 eb 3c 2c f3 29 3e 5e b8 2b 3d 66 cf 1e bd
       0.028705893 0.16596669 0.041923873 -0.03877201
000390 f3 88 4b bd 66 59 ab 3d b1 a5 cf 3d ee b9 bd bc
       -0.04969115 0.08366661 0.10139025 -0.023159947
0003a0 ca ee 35 be c5 7b 58 bd 75 80 4a 3e 5d bc 0a 3e
       -0.17766872 -0.05285241 0.19775565 0.13548417
0003b0 32 54 65 bc 7c 9d 8e bd 3b b0 8b be a3 f6 5e be
       -0.0139971245 -0.069636315 -0.2728289 -0.21773772
0003c0 87 05 cf bc f9 ac 27 be 46 69 ff 3c 69 58 7a 3e
       -0.02527119 -0.16374578 0.031178128 0.24447788
0003d0 5b bc b7 bd e9 d6 34 bd bd 48 34 3e 9b e3 99 3d
       -0.08971473 -0.044150267 0.17605872 0.075141154
0003e0 17 96 92 3e 12 4d 4e be ec 5b a1 bc 77 5a 27 3c
       0.28630134 -0.20146587 -0.019697152 0.01021444
0003f0 1f 22 b7 3c 5a a2 09 3e 51 92 26 3a a3 91 81 be
       0.022355137 0.13440838 0.00063542003 -0.25306424

_net.4.bias f4 [32]
000000 c1 79 53 3d d3 ac d2 bc 9e 84 9c 3d aa 60 0a 3d
       0.051629785 -0.025717175 0.07642482 0.033783592
000010 dd 4f 3e 3e 51 97 73 bd a3 6f 06 bd 42 94 6b 3e
       0.18585153 -0.05947048 -0.03282131 0.23005775
000020 2c 4b 1e be 63 6c 82 3c e7 3a 8f 3e da 09 34 bd
       -0.15458363 0.015920823 0.27974626 -0.043954708
000030 49 18 f0 3d 67 10 89 be f3 84 11 3d 21 96 0f be
       0.11723382 -0.26770326 0.03552718 -0.14022113
000040 82 b9 20 be 21 f3 d0 3d 65 be 9d 3d 64 ae b3 bd
       -0.15695766 0.10202623 0.077023305 -0.08773497
000050 f6 72 8d 3c 08 07 93 3e 90 63 1a 3e 3e 9c 7b 3e
       0.017266732 0.28716302 0.15077043 0.2457132
000060 4e 58 5f be d9 10 3c 3d 71 2f b4 bc 5b 26 49 be
       -0.2181103 0.045914505 -0.021995278 -0.19643538
000070 56 76 d1 3d 22 4a 0e be 76 38 31 be b2 9f 6c be
       0.10227649 -0.13895467 -0.17306694 -0.23107794

_net.6.weight f4 [3, 32]
000000 42 25 ad 3d 95 09 7b bd 6d 59 41 be ff a6 e2 3d
       0.08454372 -0.061288435 -0.1888177 0.11067008
000010 12 54 5f be e7 b1 68 3e 8c 0a ad bd d5 49 a3 bd
       -0.21809414 0.22724114 -0.08449277 -0.07973067
000020 af 68 86 3e 90 4a 91 3d 8b 93 8b be 3f 3f bf bd
       0.26251742 0.070943 -0.27261004 -0.09338235
000030 ab 97 a3 bb ba b9 16 3e 5f b4 0a be 4a 31 8e 3e
       -0.0049924455 0.14719287 -0.13545369 0.2777198
000040 5a 0e 60 3e 04 a2 ba bc 07 88 df 3c 03 66 b1 bd
       0.21880475 -0.022782333 0.027286543 -0.08662035
000050 e6 e7 82 3d 32 c7 86 be f9 13 6d be 14 6b 34 be
       0.06391887 -0.2632385 -0.2315215 -0.17618972
000060 2a 44 5d 3e 1c 06 39 3d 2b 0e 40 3e b3 50 6c 3e
       0.21608034 0.045171842 0.18755405 0.2307766
000070 60 47 8d be cf 25 6d bc 2e ed 8e 3e 1b 18 76 3c
       -0.27593517 -0.014474346 0.2791533 0.015020396
000080 a9 9e 99 bd 99 a3 b3 3d 5c 4c b5 bd 9f b6 07 3e
       -0.07500965 0.08771438 -0.08852455 0.13253258
000090 c0 5b 1c be ba f6 61 3e 2b 19 53 be a0 a4 02 3e
       -0.15269375 0.22066775 -0.2061507 0.12758112
0000a0 14 34 a6 3c 6e c4 c0 3d a0 a3 3a 3d 6e 2e 6f be
       0.020288505 0.09412466 0.0455662 -0.23357555
0000b0 94 92 13 be 47 7b c8 3c 5a e1 16 be 30 b9 07 3e
       -0.14411384 0.024472846 -0.14734402 0.13254237
0000c0 0d be 85 bd 33 ad d2 bd b1 e2 65 be dc 13 18 3d
       -0.0653039 -0.102869414 -0.22449757 0.037128314
0000d0 7e 75 2c bd 6a 15 dc bd 05 1f 12 3c b2 a2 83 3d
       -0.042104237 -0.10746272 0.008918528 0.06427516
0000e0 bf 89 ff 3c 1f 9e 21 3d 5b bf ae 3c 82 5d fa bd
       0.031193612 0.039457437 0.02133148 -0.122248664
0000f0 59 e1 66 bd 43 f9 fb 3d f5 5f 82 bb f2 6d f8 bc
       -0.056367252 0.12303402 -0.003978724 -0.030325864
000100 33 25 18 3d 1e 5d a0 bc d3 b5 61 3e 95 f5 cf 3c
       0.03714485 -0.019575652 0.22042017 0.025385657
000110 78 a8 96 3e 6a 1e f2 bd 3c 39 04 3d c9 2d 8f 3e
       0.29425406 -0.11822207 0.032281145 0.2796462
000120 49 ba 78 be 77 14 fa 3c ff 43 82 3e f5 55 07 3e
       -0.24289812 0.030527337 0.25442502 0.13216384
000130 78 b9 48 3e d0 96 71 be 49 c3 85 3d 11 45 95 be
       0.19602 -0.23592687 0.06531388 -0.29154256
000140 74 ca 3b be 79 be fc 3d b0 47 aa 3d 84 c3 82 be
       -0.18338948 0.12341017 0.083144546 -0.25539792
000150 03 bf df 3d 23 f9 ff 3d 53 6d 92 3c f6 e9 cc 3d
       0.109251045 0.12498691 0.017874395 0.10005562
000160 61 a2 04 be 3a 1c cd bb c8 2f 92 3d de 6b 84 be
       -0.12952568 -0.0062594684 0.0713802 -0.25863546
000170 7a 26 84 3e fa 45 16 be e0 cc 0d bc 29 46 7d be
       0.25810605 -0.14675131 -0.008654803 -0.24733795

_net.6.bias f4 [3]
000000 11 54 f8 bd 03 2c 1e 3e a7 19 6a 3d
       -0.121254094 0.15446477 0.05715337
