playground/classic_controls/discrete/lunarlander/dqn/model.pth (torch, 21831 bytes, 6 tensors)

net.0.weight f4 [64, 8]
000000 b0 3e 7b 3f 39 5e a6 3d 65 3d a0 bd 3f 02 e9 bf
       0.9814253 0.0812344 -0.0782421 -1.820381
000010 70 28 d9 3e 9d 05 e2 3d da d2 0a be 33 e2 11 3e
       0.42413664 0.11036227 -0.13556996 0.14246444
000020 65 05 f0 3d 4a 16 3e 3f 27 b8 a6 3e 4d ea 9c 3f
       0.11719779 0.7425276 0.32562372 1.2259003
000030 96 6d 31 bf e1 b6 e9 bd 9e 00 81 3f 5c 22 97 3e
       -0.6930784 -0.114118345 1.0078313 0.29518402
000040 1b 68 ab be c3 99 2d c0 fd c8 84 3e cf 4a 9e 3f
       -0.33477864 -2.7125099 0.25934592 1.236658
000050 2b 3e a6 3f b6 23 f1 bd a2 3b 37 3e 66 33 46 3f
       1.2987722 -0.117743894 0.17893842 0.7742218
000060 15 27 37 3e 6d f3 17 3f c1 30 4c be 91 b9 d0 bf
       0.17886002 0.59355813 -0.19940473 -1.630663
000070 a3 f3 a3 3e 69 21 f2 b9 da 2b b3 be 0e 2e 7c bf
       0.32021818 -0.0004618273 -0.34994394 -0.98507774
000080 89 d3 26 be d3 61 f9 be f1 d8 73 3f 26 24 60 be
       -0.16291632 -0.48707446 0.952529 -0.2188879
000090 ea 23 73 bf 81 ba 86 be e8 e0 16 3f 54 b8 1a 3f
       -0.94976676 -0.26314166 0.5893693 0.6043751
0000a0 63 de db bf 32 f0 3f be d7 28 57 bf 04 b8 06 bf
       -1.7177242 -0.18743971 -0.8404669 -0.52624536
0000b0 fc d9 08 3e 1b 7a df be 4f c5 a9 3e 7d 38 89 3e
       0.13364404 -0.43647847 0.33158347 0.2680091
0000c0 cc 3f 58 bf a1 59 3d 3e 7a db 35 bf fc f9 8a bf
       -0.84472346 0.18491222 -0.7103802 -1.0857539
0000d0 58 e1 e1 3d 8f d8 bb 3f f3 ad 64 bf 26 42 99 bf
       0.11029309 1.4675463 -0.89327925 -1.1973312
0000e0 06 17 09 bf 96 de 87 3e 0a 65 8c 3f 97 a4 5a bf
       -0.53550756 0.26537007 1.0968335 -0.85407394
0000f0 97 f7 f9 3e 5a 89 82 3f 6e 24 a7 bf 3d aa b4 3d
       0.4882171 1.0198166 -1.3057992 0.08821533
000100 a5 5a 16 be 35 63 e2 bd c2 94 f9 3e 36 19 78 3d
       -0.14683016 -0.110540785 0.48746306 0.060570918
000110 f4 53 2c be eb ff f1 3f 64 c5 7d 3f 1a f3 fa be
       -0.168289 1.8906225 0.9912932 -0.49013597
000120 0c a2 93 be 80 b0 03 3e 1d ae 62 bf 1c 16 5d bf
       -0.2883457 0.12860298 -0.88546926 -0.8636186
000130 9b 73 70 bf bc 9e f9 3e 68 a5 19 3f ef f2 d3 be
       -0.939264 0.48753917 0.60018015 -0.4139628
000140 27 59 f6 be a4 48 6a bf 52 f3 e0 3f 53 29 6f bf
       -0.48114893 -0.9151709 1.7574255 -0.9342243
000150 87 02 24 bf cd b8 37 be f3 b0 d4 3d d0 d4 79 bc
       -0.64066356 -0.1794159 0.10385313 -0.015248492
000160 ff e3 e3 bc 8f 08 47 3f 55 9c 73 3d 8e 78 07 c0
       -0.027818678 0.77747434 0.05947526 -2.116733
000170 61 20 91 3e 8d 3d 66 bd 30 66 e3 be fc 1a 24 be
       0.28345016 -0.056211043 -0.444139 -0.16025919
000180 41 4e e3 3e 49 54 62 be f1 b6 c6 3e 12 a9 53 be
       0.4439564 -0.22102465 0.38811448 -0.20669964
000190 25 30 ec bf df fe 30 3f c5 3d 12 bf e8 ef 15 bf
       -1.8452193 0.691389 -0.571255 -0.5856919
0001a0 42 11 14 bf f6 2c b0 3f 4b 80 9d 3f 3d eb aa bf
       -0.57838833 1.3763721 1.2304777 -1.3353039
0001b0 59 03 d2 bf 29 70 5c be 32 58 8b 3e d6 bb b8 be
       -1.6407272 -0.2152716 0.27215725 -0.36080807
0001c0 99 2d a6 bf bb 63 84 3d a4 92 34 bf 30 10 96 be
       -1.2982665 0.064643346 -0.70536256 -0.29309225
0001d0 76 55 dd 3f fe c4 4f be 54 b6 27 bf 0f f7 00 3d
       1.7291706 -0.2028999 -0.65512586 0.031485613
0001e0 0b bb d2 be 8c 31 11 c0 50 73 52 be 0a 20 6c bf
       -0.41158327 -2.268649 -0.205518 -0.9223639
0001f0 92 b1 31 3f fb 98 d6 be ce 0a 56 bf fb cb 01 bf
       0.69411576 -0.4191359 -0.83610237 -0.50701874
000200 f2 ea 11 be 2b d3 05 3f c8 10 4e 3f 9c ae 98 3e
       -0.14249781 0.5227534 0.80494356 0.29820716
000210 d0 6f d1 3e a2 76 d2 bf 35 87 24 bc 79 b5 98 bf
       0.4090562 -1.6442454 -0.0100420015 -1.1930381
000220 35 54 69 3f 9c d2 e5 be a6 f1 68 3d 46 c2 b0 3e
       0.91144115 -0.44887245 0.05687108 0.3452322
000230 50 1d 1f bf bc 21 2c 3f 41 df 03 3f c9 0e 3d bf
       -0.621541 0.67238975 0.51512533 -0.73850685
000240 e2 e2 e8 bd 32 f5 9f bf 15 de 92 be 6b b9 8c bf
       -0.113713995 -1.2496703 -0.2868506 -1.0994085
000250 24 07 20 3f 5d 37 c6 3f fe cf 69 bd ca 4d 45 bf
       0.62510896 1.5485646 -0.057083122 -0.7707182
000260 df d2 ee be 4e 6e cf 3d f9 93 f8 3d ef f0 65 be
       -0.46645257 0.10128461 0.121375985 -0.2245519
000270 87 54 8a 3e cc 71 85 3f 1b ce 8d 3f 7b 18 b4 3d
       0.27017614 1.0425353 1.1078523 0.08793732
000280 2e 8f 2a bc c1 f6 fe 3e fc ef 56 3e 8a 37 17 3e
       -0.010410113 0.49797633 0.20989984 0.1476728
000290 2f 68 45 be 5e 3e e4 bf 68 f0 fc bf b4 f1 02 3e
       -0.19278024 -1.7831533 -1.9760866 0.12787515
0002a0 53 96 05 40 bf 74 92 3d 1e 74 ec 3e bc 80 2c be
       2.0873 0.07151174 0.4618234 -0.16845983
0002b0 5a 49 cb bf e2 4b e5 bd 7a db 4b bd 77 36 60 3d
       -1.588176 -0.11196114 -0.049769856 0.05473944
0002c0 55 87 63 bc 72 e4 a9 be a2 5d c5 b9 c0 5b f8 bf
       -0.013887246 -0.33182102 -0.0003764453 -1.9403
0002d0 be f7 8d 3e 66 1e 80 bf 63 af 0a c0 ad 2d 3b 3d
       0.27728075 -1.0009277 -2.1669548 0.045697857
0002e0 5e 22 f0 bc 2b 9b 0c 3e bd ae cf 3f 1d fd c0 bf
       -0.029313263 0.13731067 1.6225201 -1.5077244
0002f0 44 38 dd bd 71 0a 9f 3e 91 ad 81 bf 45 f4 f3 bc
       -0.108017474 0.31062654 -1.0131093 -0.029779563
000300 b1 48 72 3f 43 3e 0b 3f fb c4 cc 3f 23 f6 a1 3f
       0.9464217 0.5439188 1.5997614 1.265324
000310 7c 38 cb 3f 66 c3 b5 3f f6 df 17 3e 97 6b b7 bf
       1.5876613 1.4200256 0.14831528 -1.4329709
000320 36 ed a8 bc e0 d3 60 be 5a a1 c6 3e bf 81 1f 3e
       -0.020620923 -0.21955824 0.38794976 0.15576838
000330 9e 12 51 3f 70 c7 9a 3d 46 c3 a6 3e 46 fd be 3f
       0.8166903 0.07557571 0.32570857 1.4921043
000340 72 52 81 bf 9b 44 02 c0 bc f0 2c be b5 85 b0 bf
       -1.0103285 -2.0354373 -0.16888708 -1.3790804
000350 98 9f 95 3e 51 1d 21 3d f1 b8 95 3d 8d 35 60 3e
       0.29223323 0.0393346 0.073106654 0.21895428
000360 e3 5e 6d be 04 c5 7d 3e 5a 16 44 3e 06 be b4 bf
       -0.23180728 0.24782187 0.19149151 -1.412049
000370 c7 a4 e9 be 9e 6d fe bc f0 ad ec 3c a6 67 e0 be
       -0.45633528 -0.031058129 0.028891534 -0.43829077
000380 65 b4 c7 be 8e b3 38 bf 1c 49 47 3f f4 75 a7 bf
       -0.39004818 -0.7214898 0.7784593 -1.3082871
000390 4e d8 04 3e 5e 7d d5 3e 24 55 be bf 58 40 b6 be
       0.12973139 0.4169721 -1.4869733 -0.35595965
0003a0 0e 6f 19 be f1 82 e4 be 76 27 07 bf dc 3b f5 be
       -0.1498377 -0.4463115 -0.5279459 -0.47897232
0003b0 9d d5 db 3f e9 08 e6 3f bb 06 ba 3e 4c 2a 46 3d
       1.7174565 1.7971469 0.3633326 0.04838018
0003c0 ed 51 31 bf 35 47 3d 3e 8d e7 b7 3e 37 19 28 bf
       -0.69265634 0.18484195 0.35918847 -0.65663475
0003d0 24 70 6c bf b8 46 a7 3e 30 04 11 bd cb 6e f0 bd
       -0.92358613 0.32671142 -0.035404384 -0.11739882
0003e0 d0 43 62 3f d6 79 af be bc 34 de 3e d9 fb a1 bf
       0.88384724 -0.3427264 0.43399608 -1.2654983
0003f0 75 60 52 3e 77 d5 65 3d 94 7a 52 be 2e 1f d3 3e
       0.20544608 0.05611178 -0.20554572 0.41234726

net.0.bias f4 [64]
000000 5f f1 8a 3e b8 f5 e6 3e 65 65 04 3f af 25 ee 3d
       0.27137277 0.45109344 0.51717216 0.11628281
000010 7e a3 ac 3e ed 0d 58 be 22 e3 e3 3e 36 c4 bd bd
       0.33718485 -0.21099062 0.44509226 -0.0926594
000020 f6 6b 1a 3d 07 5d 2a 3f ce ac 31 3f b1 14 d2 3d
       0.037700616 0.665482 0.69404304 0.10257853
000030 02 22 2d 3f 62 6e 0a 3f 6b 12 34 bf 6b 39 04 3e
       0.67630017 0.5407468 -0.70340604 0.12912528
000040 0d c3 00 3f 47 46 8a 3e ff 78 17 bf 2f a4 53 3f
       0.50297624 0.27006742 -0.59169 0.826724
000050 f9 a9 a5 be 5d eb 1e 3d f9 c6 c6 3e 8a fa a9 3f
       -0.3235624 0.03879868 0.3882368 1.3279583
000060 cd ce 19 bf b7 65 10 bf 2e 6f a3 be d6 7b 2a 3e
       -0.6008118 -0.56405205 -0.3192076 0.16648802
000070 96 32 67 3f 68 7e fb 3d 0d 26 63 3f 55 9c be 3e
       0.90311563 0.122799695 0.88729936 0.37228647
000080 34 d4 fd be 8f d0 89 3f 2c 49 43 3f f5 13 8f bf
       -0.4957596 1.0766772 0.76283526 -1.1177965
000090 74 8e cc be fe 52 ac 3d 84 ef 3e 3f 7d 84 1d bf
       -0.39952433 0.08414267 0.7458422 -0.61530286
0000a0 50 cf bb 3e 57 9b 7b be b3 b6 49 3e 7f 0a 81 bb
       0.36681604 -0.24570976 0.196986 -0.003938019
0000b0 37 ac e9 3e 8c 16 01 3e 3e 81 bb be 50 14 e9 3d
       0.45639202 0.12606257 -0.3662204 0.113808274
0000c0 c3 97 04 3f 18 87 1d 3f 2e 2b a5 3f 66 cf 86 3e
       0.5179407 0.6153426 1.2903802 0.26330107
0000d0 a4 15 c5 3e c1 9d 8a 3e 0e 3b 2e 3f 90 8f d5 bd
       0.38493073 0.27073482 0.6805886 -0.10427773
0000e0 a4 f4 1f 3e d5 02 31 3f c2 4f 47 3f d0 2c c0 3d
       0.15620667 0.69144946 0.77856076 0.09383547
0000f0 60 fd a2 bd 9a b4 54 3f 62 88 84 3d 05 ca 1b bb
       -0.07958484 0.83088076 0.064713255 -0.0023771536

net.2.weight f4 [64, 64]
000000 82 ce 1f 3e d0 99 69 3e 85 9e 54 3e 84 fc ff 3e
       0.1560612 0.22812581 0.20763595 0.49997342
000010 2e e8 a8 3e 10 a1 83 be 03 54 36 3e 81 de ad be
       0.3298964 -0.25708818 0.17805485 -0.3395882
000020 89 b1 e0 3c 83 d3 40 be ef d8 bb 3e 98 12 b2 3e
       0.027428405 -0.18830685 0.36688945 0.3477981
000030 65 b0 03 3e 9b 99 27 3f e5 77 07 3f 36 b9 01 3e
       0.12860258 0.6546876 0.5291732 0.12668309
000040 e4 11 d0 3e bc e7 bb 3e 92 6a a3 be 2c b2 86 3e
       0.4063865 0.36700237 -0.31917244 0.2630781
000050 36 b6 38 3f a9 a7 87 be aa 52 0b 3f 1c bd 33 3b
       0.7215303 -0.26495102 0.5442301 0.002742595
000060 58 52 68 bf 04 ab 3c 3f e7 55 ed 3e a4 48 83 be
       -0.90750647 0.7369845 0.463546 -0.25641358
000070 d3 90 14 3e cf 8f 57 be 04 76 0a 3e c0 54 c0 be
       0.14508371 -0.21050952 0.13521582 -0.3756466
000080 35 0b e6 bf fc b8 8e 3e 39 ba 06 bf 20 a8 0f bf
       -1.797217 0.27875507 -0.52627903 -0.56115913
000090 a9 21 67 3e f1 79 93 bd dc a8 dc be 24 33 ee 3e
       0.22571434 -0.07200993 -0.4309758 0.46523392
0000a0 1d d7 09 3f 0b 17 d6 3e c7 6c 3b 3f 7a 2f 26 bf
       0.5384386 0.41814455 0.73212856 -0.64916193
0000b0 39 1f 1b 3e da 0e 48 3f f1 1d 0c bf ad 33 e7 3d
       0.15148629 0.7814766 -0.54733187 0.11289153
0000c0 43 a5 8c be 31 55 a8 3c 3d 21 1a 3f 38 db 9e 3e
       -0.27469835 0.020548435 0.6020697 0.31026626
0000d0 86 5b 06 be 9e b1 fc 3e 91 c6 83 be 44 e7 70 3d
       -0.13120851 0.4935426 -0.25737432 0.058814302
0000e0 51 6f 22 3e 5d a8 2d be cc e1 e8 3e 9a be e2 3d
       0.15862776 -0.16958757 0.4548477 0.110715106
0000f0 a4 e7 a6 be 8a ed 31 bf a7 d5 55 3e b1 6c 6f be
       -0.32598603 -0.6950308 0.20882283 -0.23381306
000100 25 88 14 bf ad 1b 88 bf 8a 1e 5d 3f 05 bd 82 3e
       -0.5802024 -1.0633446 0.86374724 0.25534835
000110 18 38 5e bc e4 c2 7c bf 22 9c 4b bf 4d e0 b1 bf
       -0.0135631785 -0.9873488 -0.79535115 -1.3896576
000120 db 14 48 c0 6b 93 51 3e 62 15 a5 bf fd 1b d0 3e
       -3.126273 0.20466392 -1.289715 0.40646353
000130 56 b9 11 c0 e5 56 ea 3d f0 25 f2 bf 72 c5 5e 3e
       -2.276937 0.11442355 -1.8917828 0.21755007
000140 2a 2b 16 3e 3f 78 98 3c 89 b3 46 c0 d3 c3 82 3e
       0.14664903 0.018612025 -3.104708 0.25540027
000150 fd d5 94 bf ec 8d cc be b7 d1 b9 bc 19 c3 ec be
       -1.1627804 -0.39952028 -0.022683008 -0.46242598
000160 d4 64 68 3f 50 a2 88 bf 5b 98 71 bf 7a 39 aa 3e
       0.9077885 -1.0674534 -0.943731 0.33246976
000170 bc f5 cd ba 16 98 05 c0 96 8c fa 3d a1 6d 01 bf
       -0.0015713493 -2.0874076 0.12233846 -0.50557905
000180 d4 6a f6 bf a5 29 13 bf 29 cd d5 bf 11 1f fc bf
       -1.9251351 -0.5748542 -1.6703235 -1.9696981
000190 14 a6 aa bf 33 cf f1 3e 62 f9 e0 bf 17 4e a0 bf
       -1.3331933 0.47228393 -1.7576106 -1.2523831
0001a0 fb d9 a7 bf dc 4c 07 3f e7 c4 5e bf 7d f2 64 3e
       -1.3113397 0.52851653 -0.870192 0.22358127
0001b0 66 aa 2c bf 2f 66 8d bf fb 9d bf 3f 4d e7 05 be
       -0.6744751 -1.1046809 1.4970087 -0.13076515
0001c0 b6 fb f1 be ac 35 a8 bf 22 a3 ed be 8c 9a 4f bf
       -0.47262353 -1.3141379 -0.46413523 -0.81095195
0001d0 8e 5f d1 3e 55 76 87 bf 3c 83 db bd a7 2c 98 3f
       0.40893215 -1.0582987 -0.1071839 1.1888627
0001e0 15 bb 5f 3f c8 6e 5e 3f 13 7b 4c 3f 7c cb 37 bf
       0.8739484 0.8688779 0.79875296 -0.7179487
0001f0 e3 06 6d bf 7d 02 cb bf 85 d9 b6 3e 84 30 30 bf
       -0.92588633 -1.5860134 0.3571283 -0.6882403
000200 67 0c 47 3d cd f2 58 3b 90 f5 0a bb c3 90 c3 bd
       0.048595812 0.0033103705 -0.0021203496 -0.095490955
000210 cd 4d 88 3c a3 17 f8 bd 54 6b 97 bd 3b 84 40 bd
       0.01663866 -0.12113883 -0.07393518 -0.047001105
000220 ce eb 8f 3d f5 82 f5 bc 25 ad 91 bd f6 ac db bd
       0.07027398 -0.029969672 -0.07113103 -0.10726349
000230 b3 7e 98 3a 9b 24 0f bd 7e a5 85 bd b5 17 0a bd
       0.0011634439 -0.03494702 -0.06525706 -0.033714015
000240 1e dc 04 bd 15 5e 09 be 45 52 da bc 02 fa 22 bd
       -0.032436483 -0.13414796 -0.026650557 -0.039789207
000250 90 1a 21 bc b3 4c d5 bd 01 50 7a 3d 43 f9 ca 3c
       -0.009832993 -0.1041502 0.061111454 0.02477706
000260 74 b2 3e 3d 96 0d 0f be 43 cd 0f 3d 16 ab 27 be
       0.046556905 -0.13970026 0.035107862 -0.16373858
000270 a7 f7 c7 3d 62 55 be bd 30 7e 54 3d 6f b6 39 be
       0.09764033 -0.09293629 0.051878154 -0.18135999
000280 52 a8 34 bd 8b 7a 08 bc f3 a9 d0 bd 7a 2e f7 bd
       -0.044105835 -0.008329998 -0.10188665 -0.120694116
000290 49 ed ed bd 71 ba ad bd 8c 0d bc bd 04 12 1a be
       -0.11617524 -0.084828265 -0.09182271 -0.15045935
0002a0 60 93 e9 3c 15 e6 b8 ba 6b ca d3 bd 9e 7a 27 3c
       0.028512657 -0.0014106656 -0.103413425 0.010222105
0002b0 d9 2a 5a 3d fd 25 ee bd 89 35 90 3b f2 ab ff bd
       0.05326352 -0.116283394 0.004400913 -0.12483968
0002c0 47 6e 8e 3c 9f 5c 00 be db 9d c3 3c 01 2b 3a 3d
       0.017386569 -0.12535332 0.023878982 0.045451168
0002d0 4b 93 10 bc d8 1b 51 bd ae 60 09 be ea 84 5c bd
       -0.00882418 -0.051051944 -0.13415787 -0.053837694
0002e0 9e 5e 34 bd ea ff b7 bd a2 7f 51 bd 55 de ba bd
       -0.044035546 -0.089843586 -0.05114711 -0.09124438
0002f0 cd 08 26 be 9f dd 84 bd 15 e7 87 bd 9e d2 3d be
       -0.16214295 -0.06487583 -0.06635872 -0.18537375
000300 30 23 d7 bc 00 fb f4 bd 9f a4 64 3d 40 32 ba bb
       -0.026261896 -0.11961937 0.055821057 -0.00568226
000310 6c 18 9a bd 00 c7 67 bb 2e 3e e3 bd 3d 93 11 bc
       -0.07524189 -0.0035366416 -0.11095844 -0.008885202
000320 75 54 96 bd b6 1c d1 3c 03 70 bf bb b8 6e b3 3c
       -0.07340328 0.025526386 -0.0058422103 0.02190338
000330 54 6e 20 be 1c d1 48 3d c2 09 ba bd f6 71 cc 3d
       -0.15667087 0.049027547 -0.090838924 0.09982674
000340 b5 73 17 be e1 7e 17 be 44 88 28 bd 65 80 b2 bd
       -0.14790232 -0.14794494 -0.041145578 -0.087158956
000350 9a 48 ce 3d 52 12 ba 3d 54 f5 f6 bc 70 2f c5 3d
       0.100724414 0.090855256 -0.030146278 0.096281886
000360 03 4a e9 3c fa 45 42 3d 24 84 b2 bd 28 5f 82 3d
       0.028477674 0.047430016 -0.0871661 0.06365806
000370 6a 4d fb bd 8c 51 22 bd 55 d7 1b bd 52 9b f0 bd
       -0.12270625 -0.03962855 -0.038047154 -0.11748375
000380 f5 d9 87 bd cf 0a 27 3d d8 86 a0 3c f0 4a 74 3d
       -0.06633369 0.040781792 0.019595549 0.05964178
000390 08 78 87 3c 62 98 b8 3d a6 6a ab bd f1 c9 80 bd
       0.016536728 0.0901344 -0.08369951 -0.06288517
0003a0 2a da c1 bd cb e9 0d be 74 44 24 ba fa 96 b3 3d
       -0.094654396 -0.13858716 -0.0006266304 0.08769031
0003b0 d7 40 93 3c a5 58 a5 bd 17 73 be 3c fc 17 ea bb
       0.017975254 -0.08073548 0.023248238 -0.0071439724
0003c0 a6 f7 ad bc f2 66 9e bd 27 6b 48 3d 7e b7 a8 3d
       -0.021236252 -0.07734479 0.048930313 0.08238123
0003d0 80 96 19 3b 62 90 8d bd ed 73 1b be 49 ec 0c bd
       0.0023435652 -0.069123045 -0.15180941 -0.034405027
0003e0 f2 c8 91 bd 20 87 22 be dd c4 b3 bd b8 53 3e 3d
       -0.071184054 -0.15871859 -0.08777783 0.04646656
0003f0 b7 39 0a 3d a0 72 94 3d d8 ad 8f bc de a5 90 bd
       0.033746447 0.072484255 -0.01753895 -0.07062887

net.2.bias f4 [64]
000000 87 51 ae 3e 18 f2 72 be 45 56 20 be 06 2c df 3c
       0.34046575 -0.23725164 -0.15657909 0.027242672
000010 27 10 9a bd c0 e8 2c 3f 49 7f 07 bf 76 ea d7 bd
       -0.07522612 0.6754265 -0.52928597 -0.10542767
000020 02 86 b5 3d e5 79 17 3e b1 a4 a2 3e 77 c7 19 3f
       0.088634506 0.14792593 0.31766275 0.60069984
000030 3e 12 ce be 2a 79 4a 3f 82 9e e4 bd 8c 3e 6f 3f
       -0.40248293 0.7909113 -0.111630455 0.93454814
000040 76 03 0e 3f 4a d2 b5 bd d7 2f a3 3e a3 3f 4e 3e
       0.5547403 -0.08878 0.31872436 0.20141463
000050 bb 6e ce bd 61 b6 22 bf 90 51 4f be f4 1b 34 be
       -0.10079714 -0.6355954 -0.20245957 -0.17588788
000060 96 60 ed bd 40 ff 08 bf 4f a6 d4 3d ff 9f 01 be
       -0.11590688 -0.5351448 0.10383283 -0.1265869
000070 29 da e8 be 2a 03 d6 3d d8 cc dc 3d 06 49 8d 3e
       -0.45478943 0.10449822 0.10781258 0.27594775
000080 fe c6 83 be 37 f5 c1 be b5 3d 2c bf 0f e2 c7 3e
       -0.25737756 -0.37882397 -0.6728166 0.39039657
000090 7c de 4c bf a9 d5 4b 3e 6c 21 84 bd 95 37 89 be
       -0.80026984 0.19905724 -0.06451687 -0.26800218
0000a0 5e 6e 34 bf 1e 49 5a bf c4 cd 2b bf 94 c7 c4 bd
       -0.70480907 -0.8526782 -0.6711085 -0.09608379
0000b0 e5 f6 0e bf 9f d7 08 bf 11 bc 10 bf 41 d1 3c bf
       -0.5584548 -0.5345401 -0.56536967 -0.73756796
0000c0 c4 28 2d 3d ec 6a 58 3e 35 39 f7 bd e3 9b ad bc
       0.042275205 0.21134537 -0.12071458 -0.021192497
0000d0 dd d5 b7 be d1 75 3d bc b2 14 aa 3e 62 a3 56 bf
       -0.35905352 -0.011563734 0.33218914 -0.8384305
0000e0 1e 0e 08 3f 4e 9e e3 3e 35 06 ef be cc b7 d7 bc
       0.5314654 0.44456714 -0.46684423 -0.026332758
0000f0 72 71 a0 be dd 89 e7 3c 20 82 b2 3e 4f 8e 1a bf
       -0.31336552 0.02826398 0.34864902 -0.60373396

net.4.weight f4 [4, 64]
000000 df 60 fc bc ab 23 00 40 12 0d f6 bb 75 6a a0 bd
       -0.03080791 2.002177 -0.0075088823 -0.07832805
000010 04 07 e3 be 95 92 c5 3f e0 79 90 bf 13 30 6d bf
       -0.4434129 1.5435358 -1.1287193 -0.9265148
000020 14 cf 99 bf c4 7a 1a 3f 00 a4 84 3f 50 4f 20 40
       -1.201632 0.60343575 1.0362549 2.5048409
000030 3f ed b7 3e cf 19 04 40 97 2a d9 3d ca 93 c8 3f
       0.35923192 2.0640752 0.106038265 1.5670102
000040 0c 49 82 3f 77 a0 94 bd fc 5d 0c 3f 98 42 84 3f
       1.0178542 -0.07257169 0.5483091 1.0332823
000050 e4 18 90 3d 27 27 eb be 74 e0 54 3f 18 6b 14 bf
       0.070359975 -0.45928308 0.8315499 -0.5797591
000060 4a 36 1e bf 91 ae 9b bf 34 05 a5 bf 72 14 e1 bd
       -0.6180159 -1.2162648 -1.2892213 -0.10990228
000070 0b cf 1c bf d8 a4 3d bf 3c ea f4 3e 64 1a 54 bf
       -0.6125342 -0.74079657 0.47834957 -0.8285277
000080 bc fc b0 bf 96 d5 85 bf ca e7 84 bf 15 ff 13 40
       -1.3827128 -1.0455806 -1.0383236 2.312444
000090 ff 19 41 bf 39 84 b1 bf c8 63 fd 3d 5a 63 b3 bf
       -0.7543029 -1.3868476 0.123725474 -1.4014695
0000a0 36 ca a9 bf 80 60 80 bf 2b cf 9c bf 3c 0c e5 3f
       -1.3264835 -1.002945 -1.2250723 1.7894359
0000b0 96 bb b4 bf 22 eb 32 bf f3 a9 6c bf 08 7e 92 bf
       -1.4119747 -0.69890034 -0.9244682 -1.1444712
0000c0 c6 aa 61 3c 08 99 a8 bf b6 7e c9 3d ae 17 bf be
       0.013773626 -1.3171701 0.09838621 -0.37322754
0000d0 fe a9 1e bf 20 f2 cd bd 4a ef d0 3f db dc 66 bf
       -0.6197814 -0.10055947 1.6323025 -0.9018075
0000e0 21 de e2 3f 7a b1 b2 3f 3e 9c 66 bf 93 ad 25 bf
       1.7724038 1.3960412 -0.90082157 -0.6471798
0000f0 76 29 88 bf fc 36 e4 bd 68 01 38 bf 16 ae 94 bf
       -1.0637653 -0.111433 -0.71877146 -1.1615627
000100 cd ca 0f 3f b9 21 15 40 ef 27 da 3d 90 40 39 bb
       0.56168824 2.3301833 0.10652148 -0.0028267242
000110 2f 68 02 3f 98 5e 99 3f 44 26 79 bf ac d6 b6 bf
       0.5094022 1.1981993 -0.97324014 -1.4284263
000120 b2 de 96 bf c9 a7 87 3f ed 3a a5 3f 9c 5b 16 40
       -1.1786711 1.0598079 1.2908608 2.3493414
000130 5e 0a ab 3f ea c7 f0 3f ba 48 a0 3d fa bb aa 3f
       1.3362539 1.8811009 0.078263715 1.3338616
000140 30 9e 88 3f a1 99 4a bd ac 11 cb 3e d6 0f 47 3f
       1.0673275 -0.04946292 0.3966192 0.7775854
000150 b5 79 76 bd 0e b0 9d bf 89 31 ce 3e 7e e1 31 bf
       -0.060174663 -1.2319353 0.40272167 -0.694847
000160 74 1b f7 be eb c8 95 bf 3b 74 2a bf c5 18 89 3d
       -0.48263133 -1.170194 -0.66583604 0.066941775
000170 fd 3f 39 bf d5 67 4f be 0c 6f c5 3e 17 e3 3c bf
       -0.72363263 -0.20254453 0.38561285 -0.7378401
000180 a9 26 cc bf 40 31 fd be 73 19 63 bf a0 71 0e 40
       -1.5949298 -0.49451637 -0.8871071 2.2256851
000190 00 6e 4a bf 51 49 8c bf 80 93 15 bd 49 ef c8 bf
       -0.79074097 -1.0959874 -0.03651762 -1.5698024
0001a0 71 57 85 bf b9 c9 9d bf af 68 bd bf 7b 73 c1 3f
       -1.041731 -1.2327186 -1.4797572 1.5113367
0001b0 cf ab 95 bf 78 0e 10 bf f4 5d 42 bf 7e 56 57 bf
       -1.1693057 -0.5627208 -0.7592461 -0.8411635
0001c0 07 d4 69 bd 5d c0 a5 bf 6b e8 da bd b1 98 2f bf
       -0.05708697 -1.294933 -0.106888615 -0.68592364
0001d0 0a 25 ce be ff fa 49 be 20 d3 0f 40 f5 f8 8e bf
       -0.40262634 -0.19724654 2.247261 -1.1169726
0001e0 b4 83 0b 40 0d 6d a7 3f f2 88 12 bf d8 1c 2f bf
       2.1799135 1.3080155 -0.5724021 -0.6840339
0001f0 6e 2a 6b bf 5c 82 46 3d 26 8a 09 bf 27 1c 56 bf
       -0.9186162 0.048464164 -0.5372642 -0.8363671
000200 b9 f3 ab bd cb 7d fa 3f a4 0b c8 bd a9 93 cf 3d
       -0.08396096 1.9569639 -0.09767845 0.10135586
000210 e9 1b d3 bf 39 19 9e 3f dd 45 9b be 03 76 9a bf
       -1.6492893 1.2351447 -0.3032674 -1.2067264
000220 7e bf 85 bf e9 9d 97 3f 6d c0 5c 3f 50 28 27 40
       -1.0449064 1.1845065 0.8623112 2.6118355
000230 53 00 69 3f 70 c0 e5 3f fe 4e ea bd 71 9f 99 3f
       0.9101612 1.7949352 -0.11440848 1.2001783
000240 52 87 85 3f 0d 23 6c bd c9 5b 89 3f c1 25 59 3f
       1.0431921 -0.057650615 1.0731136 0.8482323
000250 cc 9d 36 3d ce 85 88 bf b3 c1 76 3f 21 c4 37 bf
       0.04458408 -1.0665834 0.9638931 -0.71783644
000260 42 cf 2a bf f1 98 c8 be e1 ba 0d bf fe ba 6b 3d
       -0.667225 -0.39179185 -0.5536328 0.057551377
000270 f5 48 1b bf ba b6 0f 3f 9e 15 38 3f f9 d1 8a bf
       -0.606582 0.56138194 0.71907985 -1.0845329
000280 9f 73 dc bf 36 9e c6 bf ee 50 48 be 8b 31 19 40
       -1.7222785 -1.5517032 -0.19562122 2.3936489
000290 39 78 40 bf c5 4f 69 bf 1e d4 ac 3d d0 61 e0 bf
       -0.75183445 -0.91137344 0.08438896 -1.752985
0002a0 4e ba 94 bf 48 3e b0 bf 8a 77 95 bf e3 49 ab 3f
       -1.1619356 -1.3769007 -1.1677105 1.3381923
0002b0 5f 47 a2 bf 98 ee c2 bf ae be 3d be 1f 1d 0f bf
       -1.2678031 -1.5229063 -0.1852977 -0.5590381
0002c0 e2 24 a1 bd b7 94 97 bf 89 04 d4 3a 61 56 db 3e
       -0.07868363 -1.1842259 0.0016175668 0.4283934
0002d0 54 14 90 bf 97 45 88 3f 45 0a 94 3f b2 6c b3 bf
       -1.1256204 1.0646237 1.1565634 -1.4017546
0002e0 0b 6e ce 3f 3f 78 88 3f a4 82 89 bf b9 a2 37 be
       1.6127332 1.0661696 -1.0742993 -0.17933168
0002f0 4a 55 a0 bf 2e dd ea 3c 7f a0 ac bf 1c 27 ca bf
       -1.2526028 0.02866992 -1.348648 -1.5793185
000300 8c 89 24 bf 00 6c 0d 40 2e 4f d5 bd 2e 9b ad bd
       -0.6427238 2.2097168 -0.10415493 -0.08476864
000310 a7 71 18 bf 86 d4 a7 3f ad 86 b3 be 0a 3b e9 be
       -0.5954842 1.3111732 -0.35063687 -0.45552856
000320 ec 1c 78 bf 2c 99 7a 3f d3 25 94 3f 12 40 09 40
       -0.9691913 0.9788997 1.1574043 2.1445355
000330 76 ca 2a 3e 61 be 11 40 be 76 fa bb be 2c da 3f
       0.16678795 2.2772448 -0.0076435497 1.7044904
000340 f5 f3 70 3f ad eb f6 3c 63 00 f1 3e 49 c8 7f 3f
       0.9412225 0.030141676 0.47070608 0.99914986
000350 9f ae 9e 3d b8 bc 1e be 00 68 91 3f 52 58 1d bf
       0.0774815 -0.15501678 1.1359863 -0.6146289
000360 cf cf e3 be 5d 95 50 bf 3f e6 9b bf 7c 08 26 3d
       -0.44494483 -0.8147791 -1.217964 0.040535435
000370 04 13 71 be bb f4 dc bd f9 83 0a 3f 6a 5b ab bf
       -0.2354241 -0.10788866 0.54107624 -1.3387272
000380 3c 0d a8 bf 5d f8 9d bf 0c 57 0f bf 9d af 1f 40
       -1.3129039 -1.234142 -0.559922 2.4950936
000390 2c 63 88 bf 75 f3 ef bf c4 b9 43 3d c1 0d da bf
       -1.0655265 -1.8746172 0.04778458 -1.7035447
0003a0 e2 9d 2f bf 93 a1 92 bf e3 e7 9b bf 2a ee e8 3f
       -0.68600285 -1.1455559 -1.2180141 1.8197682
0003b0 31 79 83 bf fc 0b bf bf ec 8e a4 bf 32 af 51 bf
       -1.027136 -1.4925532 -1.2856116 -0.8190795
0003c0 ed fd 1c 3c a3 70 c5 bf fa 09 9d bd ad d1 04 bf
       0.009582025 -1.5424999 -0.076679185 -0.5188244
0003d0 43 5d 85 bf 3d 76 e2 be 20 ce 11 40 e7 76 37 bf
       -1.0419086 -0.44230834 2.2782059 -0.71665806
0003e0 b6 84 a1 3f a6 bd a2 3f 8b 52 79 bf 0f 51 45 bf
       1.2618625 1.2714126 -0.97391576 -0.7707681
0003f0 55 20 39 bf 1a b2 07 bc 3b 59 92 3e cc b4 d1 bf
       -0.7231496 -0.008282209 0.28583702 -1.63833

net.4.bias f4 [4]
000000 45 58 df 3e 42 f2 31 3f 6c 39 51 3e e6 3d 7d 3f
       0.43622032 0.6951028 0.20432061 0.98922575
