playground/classic_controls/cartpole/dqn/model.pth (torch, 11835 bytes, 8 tensors)

_network.0.weight f4 [32, 4]
000000 6c 13 a2 be 76 a6 5e be f2 9e 2c 3f 2d a0 16 3f
       -0.31655443 -0.21743187 0.6743003 0.5883816
000010 f6 31 34 3f 35 77 07 bf 4c 8c 88 bf d2 de df be
       0.70388734 -0.5291627 -1.0667815 -0.43724686
000020 1e 7e 0a be 4f 3a af 3e 89 58 30 3f 37 de ab be
       -0.13524672 0.34224173 0.68885094 -0.33567974
000030 2f 63 7c be 3c c0 c1 3e 11 21 ee be 6e 7e 80 3d
       -0.2464721 0.37841976 -0.46509603 0.062741145
000040 03 9b 2a 3f 11 62 bb bc 86 62 cd 3e e4 53 e7 3c
       0.6664278 -0.02287391 0.4011423 0.028238244
000050 88 88 5d bd 9e 14 88 bd cb e4 b3 bf 04 db 29 bf
       -0.054085284 -0.066445574 -1.4054197 -0.66349816
000060 d0 70 0f bd 14 a2 92 3e 7a bc 8f 3f a6 83 01 be
       -0.035019696 0.2863928 1.1229393 -0.12647876
000070 3b 9f b1 be 54 9e 8b 3e 1c 21 aa 3f 8b bc b0 be
       -0.34691796 0.27269232 1.3291354 -0.34518847
000080 a6 53 b3 3e ee 94 49 be 76 20 49 3e 8b e6 d9 bc
       0.35024756 -0.19685718 0.19641289 -0.02659919
000090 26 98 a9 3e 36 da 0f bf c9 41 7e bf a7 21 cb 3e
       0.33123893 -0.5619234 -0.9931913 0.39674112
0000a0 09 36 5b 3d eb ae 0e bd 20 f3 ab bf 90 c9 c5 be
       0.05351833 -0.034834784 -1.3433571 -0.38630342
0000b0 bb ac 1f 3f 28 48 aa be 41 03 7c bf a0 32 3f 3d
       0.6237294 -0.33258176 -0.98442465 0.04667914
0000c0 96 87 f8 be bc 9a 2a 3f 88 a3 34 3f 2e 4c e9 bd
       -0.48540944 0.66642356 0.7056203 -0.11391483
0000d0 c4 39 fb bd 80 35 59 3e 64 07 43 3f 55 43 e7 3e
       -0.12266877 0.21211815 0.7618315 0.45168558
0000e0 cb e3 b5 3e 18 8b 69 be 89 23 93 3e 08 5c 65 bd
       0.35525355 -0.22806966 0.2873805 -0.05599597
0000f0 d4 1d 84 be e7 3c d8 3e 66 51 00 40 63 1a 1f 3f
       -0.25804007 0.42233965 2.0049682 0.6214964
000100 c9 b4 4f bd bc e7 79 bd 11 e3 a2 3d 11 82 89 be
       -0.05070952 -0.061012015 0.07953466 -0.26857045
000110 4d 88 04 be 3e b3 2f 3e a8 e9 dc 3f 3d 1e 2d 3f
       -0.1294262 0.17158219 1.7258806 0.67624265
000120 24 25 21 be 9a a4 f6 3d a5 66 9c 3e a2 9f 64 be
       -0.15736824 0.12043114 0.30547062 -0.2232652
000130 ee c8 9e be bf 2e 32 be 4d c0 65 bf 8a e9 88 be
       -0.31012672 -0.17400645 -0.8974655 -0.26740676
000140 3c 72 39 bf ac 9d e0 be 36 aa 49 3f ad ed 3e be
       -0.7243993 -0.43870294 0.78775346 -0.18645354
000150 bf 44 11 bf e9 18 0f be 1b e7 1d 3f 7c c1 c8 3c
       -0.56745523 -0.13974346 0.61680764 0.024506323
000160 f9 4b aa 3e 6c dd b6 be 6a f5 cc bf 05 2c b6 3d
       0.33261088 -0.35715806 -1.6012394 0.08895115
000170 d3 18 b6 3e 75 82 df be 1d 1b bb bf 7a fd 1f bf
       0.35565814 -0.43654218 -1.4617649 -0.6249615
000180 a5 6b 96 3e 59 cf 0b bf 8f 03 b9 bf 11 f1 00 bf
       0.29379 -0.5461326 -1.4454211 -0.5036784
000190 32 b3 8b bd 71 cc 31 be 65 cd 7a 3e 2e 81 f1 3c
       -0.06821288 -0.17363144 0.24492414 0.029480543
0001a0 7e d0 07 3f 4b 42 84 3e da 1f af bf 7d 50 23 bf
       0.5305251 0.25831828 -1.3681595 -0.6379469
0001b0 5f 4a b0 3d 37 17 35 3f ca 59 b8 3f 38 3c 05 3f
       0.08607935 0.7073855 1.4402401 0.5204501
0001c0 db e3 a0 be c7 b6 68 3e 79 a2 82 3f 76 16 96 3e
       -0.3142384 0.22725974 1.0205833 0.2931401
0001d0 79 09 c0 3e 29 78 01 bf d0 d9 e8 be 40 36 5a 3e
       0.37507227 -0.50573975 -0.45478678 0.21309757
0001e0 5d a1 99 3d 04 1f cf be 98 f9 c0 bf bd e2 89 be
       0.07501481 -0.4045335 -1.507617 -0.269308
0001f0 36 06 84 be 95 4c 76 3e 28 1b e7 3f 19 75 ed 3e
       -0.2578599 0.24052651 1.8055162 0.463784

_network.0.bias f4 [32]
000000 d0 da 4d 3e be 61 ef be f6 7e d9 3e 8f e8 47 3f
       0.20103002 -0.4675426 0.42479676 0.7808923
000010 88 a0 00 bf ef 2d 1e be 53 96 a4 3e 65 f7 52 3e
       -0.5024495 -0.1544721 0.32145938 0.20602186
000020 05 19 fc 3e c5 e5 b4 3e 6f 91 b2 be 3e 9d 1c 3f
       0.49237838 0.3533155 -0.34876582 0.6117743
000030 4f b1 6a 3e 6a b3 25 3f 28 3c e3 3e 60 2e d7 be
       0.229192 0.6472689 0.44381833 -0.4202757
000040 0e 5b c3 3e 02 8e af be 64 78 50 3f 1f ee 26 be
       0.38155407 -0.3428803 0.814337 -0.16301773
000050 7f 21 22 be 1c 27 b8 be 27 77 da 3e b5 a9 f7 be
       -0.1583309 -0.35967338 0.4266903 -0.48371664
000060 a6 49 14 3f 3e b5 38 3f d0 43 a9 bd e8 7f aa be
       0.5792488 0.72151554 -0.08264887 -0.3330071
000070 af 9a 20 3f 94 33 4e be ed 03 82 3e c5 74 cf be
       0.6273603 -0.20136863 0.2539362 -0.40518776

_network.2.weight f4 [32, 32]
000000 b7 6f 81 be 01 c5 2d bf fd 29 66 bd be 06 6d 3e
       -0.25280544 -0.6787873 -0.056192387 0.23147103
000010 b6 dc aa be e6 bc 1d be d3 3f 04 3a 21 84 05 3e
       -0.33371514 -0.1540409 0.0005044911 0.13038684
000020 af f1 25 3e a6 1e a4 3d ad 2f d4 be 38 fe c2 3e
       0.16205476 0.08013658 -0.41442624 0.3808458
000030 c7 13 4e 3e cc 49 28 3e 66 e8 3c 3e df 6e 8a bf
       0.20124732 0.16434401 0.18448028 -1.0815085
000040 25 c0 36 3e d1 02 e2 be 5f 2a ad 3e f5 07 ea be
       0.17846735 -0.44142774 0.3382139 -0.45709196
000050 5a 27 b4 be 85 85 ca 3d 70 0e 9b 3e f8 b9 76 bf
       -0.35186273 0.09888748 0.30284452 -0.96377516
000060 3e 07 f3 bc 5a 45 12 3e 25 40 5c bc d5 33 8e bf
       -0.02966654 0.14284268 -0.013443028 -1.1109568
000070 93 2b 6d 3e 76 4d 91 be 6b f5 6c be d4 b4 43 bf
       0.23161153 -0.2837941 -0.23140495 -0.76447797
000080 39 8f c3 bc b2 d0 9c 3d ed c5 23 3c d0 27 80 bc
       -0.023872005 0.07656993 0.00999592 -0.015643984
000090 06 ba e8 3d 04 b2 22 be 9b ad 8b bd 81 11 aa bd
       0.11363606 -0.1588822 -0.06820222 -0.0830412
0000a0 a8 e1 8a bd 86 16 fb 3c ef 27 16 3e d9 c2 4e be
       -0.06781322 0.030650388 0.14663671 -0.20191516
0000b0 b0 fa 45 bd c5 20 28 be 6e 28 56 3c 56 3a a2 3d
       -0.048334777 -0.1641875 0.013071163 0.07921283
0000c0 83 4c a8 3d e2 e6 33 bd 61 85 95 bd aa f6 8e 3d
       0.082177185 -0.04392136 -0.07300831 0.06980641
0000d0 74 57 e7 3d 53 4e f3 bd 64 80 87 3d a6 8d c7 bd
       0.11295977 -0.118801735 0.066162854 -0.09743814
0000e0 a0 80 b5 3c 94 06 30 bd 6e 7f 64 bd 26 07 5d bd
       0.02215606 -0.042975023 -0.05578559 -0.053961895
0000f0 fd 87 01 be 42 f9 a5 bc 46 0a 80 3b 43 46 82 3d
       -0.12649532 -0.020260457 0.0039074747 0.063610576
000100 c7 07 7a bd 31 16 ee bd 34 df 6b 3b 97 09 44 be
       -0.061042573 -0.116253264 0.0035991194 -0.19144283
000110 2e 65 eb 3d 2d 96 24 be 53 ee 59 3d b0 84 1b be
       0.11493908 -0.16072913 0.0532058 -0.15187335
000120 e7 a8 06 be 2c 75 e0 bd c2 eb 53 bc 4f 23 88 bd
       -0.13150369 -0.10959849 -0.012934627 -0.066473596
000130 42 8a 46 3d b2 02 8a 3c fa 4f 18 be 9e f4 55 bd
       0.048471697 0.016846988 -0.14874259 -0.05223524
000140 08 59 5d be 1b 0c e4 3c 26 c6 bc 3c 00 fc b2 bd
       -0.21615994 0.027837804 0.023043703 -0.087394714
000150 71 1a 18 be 5e 43 c9 3d 30 f6 ee bd ad d4 98 3d
       -0.14853837 0.098273024 -0.1166805 0.0746244
000160 40 e3 a8 3d 48 22 f8 bb 52 37 11 bd 9b 50 21 3d
       0.082464695 -0.007572446 -0.03545315 0.039383512
000170 d6 c3 01 bd 6e 96 d9 3d 57 1f 65 3d 92 2e 35 3d
       -0.031680904 0.10624395 0.05593809 0.044233866
000180 0a 51 99 bd d5 e2 3c bf 49 4c 5c 3e 01 f1 cb 3e
       -0.0748616 -0.7378362 0.21513475 0.3983231
000190 bf 48 a4 be b7 e8 d6 be b3 23 9c 3e f1 d0 a8 3d
       -0.3208675 -0.41974422 0.30495986 0.082429774
0001a0 01 6b 0e 3e 57 d2 b1 3c 07 af c2 be 5e 5f 44 3e
       0.13908006 0.021706743 -0.3802416 0.19177005
0001b0 e6 79 a0 3e 24 1c c2 3e 2c 29 cd 3e 90 16 5a bf
       0.31343 0.37912095 0.40070474 -0.8519068
0001c0 41 20 97 3e ec 35 e7 3c 74 81 aa 3e 41 3f bd be
       0.29516795 0.028223954 0.3330189 -0.3696232
0001d0 9c 81 16 bf 9b 84 b2 3c 74 fd a5 3e 01 57 98 bf
       -0.5879152 0.021791747 0.32419932 -1.1901551
0001e0 5f 4d 44 bd 6a 22 73 3e f7 fe 73 be 65 6b 67 bf
       -0.04792535 0.23743597 -0.2382773 -0.90398246
0001f0 34 be dc 3e 33 ca de bd 1c 78 ff be 68 3a 11 bf
       0.43113863 -0.1087841 -0.49896324 -0.56729746
000200 fa 78 63 be b1 51 c9 be fc 3c 25 3e b1 13 cf 3e
       -0.22214118 -0.39320138 0.16136545 0.4044471
000210 17 1c 82 be cc 90 82 3d 38 9a 90 bd 6e c7 72 bd
       -0.25412056 0.06375274 -0.07060665 -0.059272222
000220 b7 9c 5f 3e a7 8f e3 3c dc 2f 83 be 00 1f 26 3e
       0.21837126 0.02777846 -0.2562245 0.16222763
000230 08 e9 46 3e b1 af 8f 3d 2e 02 a2 3d 3d 44 8d bf
       0.19424832 0.07015932 0.07910572 -1.103645
000240 2e ad bc 3d fc ca ac be 4a c6 92 3e 62 83 3d be
       0.09212719 -0.33748615 0.28666908 -0.1850715
000250 a2 0b 22 bf 51 13 9c 3c 89 1a 91 3e bd 16 2d bf
       -0.63299 0.01905218 0.28340557 -0.6761282
000260 da 74 82 3e 71 73 84 3e a8 c1 fb 3d 1d 32 aa bf
       0.25479776 0.25869325 0.122927964 -1.3296543
000270 86 f8 ab 3e bf 36 26 be 35 90 2f be f7 80 63 bf
       0.33588046 -0.16231821 -0.17144854 -0.8886866
000280 50 c4 34 bd b7 9a 24 3e 10 e1 b9 bc 70 23 7d 3d
       -0.04413253 0.16074644 -0.022690326 0.061801374
000290 30 a1 d2 3c 7a 24 c4 3d 84 7d 06 be 7f b0 2b be
       0.025711626 0.0957727 -0.13133818 -0.16766547
0002a0 d8 21 37 bd 0a f9 cf bd d9 8c d0 bd 68 60 cd 3c
       -0.04471001 -0.10154922 -0.101831146 0.025070384
0002b0 9e 03 e0 bd ba 1f 17 be 0c d5 59 bd 70 f9 78 bc
       -0.1093819 -0.14758196 -0.053181693 -0.015196189
0002c0 40 ba 10 be 00 15 22 bd c0 51 59 bb 38 3b da 3c
       -0.14133549 -0.03957081 -0.00331603 0.026639566
0002d0 0d 17 97 bd 36 62 f1 3d 20 be 13 3d 6c c8 87 3d
       -0.073774435 0.117863104 0.03606999 0.06630024
0002e0 e0 77 c4 3c cc d3 2e be c0 5e b4 bc 7e 8c 26 be
       0.023982942 -0.17072982 -0.022017837 -0.16264531
0002f0 0f c3 04 be 8e bd ed 3d 82 f9 9d 3d 26 26 a1 3d
       -0.12965034 0.1160842 0.077136055 0.07868604
000300 89 2d b3 bd f3 b5 cf be 4b f9 31 3c c7 3b 56 3e
       -0.087489195 -0.40568504 0.010862659 0.20921241
000310 0d 13 80 be 08 05 59 3e cd ef cb 3d 66 94 ec 3d
       -0.25014535 0.21193326 0.09957848 0.11551742
000320 01 1d 2b 3e b4 24 cd 3c 2e 16 27 3a 5c c2 05 3e
       0.16710283 0.025041915 0.00063738495 0.13062423
000330 cb 8b 92 3e 6f 09 8d 3e c2 ed 12 3e 80 47 ac bf
       0.2862228 0.2754626 0.1434851 -1.345932
000340 13 80 b0 3e 33 59 08 bf 4c 60 d6 3e 2d 1f a0 bd
       0.34472713 -0.5326111 0.41870344 -0.07818446
000350 99 54 bb be a2 54 aa bd 6c ac d7 3e 8c 4e df be
       -0.3658798 -0.08316924 0.42123735 -0.43614614
000360 d9 57 b2 3e c5 36 df 3d c0 60 68 bd 13 33 b9 bf
       0.34832647 0.10899118 -0.056732893 -1.4468712
000370 3f 36 17 3e 62 9f 54 3c d5 4b 25 be 17 20 58 bf
       0.14766787 0.012977453 -0.16142209 -0.84423965
000380 0d 13 01 be ad 1c 10 bf 0d ae 44 3d 1d 9a 93 3e
       -0.12604924 -0.56293756 0.04801755 0.28828517
000390 99 10 86 be 5e 1e 8c be 4b 05 7d 3e c0 a0 b8 3d
       -0.26184538 -0.27366918 0.2470905 0.09015036
0003a0 c7 55 39 3e ce 51 0b 3e a8 2e bd be 89 a3 ed 3d
       0.18099128 0.13605425 -0.36949658 0.116034575
0003b0 48 f5 39 3e b2 38 bb 3e b2 35 63 3e 65 79 90 bf
       0.18159974 0.36566693 0.22188452 -1.1287047
0003c0 c8 e2 9c 3e e9 6a 1b be 29 0b 41 3e d4 3a ed be
       0.3064177 -0.15177502 0.18851914 -0.46333945
0003d0 63 9b c3 be 7c 49 d2 3c c4 3f 9e 3e 20 38 81 bf
       -0.38204488 0.025669806 0.30908024 -1.0095253
0003e0 74 58 ef bd 72 18 bb 3e 06 af 1e be ec c2 8b bf
       -0.11686793 0.36542088 -0.15496454 -1.091886
0003f0 bc 67 b7 3e c7 2a 89 be 7d 27 06 bf 2b 54 40 bf
       0.3582133 -0.2679045 -0.52404004 -0.7512843

_network.2.bias f4 [32]
000000 01 0f bc 3e d6 75 e4 bd 44 ac 35 3b d6 aa bf 3e
       0.36730197 -0.11155288 0.0027721087 0.37435025
000010 5a 02 83 3e 94 11 ea bd e3 82 75 3e 25 71 d9 3e
       0.25587732 -0.11429134 0.2397571 0.42469135
000020 1d 71 4b be 83 1b a4 3e 92 3b 50 be 02 f1 bf 3e
       -0.19867368 0.3205224 -0.20335224 0.37488562
000030 1c 4c b6 3e 61 66 3b be d1 05 a4 bc aa f2 25 be
       0.35604942 -0.18300773 -0.020022305 -0.1620585
000040 59 8f 9e 3e c1 6a 3e be 6f df 31 3e 39 b7 b9 3e
       0.3096874 -0.18595411 0.1737039 0.362726
000050 27 9a cc 3e ba 29 ea 3e e3 9d 9c 3e b9 99 04 3f
       0.3996136 0.4573496 0.30589208 0.5179706
000060 59 d8 3c be 22 5c 98 3e ce 4c 33 3d 3b 97 22 3e
       -0.18441905 0.29757792 0.04377442 0.15878002
000070 a7 a6 a6 3e f1 ce 20 3e 3a 1c a8 3e dc b1 e2 3e
       0.3254902 0.15703942 0.32834035 0.4427632

_network.4.weight f4 [32, 32]
000000 87 a7 0f 3f 58 5e d1 bd 06 5d 02 bd 4d 9d 2a 3f
       0.56115 -0.10223073 -0.031826995 0.6664627
000010 78 95 e1 3e 5e 6e b3 3d 70 9b a4 3e 18 25 0b 3f
       0.44059348 0.08761285 0.3214984 0.54353476
000020 f5 fd 17 be c7 22 12 3f 53 6a 9b bd 73 15 ab 3d
       -0.1484297 0.57084316 -0.07588639 0.083537005
000030 6a 76 ce 3e e9 44 07 3e 87 32 91 bf b7 50 21 c0
       0.40324718 0.13209881 -1.1343545 -2.5205514
000040 f4 a1 22 3f b7 c9 2c c0 d7 db 5e 3e 9d 73 35 3d
       0.6352837 -2.6998117 0.2176355 0.04429971
000050 0f b8 3d 3f 4c 8e 81 3e 1f 72 f4 3e a3 80 07 3f
       0.74108976 0.25303876 0.47743317 0.5293066
000060 23 81 1b 3e 25 e3 39 3d 49 58 a1 bf 73 8f ce bf
       0.1518598 0.045382638 -1.2605067 -1.6137527
000070 d8 8d 75 3e 8e 11 3a 3e 06 1b 24 3f 6d 86 10 3f
       0.2397989 0.18170759 0.64103734 0.5645512
000080 31 ac d6 be a0 36 10 3d 3a 22 34 be 74 cc 66 bf
       -0.41928247 0.035208344 -0.17591181 -0.9015572
000090 f7 8a 4d 3b 8e 26 0c be 3c c9 92 3e 16 97 60 bf
       0.0031363347 -0.13686582 0.28669155 -0.8773054
0000a0 b8 ed 32 be d5 fc b3 bf 66 71 e3 3d ff b4 eb 3d
       -0.17473495 -1.4061533 0.111056134 0.11509132
0000b0 25 bd 1d bf 77 ab 29 3e f8 90 4e be 8f 8f cd 3f
       -0.61616737 0.16569315 -0.20172489 1.6059436
0000c0 7b 2a 14 bf 8f ee ae 3f e0 4b 92 3e fe 7d 4e 3e
       -0.5787732 1.3666552 0.28573513 0.2016525
0000d0 9f 6b 5e bf 77 7c 29 3e 47 e3 20 bf 56 69 3b bf
       -0.86882967 0.16551386 -0.628468 -0.73207605
0000e0 42 44 c6 3d 06 08 73 3e 95 9f 39 3f be 94 0a bf
       0.09680988 0.2373353 0.7250913 -0.5413321
0000f0 cb f3 ac be 5c 22 83 3e 16 82 05 bf 9e 03 f8 be
       -0.3377975 0.25612152 -0.5215162 -0.4844026
000100 60 e4 0b 3c b7 35 0b 3c cd 20 1f 3e 55 ee 0a bf
       0.008538336 0.008496693 0.15539856 -0.54269916
000110 9b d1 bf 3e bf a0 33 3e fb 0a b7 3e 1d 16 c8 be
       0.37464604 0.17541789 0.35750565 -0.3907937
000120 90 d9 0a be b8 83 81 bf 6c 9a e2 bd 9a 10 1c 3e
       -0.13559556 -1.0118322 -0.1106461 0.15240708
000130 28 52 c4 be 69 53 e4 3d 51 b3 71 bf b8 6a bf 3f
       -0.3834393 0.11148722 -0.9441424 1.4954443
000140 a4 e1 f4 bf 43 00 cd 3f 2e a8 8c 3e 2f 16 9b 3e
       -1.913136 1.6015705 0.2747206 0.30290362
000150 13 59 38 bf 14 7f 19 3e 8a a0 0d bf ab 72 61 be
       -0.72010916 0.14989883 -0.5532309 -0.22016399
000160 59 da 49 3d dd 1c 8e 3e 8e 3f 65 3f 25 d0 24 be
       0.0492805 0.27756396 0.895501 -0.16095026
000170 7f f4 42 be b0 71 11 bd d4 1d ac bc 85 40 09 bf
       -0.1903858 -0.03550881 -0.021010317 -0.53614074
000180 28 43 05 bf 2f ec 50 bd 30 6b 59 3c a0 bb 83 be
       -0.520556 -0.051006492 0.013270184 -0.25729084
000190 ec 60 53 bf 16 70 90 3d fc ca 49 bf 4d e0 31 bd
       -0.82569766 0.07052629 -0.78825355 -0.0434268
0001a0 79 7f 1d be 17 73 ba 3e 8d 97 a9 bd bb dd 8a bf
       -0.15380658 0.36415932 -0.08280859 -1.0848917
0001b0 0b f8 32 3e b5 8d db bd 30 23 bb 3e 9d d4 09 3d
       0.17477433 -0.10720388 0.36550283 0.03365003
0001c0 ba 56 3a 3f 68 fa 6a bd 40 cb 83 bf 68 37 c1 bf
       0.72788584 -0.057367712 -1.0296402 -1.5095034
0001d0 8d 89 e8 bd f9 21 8d 3d 4d 75 8e 3d cf 5e 1d 3e
       -0.11354361 0.068912454 0.06955967 0.15368198
0001e0 66 ea f0 3d 22 d7 43 bf e4 ee 08 bf 4c 53 13 be
       0.11763458 -0.7650014 -0.5348952 -0.14387244
0001f0 f9 7a a1 be c9 f7 6e bf 18 f5 e4 be a6 1b 6d ba
       -0.31539133 -0.9334684 -0.44718242 -0.00090449525
000200 e5 54 2e 3f 4c 22 51 be 61 da 63 3e 28 41 cd 3e
       0.6809829 -0.2042324 0.22251274 0.40088773
000210 1f 3f 0a 3f c8 bb 9e 3c 79 45 d4 3e 8b ad 29 3f
       0.54002565 0.01937665 0.41459253 0.6628043
000220 1a b5 41 3d dd 24 bc 3e e6 29 aa bd b8 ad b1 3e
       0.047291853 0.36746874 -0.08308773 0.3470285
000230 1b 2c b1 3e 82 22 b4 bd 68 98 50 bf bb 9a bb bf
       0.34603962 -0.08795644 -0.81482553 -1.4656595
000240 26 98 af be 52 dd 9b bf 17 43 e8 3e 20 68 c7 3e
       -0.34295768 -1.2176917 0.45363685 0.3894663
000250 35 7e 0e 3f b5 5c 0a 3f 24 1d a0 3e 7b 0d fb 3e
       0.55661327 0.5404771 0.31272233 0.49033722
000260 f4 6a 68 bd de 50 07 3f 86 9d 06 bf 8d 2d 58 3e
       -0.056742623 0.5285777 -0.5258411 0.21111126
000270 4a eb d7 3e 39 fa 11 3f 5c 63 ed 3e b5 f9 8d 3e
       0.421717 0.57022434 0.46364868 0.27729574
000280 83 8d 1c 3b b0 ff 25 3d 77 ec de 3d 73 78 25 be
       0.0023888058 0.040527046 0.10884946 -0.16159229
000290 d7 58 92 3b 74 9c 1a bd b0 75 46 3d b4 33 e9 3d
       0.004466157 -0.03774686 0.04845208 0.11386815
0002a0 be 93 f1 3d 12 c8 01 be 00 02 34 bd 10 a6 8b bd
       0.11795758 -0.12673977 -0.04394722 -0.06818783
0002b0 ec c4 e4 3d a8 1d 8d 3c 28 98 8b 3d 00 b2 3f bb
       0.11170372 0.017226055 0.06816131 -0.0029250383
0002c0 60 1a c8 bb 7a bb 42 bd d4 a9 5b 3d 6f 68 1b bd
       -0.00610666 -0.047542073 0.053628758 -0.037941393
0002d0 0f d4 a4 bd b3 62 c1 bc e7 08 27 be 04 ab 83 bd
       -0.080482595 -0.023606634 -0.1631199 -0.06429103
0002e0 cf d4 c1 bd 68 cd 39 bd 7a dc 0c be 5a df 0f be
       -0.09464418 -0.045361906 -0.1375598 -0.14050046
0002f0 8f 11 37 be 2b 2e 1c bd 7c a6 0d 3d 37 7f 86 3d
       -0.17877792 -0.038129967 0.0345826 0.06567233
000300 84 79 fc 3e 09 e0 86 3d a0 32 b1 bd f9 00 f5 3e
       0.4931146 0.065857 -0.08652234 0.47852305
000310 98 39 1e 3f 6f 23 12 3e dc 59 22 3f 65 b0 12 3f
       0.6180663 0.1427133 0.63418365 0.57300407
000320 a4 9f 4c be 75 74 ae 3e 83 d4 ce 3d ee b7 16 3f
       -0.19982773 0.34073225 0.10099127 0.58874404
000330 0d a6 f8 3e 38 e4 7f bc 93 27 23 bf 58 c8 98 bf
       0.48564187 -0.015618376 -0.6373226 -1.193614
000340 d2 cb 7f bf f6 60 71 bf 55 10 29 3f 6f cc ce 3e
       -0.9992038 -0.94288576 0.66040546 0.40390345
000350 97 25 dd 3e b4 d5 9c 3e af b0 a1 3e 5d b9 ac 3e
       0.4319274 0.30631793 0.3158011 0.3373517
000360 f4 9b 8a bd 81 d9 e5 3e 9c 7f 4b be 4e fc cf 3e
       -0.06768027 0.44892505 -0.19872898 0.4062218
000370 0f 76 25 3f b6 80 2c 3f cd cc 14 3f 0f 06 ca 3e
       0.6463327 0.673839 0.58125 0.39457747
000380 ff b9 db 3e 77 fd 36 3c 05 59 91 bd c9 88 ec 3e
       0.4291534 0.011168829 -0.07097057 0.4619811
000390 99 73 26 3f bd d2 2e 3e aa c8 b1 3e 05 0d ca 3e
       0.6502014 0.17072578 0.34723407 0.39463058
0003a0 6a e0 3a be d1 a4 c7 3d 42 0f a6 bd 88 a5 00 3f
       -0.1824967 0.09748233 -0.08108379 0.5025258
0003b0 4d 80 c4 3e ff fa ef bd b5 4a 27 bf 3d f7 6b bf
       0.38379136 -0.117177956 -0.6534837 -0.9217413
0003c0 65 9a 7e bf 17 6f 75 bf 1d 5a f5 3e e0 2b 20 3f
       -0.9945434 -0.95872635 0.47920313 0.6256695
0003d0 d3 79 c5 3e 75 1d 07 3f 36 dd db 3e 8b 42 ab 3e
       0.38569507 0.5277932 0.42942208 0.33449206
0003e0 c3 46 86 3d 3a c8 14 3f 38 a8 ce 3c c0 f5 39 3f
       0.065564655 0.5811802 0.025226697 0.7264061
0003f0 79 5c df 3e 82 dd 07 3f 9e 0e d8 3e db aa ea 3e
       0.4362524 0.5307237 0.42198652 0.45833477

_network.4.bias f4 [32]
000000 ac e6 8b 3e 72 81 8a 3d b6 ee a6 3e 57 43 30 3d
       0.27324426 0.06762971 0.32603997 0.04303297
000010 bf 71 b7 3e dc cc 3e 3d de db 88 3e 00 4b ce 3e
       0.3582897 0.046582088 0.26730245 0.40291595
000020 ac bd 12 3e 34 78 02 3f 87 2e 1a be f8 5e 8c 3e
       0.14330167 0.50964665 -0.15056811 0.27416205
000030 9f bc a1 3e 63 b5 27 3e 18 78 a3 3e 8c d3 14 be
       0.3158922 0.16377787 0.31927562 -0.14533824
000040 ca 5d 8d 3e ae a0 f5 3b 25 b5 3a be 6a 68 d2 3e
       0.27610618 0.007495961 -0.18233164 0.41095287
000050 9f 50 d0 3d 4a fd 50 3e ff d0 84 3e dc d5 b6 3c
       0.10171627 0.20409122 0.259407 0.022318773
000060 fb 98 ea bd e8 20 c2 3e 1e 76 a9 3e 77 fc c6 3d
       -0.1145496 0.3791573 0.3309793 0.097161226
000070 70 86 b6 3e 37 68 8d 3e 5f 80 42 3e fe d4 80 bd
       0.35649443 0.27618572 0.18994282 -0.06290625

_network.6.weight f4 [2, 32]
000000 b0 f9 c7 be a4 a8 e4 bf 70 2f aa be 79 be da 3e
       -0.39057684 -1.7863965 -0.33239317 0.42723444
000010 86 83 33 3f 81 3f 07 be 73 83 5f 3f f2 8f 48 3f
       0.70122564 -0.13207819 0.8730995 0.78344643
000020 94 23 71 3f 73 bc 93 3e 0e 23 04 be 7f 4b d9 3e
       0.9419491 0.28854713 -0.12903997 0.4244041
000030 10 67 8e 3f 36 54 22 3f 35 34 45 3f b3 b0 8f bd
       1.1125202 0.63409746 0.77032787 -0.070161246
000040 a9 b8 3b 3f e5 39 f2 3b 97 07 59 3d 08 81 1b 3f
       0.73328644 0.0073921555 0.052985754 0.6074376
000050 5a 62 81 bd 9b cb 87 be da b1 56 3f ad fe 74 3e
       -0.06317587 -0.26522526 0.8386513 0.23925276
000060 51 f9 24 bc 3d be fc bf a5 3a 1b 3f fd 76 45 3f
       -0.010069207 -1.9745556 0.6063636 0.77134687
000070 74 ff 66 3f 88 71 e9 be 09 b9 90 bf a1 a9 3b 3e
       0.9023354 -0.4559443 -1.1306468 0.18326427
000080 fc 46 54 3f 5a f7 f1 3e 0f 9c 08 c0 5d fa a6 bf
       0.82920814 0.47259027 -2.134525 -1.3045155
000090 4e 42 fb 3e b6 2c 40 3d 5b 2a c8 3e 5d d3 95 3e
       0.49074024 0.04691764 0.39094815 0.2926282
0000a0 c6 3a b4 bf b2 57 50 3f 7f 43 35 3d b9 ee 50 3f
       -1.4080436 0.8138381 0.044253822 0.8161426
0000b0 64 1e 9f bf 87 ef 01 3f 3f 57 0c 3f e3 fe a5 bd
       -1.243115 0.50756115 0.54820627 -0.081052564
0000c0 3a b7 05 3f e4 88 21 be c8 5c db bc 69 e4 45 3f
       0.52232707 -0.15774876 -0.02677764 0.7730165
0000d0 b7 8b cb 3d 41 09 10 3f 34 3b 85 3e 4e 4d dc 3e
       0.09938758 0.5626412 0.2602173 0.4302773
0000e0 5e d6 16 3c 26 87 99 bf f8 07 1f 3f 5b 2e f4 3e
       0.009206383 -1.1994369 0.62121534 0.47691616
0000f0 42 17 57 3e b5 f5 b0 bf d1 fa 35 3f 50 73 ab 3e
       0.21004966 -1.3824984 0.7108584 0.33486414

_network.6.bias f4 [2]
000000 c1 ad d2 3e e0 b7 2f 3e
       0.4114819 0.17159986
