playground/classic_controls/cartpole/a2c/model.pth (torch, 5691 bytes, 7 tensors)

actor_fc1.weight f4 [64, 4]
0	0xbdfb9c73	-0.122857
1	0x3e77bfe8	0.241943
2	0xbf092f4e	-0.53587806
3	0xbe859b52	-0.26095062
4	0xbda7af2b	-0.081877075
5	0x3e972d8b	0.29526934
6	0xbe848a6f	-0.25886866
7	0x3df72738	0.12068027
8	0xbf1d6c2d	-0.6149319
9	0xbf1aedd0	-0.60519123
10	0x3e93c5a8	0.28861737
11	0x3f80c42b	1.0059866
12	0x3ef5d613	0.48014888
13	0x3e80ae4c	0.25132978
14	0x3fd66bb0	1.6751614
15	0x3f8eb9c3	1.115044
16	0x3d583b5d	0.05279099
17	0xbe1e237c	-0.15443224
18	0xbd63f1ba	-0.05565045
19	0xbe8d69f4	-0.27619898
20	0x3eb3e412	0.3513494
21	0xbe80d49f	-0.25162217
22	0xc0031ce4	-2.0486383
23	0xbfb3892e	-1.4026239
24	0x3e82bbb7	0.2553384
25	0xbeb5287f	-0.3538246
26	0xbf06c411	-0.52642924
27	0xbe8f30a0	-0.27966785
28	0xbf43567a	-0.7630383
29	0xbf22fa6e	-0.63663375
30	0xbeb1ae9a	-0.34703523
31	0x3f77a365	0.96733695
32	0x3dafac38	0.0857777
33	0xbd939567	-0.072062306
34	0x3ecbdaa8	0.3981526
35	0x3baddd51	0.005305924
36	0x3e950964	0.29108727
37	0xbea1df46	-0.31615657
38	0xbfea6568	-1.8312197
39	0xbfb9698d	-1.4485337
40	0xbe361dc5	-0.17784794
41	0xbe11a6cc	-0.14223784
42	0xbec8b2f6	-0.39199036
43	0xbdaf7293	-0.08566775
44	0x3e174216	0.14771304
45	0xbe3510ef	-0.17682241
46	0xbf8394e1	-1.0279809
47	0xbf916585	-1.1359106
48	0x3f24897a	0.6427227
49	0x3f99ca6a	1.2014897
50	0x401564c0	2.3342743
51	0x3f9d09ef	1.2268656
52	0x3ee93505	0.45548263
53	0xbebd3634	-0.36955416
54	0xc006c5a0	-2.105812
55	0xbfa07613	-1.2536033
56	0xbd98539c	-0.07437822
57	0xbe2de19d	-0.16980596
58	0x3f34d530	0.706378
59	0x3d6877dc	0.05675493
60	0x3f5c6180	0.86086273
61	0x3f44b75a	0.7684227
62	0x3f7f8d37	0.9982485
63	0x3d4cf4b9	0.050038073
64	0x3e94bced	0.2905039
65	0xbecf2fae	-0.40466064
66	0xbfffeb6e	-1.9993722
67	0xbf7589bb	-0.95913285
68	0x3e96f83c	0.29486263
69	0x3f3790ae	0.7170514
70	0x3e4e13fe	0.20124814
71	0x3f8a9c24	1.08289
72	0xbf7102f7	-0.9414515
73	0x3f216518	0.6304488
74	0x3f6d80f4	0.9277489
75	0x3eb68108	0.35645318
76	0x3e5aedcf	0.2137978
77	0xbe1451ce	-0.14484331
78	0xbfd0e3d0	-1.6319523
79	0xbf4ceef4	-0.80052114
80	0xbf0db2c3	-0.55350894
81	0x3dcd6ec3	0.10030892
82	0xbe358911	-0.17728068
83	0x3e75530b	0.2395746
84	0x3f0d868b	0.5528342
85	0xbf4949e1	-0.78628355
86	0xbfd3d263	-1.654858
87	0xbf85cd38	-1.0453253
88	0xbee3e81e	-0.4451303
89	0x3f7f87a8	0.9981637
90	0x3ffca35a	1.9737351
91	0x3fa21930	1.2663937
92	0x3e749d07	0.23888026
93	0xbe14c462	-0.14528039
94	0xbf92e402	-1.1475832
95	0xbf8578ee	-1.042753
96	0xbef1a968	-0.4719956
97	0xbecd4aec	-0.40096223
98	0x3de85752	0.1134478
99	0x3e9afbdd	0.3027028
100	0x3ec8c885	0.39215484
101	0x3f15df85	0.5854419
102	0x40070fe5	2.1103451
103	0x3f89b49a	1.075824
104	0xbe9d6777	-0.30743
105	0xbe208e34	-0.15679246
106	0xbde70944	-0.11281064
107	0x3dd51790	0.10404885
108	0x3e2ba963	0.16763835
109	0xbeb50d2b	-0.3536161
110	0xbe364a97	-0.17801891
111	0xbe99a72c	-0.30010355
112	0xbe48b684	-0.19600874
113	0x3e6297de	0.22128245
114	0x3d771d11	0.060330454
115	0x3e2ebc85	0.17064102
116	0x3d93afdc	0.07211277
117	0xbde1ac96	-0.11019246
118	0xbf2a2b25	-0.66472083
119	0xbf078614	-0.5293896
120	0xbf3cafd6	-0.73705804
121	0xbc7d5106	-0.015461212
122	0x3f890f2d	1.0707756
123	0x3f8f98eb	1.1218542
124	0xbf13844e	-0.57623756
125	0xbe10edc1	-0.14153196
126	0x3fd32d4f	1.6498202
127	0x3f8231bb	1.0171427
128	0xbf0a0dc7	-0.5392727
129	0x3de480b8	0.11157364
130	0x3f61906a	0.88110983
131	0x3c0efd10	0.008727327
132	0xbf58adc3	-0.8464014
133	0xbdbd3094	-0.09237781
134	0x3f88c9c0	1.0686569
135	0x3f778af6	0.9669641
136	0x3f29dd89	0.6635366
137	0x3fd80c73	1.6878799
138	0x401041ad	2.2540085
139	0x3f2d49c4	0.6769068
140	0x3e472f00	0.19451523
141	0xbead7553	-0.33878574
142	0xc00f30a2	-2.2373433
143	0xbf876083	-1.0576328
144	0x3eecb5a4	0.4623233
145	0x3e80ba39	0.25142077
146	0x3fdb8526	1.7150009
147	0x3f8c0f8f	1.0942248
148	0x3d796d03	0.060894977
149	0xbe00070b	-0.12502687
150	0x3d0bd618	0.034139723
151	0xbc9b468b	-0.018954536
152	0x3e3429f3	0.17594127
153	0xbe0444e9	-0.12916912
154	0xbf9ad4c5	-1.2096182
155	0xbf25fc5b	-0.6483819
156	0x3ebe03d3	0.37112293
157	0xbf1d4704	-0.61436486
158	0xbfedeee9	-1.8588535
159	0xbf8ea4f2	-1.1144087
160	0xbf183515	-0.59455997
161	0xbe338c9e	-0.1753411
162	0x3fb75c2f	1.4325007
163	0x3f88ca1d	1.068668
164	0xbd97865e	-0.073986754
165	0xbe49ce4b	-0.19707601
166	0xbdde804b	-0.10864314
167	0x3dc6ccda	0.09707041
168	0x3eaaa216	0.33326787
169	0xbeeaaeb1	-0.45836404
170	0xbfc76007	-1.557618
171	0xbf7228af	-0.9459333
172	0xbf2c5f47	-0.6733288
173	0xbcb42594	-0.021990575
174	0x3fa455d9	1.2838699
175	0x3f6f31eb	0.93435544
176	0x3eb33a9c	0.35005653
177	0xbeb27ceb	-0.3486093
178	0xbfcda413	-1.6065696
179	0xbfbfc7f6	-1.4982898
180	0xbbab7234	-0.00523212
181	0x3e06f615	0.1317981
182	0xbe2ad6b0	-0.1668346
183	0xbdd49d94	-0.10381618
184	0x3e4eb7b4	0.20187265
185	0xbeb66825	-0.3562633
186	0x3e6cd549	0.23128237
187	0xbeaf1dfe	-0.3420257
188	0xbeb9de83	-0.36302575
189	0x3e46954d	0.19392891
190	0xbed51b71	-0.416225
191	0x3d69a2e0	0.057040095
192	0xbdd6f103	-0.10495188
193	0x3e0b04d9	0.13576068
194	0x3e72d21a	0.2371296
195	0x3e8ecbfd	0.27890006
196	0x3fc1ff23	1.5155987
197	0x3f655845	0.89587814
198	0x3f5bf177	0.8591532
199	0x3e93da25	0.2887737
200	0x3e18ef1f	0.14934967
201	0x3d4a7baa	0.04943434
202	0x3f88ecc7	1.0697259
203	0x3e2f1b6c	0.17100304
204	0x3f087684	0.5330584
205	0xbf498d90	-0.7873163
206	0xbfcf0146	-1.6172264
207	0xbf861e2e	-1.047796
208	0xbf94aab4	-1.1614594
209	0x392c5a0a	0.0001643674
210	0x3feb1d1b	1.8368257
211	0x3fa99455	1.3248392
212	0xbf28ba2e	-0.6590909
213	0x3dc6226e	0.09674536
214	0x3f83eb42	1.030617
215	0x3f9d8ffe	1.2309568
216	0xbd385229	-0.04500023
217	0x3e51b297	0.20478283
218	0xbeb5863e	-0.3545398
219	0x3e042cb5	0.1290768
220	0x3d674fad	0.05647247
221	0x3e281da8	0.16417563
222	0x3f41fd59	0.757772
223	0x3eb7377c	0.3578452
224	0x3e5a7106	0.21332178
225	0xbecb27ae	-0.3967871
226	0xbfb1d004	-1.3891606
227	0xbf52be94	-0.8232205
228	0xbe1c3c3a	-0.1525735
229	0xbd92b53c	-0.07163474
230	0xbe76efe5	-0.2411495
231	0x3ea08c0f	0.31356856
232	0xbf63ece7	-0.8903336
233	0xbed7883b	-0.42096123
234	0x3f9f0e13	1.242617
235	0x3fa6a6fd	1.3019711
236	0x3e60f2b5	0.21967585
237	0xbe222c33	-0.15837173
238	0xbdd1e595	-0.102488674
239	0xbe23561d	-0.15950818
240	0x3e933b61	0.2875624
241	0xbe92a46b	-0.28641066
242	0xbfe22cff	-1.7669982
243	0xbfa800fa	-1.3125298
244	0x3de51fd4	0.11187711
245	0xbecfa00c	-0.40551794
246	0xbeed1e68	-0.4631226
247	0x3f246954	0.6422322
248	0xbebb92a3	-0.36635312
249	0x3f4269c4	0.75942636
250	0x40135408	2.3020039
251	0x3f8726eb	1.0558752
252	0x3f097fad	0.5371044
253	0x3fa2948a	1.270158
254	0x3fd51fb3	1.6650299
255	0x3f5ddda6	0.86666334

actor_fc1.bias f4 [64]
0	0xbef73f29	-0.48290375
1	0xbf19a676	-0.60019624
2	0xbeb87cee	-0.36032814
3	0x3cf48e98	0.02985315
4	0xbf6e5309	-0.9309545
5	0x3ef1743b	0.4715899
6	0xbe530913	-0.2060893
7	0xbeca52ba	-0.3951624
8	0xbe8b2be4	-0.27181923
9	0x3e880008	0.26562524
10	0xbecdb22d	-0.40175
11	0x3e11801f	0.1420903
12	0x3e28c57b	0.16481583
13	0x3ed02795	0.406552
14	0xbedb8d81	-0.42881396
15	0xbe89c683	-0.26909265
16	0x3e20284b	0.1564037
17	0xbe956197	-0.29176018
18	0xbda91f8a	-0.08257969
19	0x3ea7a96b	0.32746443
20	0xbedc4c26	-0.43026847
21	0x3e8dddad	0.27708188
22	0x3eaf075d	0.34185305
23	0xbe599fb0	-0.21252322
24	0xbe9a7f62	-0.3017531
25	0x3d1c696e	0.038186483
26	0xbf0bafc6	-0.54565084
27	0xbed4e121	-0.4157801
28	0xbf0a846c	-0.5410831
29	0xbe56e38b	-0.20985238
30	0xbdd83666	-0.10557251
31	0xbd898223	-0.06714275
32	0xbe2e0f1f	-0.16997956
33	0xbe21c77f	-0.15798758
34	0x3e3d415e	0.18481967
35	0x3e82c44a	0.25540382
36	0x3ce8a5da	0.028399397
37	0xbe8a88c3	-0.27057466
38	0xbe26f48f	-0.16304229
39	0x3e591e25	0.21202905
40	0xbd9eca28	-0.07753402
41	0xbf0691fa	-0.5256649
42	0x3e33687e	0.1752033
43	0xbd6f3b62	-0.05840624
44	0x3ecb4ccf	0.39707038
45	0xbf0f6233	-0.56009215
46	0xbf777287	-0.9665913
47	0xbf26ff1b	-0.6523301
48	0xbf1c43a2	-0.610407
49	0xbe6c1881	-0.23056222
50	0xbed287e3	-0.41119298
51	0x3e645fd6	0.22302184
52	0x3d0c68fb	0.034279805
53	0x3dacdcfa	0.084405854
54	0xbee1c031	-0.44091943
55	0xbf5a54bf	-0.8528556
56	0x3dbff453	0.09372773
57	0xbf288511	-0.65828043
58	0x3c2effbe	0.010681091
59	0xbf7b1484	-0.9807818
60	0x3eb6d57b	0.35709748
61	0xbeddc48e	-0.43314022
62	0x3e94ceed	0.29064122
63	0x3c838471	0.016054364

actor_fc2.weight f4 [2, 64]
0	0xbdb44b97	-0.0880348
1	0x3d3d3c52	0.046200104
2	0xbf03e2ef	-0.5151815
3	0xbec7e010	-0.39038134
4	0x3de813b7	0.11331885
5	0x3ecc2969	0.39875343
6	0xbe25a7ac	-0.16177243
7	0xbeb3aed7	-0.3509433
8	0x3cb99498	0.022653863
9	0x3f1d0482	0.61335003
10	0xbdbdbe80	-0.092648506
11	0x3e8aef40	0.27135658
12	0xbf2c8f51	-0.67406183
13	0x3f03cdd6	0.51485956
14	0xbd0a1317	-0.03370961
15	0xbf1883ce	-0.5957612
16	0x3eeafa6b	0.4589418
17	0xbecdc274	-0.40187418
18	0xbe8543d2	-0.26028305
19	0x3e54df56	0.20788321
20	0xbe0b7e1e	-0.13622329
21	0x3f0a6203	0.54055804
22	0xbf37d9a4	-0.7181647
23	0x3dc67198	0.09689635
24	0xbe3bd7d9	-0.18344058
25	0xbf180c80	-0.59394073
26	0xbe145003	-0.14483647
27	0x3c6b30b5	0.014354874
28	0x3d0195bb	0.031636935
29	0xbcd0c5c1	-0.025484921
30	0xbe94e003	-0.29077157
31	0xbe980272	-0.29689366
32	0xbe3169cb	-0.17325513
33	0xbf04ffff	-0.5195312
34	0xbf913d69	-1.1346866
35	0x3edb42b6	0.42824334
36	0xbe947315	-0.2899405
37	0x3d8dd410	0.06925213
38	0x3d2ed669	0.042684946
39	0x3f00f89f	0.50379366
40	0xbe48114d	-0.1953785
41	0x3d56674c	0.052344605
42	0x3e882eea	0.26598293
43	0xbeb15790	-0.34637117
44	0x3eecc5da	0.462447
45	0xbc943033	-0.01808939
46	0xbe1c8143	-0.15283684
47	0xbc4d76a2	-0.012540491
48	0x3dff6662	0.124707
49	0xbf3638e7	-0.71180576
50	0x3ac3bebf	0.0014934166
51	0x3ec39d9a	0.38206178
52	0xbf1049ee	-0.5636281
53	0xbe83f390	-0.2577176
54	0xbe0cde92	-0.13756779
55	0x3e914da8	0.2837956
56	0x3df60b3e	0.12013863
57	0x3d0723fa	0.032993294
58	0xbeb9ab44	-0.36263478
59	0xbdf131de	-0.117770895
60	0x3ef33a47	0.475054
61	0xbe1e9bcb	-0.15489118
62	0xbeb4ddc8	-0.35325456
63	0xbebc49fd	-0.367752
64	0xbd70ec1b	-0.058818918
65	0x3e18a81b	0.14907877
66	0x3eea29c0	0.45734978
67	0x3eb54c5f	0.3540983
68	0x3d27e5cd	0.04099064
69	0xbf19eba2	-0.6012517
70	0xbce36d72	-0.027762149
71	0x3f05e2ee	0.5229939
72	0xbd6530d9	-0.055954788
73	0xbecf4139	-0.40479448
74	0x3b9cb299	0.0047820327
75	0xbdaae995	-0.083453335
76	0x3f3522ea	0.707564
77	0xbf147feb	-0.5800769
78	0xbc918888	-0.017765298
79	0x3f10f12f	0.56618017
80	0xbec9df39	-0.39428118
81	0x3e9e5884	0.30926907
82	0x3ec96cb0	0.39340734
83	0xbe6b3728	-0.22970259
84	0x3e492ee0	0.19646788
85	0xbeed99fd	-0.46406546
86	0x3f4a39b2	0.78994286
87	0xbdb13a1c	-0.086536616
88	0x3e6633a4	0.22480637
89	0x3ef66acf	0.48128363
90	0xbca5408a	-0.020172376
91	0xba26a1b7	-0.0006356495
92	0x3cc35d98	0.02384834
93	0xbd665596	-0.056233965
94	0x3edea53b	0.43485436
95	0x3e597792	0.21237019
96	0x3e4ae3e5	0.19813497
97	0x3eaf0c37	0.34189007
98	0x3f98e2fe	1.1944273
99	0xbe9a77d6	-0.30169553
100	0x3ec391ce	0.38197178
101	0xbcec1a27	-0.028821064
102	0xbcb1c0c6	-0.021698367
103	0xbf1a11ef	-0.60183614
104	0x3ebd5aa8	0.36983228
105	0x3df103b4	0.117682844
106	0xbe8ebb85	-0.2787744
107	0x3ec936a4	0.392995
108	0xbf00ec92	-0.5036098
109	0x3cc2e70d	0.023791814
110	0x3c966b72	0.01836178
111	0xbd6ccda6	-0.05781331
112	0xbc7252df	-0.014790266
113	0x3f22602b	0.6342799
114	0x3e18c41a	0.14918557
115	0xbf08f825	-0.5350364
116	0x3f1bdd4c	0.6088455
117	0x3e560f6b	0.20904319
118	0x3d334e65	0.043775935
119	0xbe1575cc	-0.14595717
120	0xbe1d5de7	-0.15367852
121	0xbe2e5831	-0.1702583
122	0x3eb0ec15	0.34555116
123	0x3d818b9b	0.06325456
124	0xbf0272d1	-0.50956446
125	0x3e269db7	0.16271101
126	0x3eeb3236	0.45936745
127	0x3f0a83b7	0.5410723

actor_fc2.bias f4 [2]
0	0x3dd9ad80	0.106287956
1	0xbdd3dc36	-0.10344736

critic_fc1.weight f4 [64, 4]
0	0x3ed9d9be	0.42548937
1	0x3dad0a12	0.084491864
2	0xbe0c5eaf	-0.13707994
3	0x3de66d37	0.112513
4	0x3f2b6742	0.66954434
5	0x3f7ee35f	0.9956569
6	0x3fb6db49	1.428567
7	0x3f35d476	0.71027315
8	0x3d229cc1	0.039700273
9	0xbd740064	-0.059570685
10	0x3c063ffb	0.008193965
11	0xbd375f71	-0.044768754
12	0x3e47a055	0.19494756
13	0xbd46596a	-0.048425116
14	0xbe5f87c1	-0.2182913
15	0xbdcb1cf4	-0.09917632
16	0x3f8b485f	1.0881461
17	0x3f7819f8	0.96914625
18	0x3f789ce2	0.97114384
19	0x3f1e7ac0	0.6190605
20	0x3db12d08	0.08651167
21	0x3c911a2f	0.01771268
22	0xbf00c91a	-0.50306857
23	0x3dc346ca	0.09534986
24	0x3e843cf0	0.25827742
25	0x3a3d2ebc	0.0007216742
26	0xc00848a7	-2.1294343
27	0x3e1cf0b6	0.15326199
28	0x3eadcbfb	0.33944687
29	0x3f81189c	1.0085635
30	0x40106a10	2.2564735
31	0x3f2e1c08	0.6801152
32	0x3fade2a1	1.3584787
33	0x3c1a93d9	0.009434664
34	0x3f622de5	0.8835128
35	0xbd084cbc	-0.033276305
36	0x3f119426	0.5686668
37	0x3f2e463e	0.6807593
38	0x3fa21931	1.2663938
39	0x3eeb8833	0.4600235
40	0xbee78dc0	-0.45225334
41	0x3f7c959c	0.98665786
42	0x3ff8b075	1.942885
43	0x3f2f1761	0.6839505
44	0xbec11457	-0.3771083
45	0x3f8ff7cd	1.1247498
46	0x3fcfb64a	1.6227505
47	0x3f429d5b	0.76021355
48	0x3e10d99b	0.1414551
49	0xbd881a3f	-0.06645631
50	0x3bd21c0b	0.0064120344
51	0xbde91a9e	-0.1138203
52	0x3fbed30d	1.4908158
53	0xbf8fdcfa	-1.1239312
54	0xc01a4ed3	-2.411061
55	0xbf46e721	-0.77696425
56	0x3f0c41e5	0.5478805
57	0x3d9492de	0.07254575
58	0x3e24f9fe	0.1611099
59	0x3c0e93f4	0.008702267
60	0xbfa6815d	-1.3008229
61	0xbf92c7f7	-1.1467274
62	0xbfb5e12b	-1.4209341
63	0xbf40e42d	-0.7534817
64	0x3f73d667	0.95249027
65	0x3e223e6b	0.15844123
66	0xbfafcb21	-1.3733865
67	0x3df3a763	0.11897161
68	0x3ee6b0a4	0.4505664
69	0x3dda005c	0.106446
70	0xbde90377	-0.11377614
71	0x3ebeaa68	0.37239385
72	0x3fe6963d	1.8014599
73	0xbf225941	-0.6341744
74	0xc026697e	-2.6001887
75	0xbeeecb28	-0.4663937
76	0xbf76ae9c	-0.9636018
77	0x3e2cb0fd	0.1686439
78	0x3fafaa0f	1.3723773
79	0x3eccd871	0.40008882
80	0x3e29caa0	0.16581202
81	0xbe8a62f2	-0.27028614
82	0x3f4f5dae	0.8100232
83	0x3e166407	0.14686595
84	0x3e6b9f74	0.23010045
85	0x3e70b37c	0.23505968
86	0x3f7d489d	0.98938924
87	0x3ecd5189	0.4010127
88	0x3e539e5e	0.20665881
89	0xbe4ab14d	-0.19794197
90	0x3d70f943	0.058831464
91	0xbcdba424	-0.026811667
92	0x3e232f53	0.15936022
93	0x3e03e561	0.1288047
94	0x3fbb9e18	1.4657621
95	0x3ed7c356	0.42141217
96	0xbec2fcda	-0.38083535
97	0x3e80d8d6	0.25165433
98	0xbf21635f	-0.63042253
99	0x3ec316d1	0.38103345
100	0x3ec12148	0.37720704
101	0xbda31d35	-0.07964555
102	0x3f590098	0.8476653
103	0x3e4213da	0.18952885
104	0xbc20ec3b	-0.009821947
105	0x3e01b245	0.1266566
106	0x3dccc8a4	0.09999207
107	0xbe1681f7	-0.14698015
108	0xbf0d5e02	-0.5522157
109	0x3f558702	0.8340913
110	0x3facf581	1.3512422
111	0x3f20a00d	0.6274422
112	0x3ed26412	0.41091973
113	0x3e117126	0.14203319
114	0xbf8e02e6	-1.1094635
115	0x3c8079e5	0.015683124
116	0x3be009fb	0.0068371273
117	0xbfb24093	-1.3925956
118	0xbf4e4f24	-0.8058951
119	0xbf6c9795	-0.92418796
120	0x3e9976c3	0.2997342
121	0x3f98605e	1.1904409
122	0x4011e832	2.279797
123	0x3f4bba57	0.7958121
124	0x3f99dd30	1.2020626
125	0x3ed73264	0.42030632
126	0x3f7498b6	0.9554552
127	0x3e8500a6	0.25977057
128	0xbfb25cd2	-1.3934577
129	0xbf442913	-0.76625174
130	0x3eb53f83	0.35400018
131	0xbf00cb9d	-0.5031069
132	0xbf5d2f91	-0.86400706
133	0xbf30adb0	-0.69015026
134	0xbfc2ae65	-1.5209471
135	0xbefa143a	-0.48843557
136	0xbf9a7edb	-1.2069963
137	0xbf5f72fa	-0.87284815
138	0xbfcf7417	-1.6207303
139	0xbf19e5e3	-0.60116404
140	0x3e373355	0.17890675
141	0x3dd2a729	0.102857895
142	0xbf14dee0	-0.5815258
143	0xbc687947	-0.014189071
144	0x3e9d1788	0.30682015
145	0xbd8568be	-0.065141186
146	0x3e1542b7	0.14576231
147	0xbe066dee	-0.13127872
148	0x3e7aae0c	0.24480456
149	0xbe3d834a	-0.18507114
150	0xbed52372	-0.41628605
151	0x3cba289d	0.022724444
152	0x3f2d019a	0.6758057
153	0x3f685bb4	0.9076493
154	0x3f7a62ea	0.9780718
155	0x3f12d934	0.57362676
156	0x3ed89905	0.42304245
157	0xbe689605	-0.22713478
158	0x3e310a03	0.17288975
159	0xbe398e57	-0.18120705
160	0x3fe7d281	1.8111116
161	0x3e1b43b4	0.15162545
162	0xbfa1e0d3	-1.2646736
163	0x3cc6d2c3	0.02427042
164	0xbeac18c2	-0.3361264
165	0x3f6974fa	0.9119412
166	0x3fb2bad0	1.3963261
167	0x3ecf8486	0.40530795
168	0x3f13ebd3	0.57781714
169	0xbfb33922	-1.400181
170	0xc00a187d	-2.1577446
171	0xbf7855bc	-0.9700582
172	0x3eb0f5c8	0.34562516
173	0x3f1f3d1b	0.62202615
174	0x3fba94e6	1.457669
175	0x3efc938d	0.49331322
176	0xbe70f07c	-0.23529238
177	0x3e8b4cea	0.27207118
178	0x3e50e777	0.20400797
179	0x3d819670	0.06327522
180	0x3ac7c10c	0.0015240028
181	0x3ea3109d	0.31848612
182	0x3dc020f9	0.09381289
183	0xbc3da7ab	-0.01157562
184	0x3e1c6f75	0.15276892
185	0x3e0b4e96	0.13604197
186	0x3f4cfb3e	0.80070865
187	0xbd4aa47d	-0.049473274
188	0xbf8831bb	-1.0640177
189	0xbf41b0db	-0.75660485
190	0xbfcbf1a7	-1.5933121
191	0xbf07f2ba	-0.53104746
192	0x3ec95bd4	0.39327872
193	0xbac5b9c1	-0.0015085266
194	0x3ebcff1d	0.36913386
195	0xbd2ed204	-0.042680755
196	0x3e8b408d	0.27197686
197	0xbd8261d1	-0.06366313
198	0x3dd0280e	0.1016389
199	0xbdee78e6	-0.11644153
200	0x3f0d17fe	0.55114734
201	0x3f558057	0.83398956
202	0x3fe47197	1.7847165
203	0x3f13b5e5	0.57699424
204	0xbe71ee29	-0.23626007
205	0x3eaed8a4	0.3414966
206	0xbf100618	-0.562593
207	0x3dd60c59	0.10451574
208	0x3e7947dc	0.24343818
209	0x3d850e7d	0.06496904
210	0xbedbc14b	-0.42920908
211	0xbca493b2	-0.020089958
212	0x3e5669dd	0.20938821
213	0x3da9d1ff	0.08292007
214	0xbf188756	-0.59581506
215	0x3d122053	0.035675358
216	0x3f2b74d2	0.6697513
217	0xbf99d433	-1.2017883
218	0xbf81db67	-1.0145081
219	0xbf4d13ae	-0.80108154
220	0x3eaf28da	0.34210855
221	0xbcf92d11	-0.030416997
222	0x3e6ae60e	0.22939321
223	0xbcf0cfb0	-0.029395908
224	0x3db0055a	0.08594771
225	0x3e2c727f	0.16840552
226	0xbedd4f8e	-0.43224758
227	0x3e8473cf	0.25869605
228	0xbe3cbb49	-0.18430819
229	0xbfb9f048	-1.4526453
230	0xbf22be80	-0.6357193
231	0xbf6ec49a	-0.9326874
232	0x3e1bfec5	0.15233906
233	0xbe400267	-0.18750916
234	0x3e77bb4e	0.24192545
235	0xbe2085f3	-0.15676098
236	0xbe51902b	-0.20465152
237	0xbe0ca1b2	-0.13733557
238	0x3f10960d	0.5647896
239	0xbd5b2e04	-0.05351068
240	0xbe4bbb17	-0.19895588
241	0x3ec27d38	0.3798616
242	0xbf8f8fb3	-1.1215729
243	0x3d2cd552	0.042195626
244	0x3f3e4388	0.74321795
245	0x3f03d343	0.51494235
246	0x3f86f17c	1.0542445
247	0x3eafa466	0.34305114
248	0xbd8155b1	-0.063151725
249	0xbe3c8621	-0.18410541
250	0xbe6a077f	-0.22854422
251	0x3ce61827	0.028087689
252	0x3e6ada0c	0.22934741
253	0x3d1eb2d1	0.03874475
254	0xbe9343c1	-0.2876263
255	0x3db58dee	0.088649616

critic_fc1.bias f4 [64]
0	0xbfb8ca0b	-1.4436659
1	0x3d645d36	0.055752955
2	0x3f2b6998	0.66958
3	0x3e94b14a	0.2904151
4	0xc01f584b	-2.489764
5	0x3f60e96c	0.87856174
6	0x3e8476f3	0.25872
7	0x3cfd7ed4	0.030944265
8	0xc024c7d3	-2.5746963
9	0xbfcc33cc	-1.5953307
10	0xbe046623	-0.12929587
11	0xbe07eab1	-0.13273121
12	0xbf901b41	-1.1258317
13	0x3db3faff	0.08788108
14	0x3d04adea	0.03239242
15	0xbf248e61	-0.6427975
16	0xbd181377	-0.037127938
17	0x3fcb99a3	1.5906261
18	0x3bf3a358	0.0074352436
19	0xbd15ea55	-0.03660043
20	0xbf2b3ab8	-0.6688647
21	0xbc973b3c	-0.018460862
22	0xbf879fa5	-1.0595595
23	0xbf13b3e1	-0.5769635
24	0xbf629a2e	-0.8851651
25	0xbe37c080	-0.17944527
26	0x3ecffb23	0.4062129
27	0xbdc570c2	-0.096406475
28	0xbd37f90c	-0.044915244
29	0xbd639eba	-0.055571295
30	0x3c71df3a	0.014762694
31	0xc0376d6d	-2.8660538
32	0xbfdca9b5	-1.723929
33	0xc0047f7e	-2.0702815
34	0xc0145e92	-2.318272
35	0x3ef4d6fe	0.47820276
36	0x3f53d7ad	0.8275097
37	0x3e37d3d1	0.17951895
38	0xbfa56e0b	-1.2924207
39	0x3f69079f	0.91027254
40	0xbe1dda73	-0.15415363
41	0xbe8966ee	-0.26836342
42	0x3c092750	0.008371189
43	0x3cb2e02f	0.021835415
44	0xbfb14ba0	-1.3851204
45	0x3f7021df	0.93801683
46	0xbeab6f96	-0.3348357
47	0xc0347adb	-2.8199985
48	0xbfb2b0f8	-1.3960257
49	0x3f821461	1.0162469
50	0x3bfd0dbd	0.007722585
51	0xbf452824	-0.77014375
52	0x3f748519	0.9551559
53	0x3f2e9088	0.6818929
54	0x3b8306af	0.0039985995
55	0x3f6e231a	0.9302231
56	0xbf78d59c	-0.9720094
57	0xbd82154d	-0.06351719
58	0x3f7396ed	0.9515217
59	0xbfc14672	-1.5099623
60	0xbf2179c4	-0.63076425
61	0xbffe1ebd	-1.985313
62	0xbf6ccb27	-0.92497486
63	0x3f31dc4e	0.69476783

critic_fc2.weight f4 [1, 64]
0	0xbfb6f0ae	-1.42922
1	0xbf4d2052	-0.8012744
2	0x3e827cde	0.2548589
3	0x3d969d71	0.07354248
4	0xc0af388c	-5.4756527
5	0x3ece1273	0.4024845
6	0x3d0d4301	0.034487728
7	0xbf32d8cf	-0.69862074
8	0xc0782b46	-3.8776412
9	0xc00af1ae	-2.171001
10	0xbf39b0c3	-0.7253534
11	0xbf8459a3	-1.0339855
12	0xbe7af7ae	-0.24508545
13	0xbf9a4bc2	-1.205437
14	0xbe1ab714	-0.15108901
15	0x3f7716dd	0.9651926
16	0xbe3c47f8	-0.18386829
17	0x3f6fee6e	0.9372319
18	0xbf90b8a5	-1.1306349
19	0xbcd6754a	-0.026178975
20	0xbdcebf6c	-0.100951046
21	0xbd9a2d11	-0.07528127
22	0xbd25ee23	-0.040510308
23	0xbe67acb5	-0.22624476
24	0x3de5d1e5	0.11221675
25	0xbc11c842	-0.008897843
26	0x3e397876	0.18112358
27	0xbe9b8b3a	-0.3037966
28	0xbd6cc0cb	-0.05780105
29	0xbf8281dc	-1.019588
30	0xbfbd337b	-1.4781336
31	0xc0b65577	-5.6979327
32	0xc04e5363	-3.2238395
33	0xc0447449	-3.0695975
34	0xc0329092	-2.7900739
35	0x3e3bda72	0.18345049
36	0x3f11d863	0.56970805
37	0x3b993538	0.0046755336
38	0xbfff3393	-1.9937614
39	0x3efefe76	0.49803513
40	0xbe9085a7	-0.2822697
41	0xbd3ec452	-0.046573944
42	0xbf8eb40f	-1.11487
43	0xbe835b41	-0.2565556
44	0xbfc4863e	-1.5353467
45	0x3ee0802e	0.43847793
46	0xbcc403a8	-0.023927525
47	0xc06835e0	-3.6282883
48	0xbfc2526a	-1.5181401
49	0x3f25f397	0.64824814
50	0xbf851e8e	-1.039995
51	0x3bead7f9	0.007166859
52	0x3f18ca12	0.59683335
53	0x3eb79cce	0.3586182
54	0xbf46bb64	-0.77629685
55	0x3f0228a4	0.5084326
56	0xbf29f87e	-0.66394794
57	0xbf823b0e	-1.0174272
58	0x3ef2bbfa	0.4740904
59	0xbf6df7f1	-0.92956454
60	0xbdf395ea	-0.11893828
61	0xc05b65e7	-3.4280946
62	0xbe265fff	-0.16247557
63	0x3ed3479b	0.41265568
