playground/classic_controls/cartpole/a2c/model.pth (torch, 5691 bytes, 7 tensors)

actor_fc1.weight f4 [64, 4]
0	0xbea72664	-0.32646477
1	0x3f3b3483	0.73127
2	0x3fe25868	1.768323
3	0x3f83ecec	1.0306678
4	0x3f5b9ac8	0.8578305
5	0x3ed8b580	0.42325974
6	0x3f84596b	1.0339788
7	0x3f30c74b	0.69054097
8	0x3f30011a	0.6875168
9	0x3f442d29	0.7663141
10	0x3fa4c33f	1.2872084
11	0x3f69a0e9	0.91261154
12	0x3f0ffc65	0.562445
13	0x3ebc387c	0.36761844
14	0x3f5756ec	0.8411701
15	0x3f1e5697	0.61850876
16	0xbd9cd675	-0.07658092
17	0xbc030b3b	-0.007998283
18	0x3e546b77	0.2074412
19	0x3e04b991	0.12961413
20	0x3dde4d64	0.10854605
21	0xbe1290ed	-0.14313097
22	0x3eae6f06	0.3406908
23	0xbe4b9690	-0.19881654
24	0x3ec1af94	0.37829268
25	0xbeb02db7	-0.34409878
26	0xbf8ff4c1	-1.1246568
27	0xbfac2836	-1.3449771
28	0xbd921d2c	-0.0713447
29	0x3e2f3cb4	0.17113
30	0xbf4477ae	-0.76745117
31	0x3e897d8c	0.26853597
32	0x3f3241c2	0.6963159
33	0x3e9f5f8f	0.31127593
34	0x3f14c323	0.58110255
35	0x3f25a3f4	0.647033
36	0xbe26d95f	-0.16293858
37	0xbf1a3e88	-0.60251665
38	0xbfa891e8	-1.3169527
39	0xbf5da200	-0.8657532
40	0x3f08aa14	0.5338452
41	0xbf1aab4e	-0.6041764
42	0xbf9fbf6b	-1.2480291
43	0xbfa63338	-1.2984381
44	0x3e71607d	0.23571964
45	0xbefe0302	-0.4961167
46	0xbf3c023f	-0.7344093
47	0xbf29e6dc	-0.6636789
48	0xbd4f13ee	-0.050556116
49	0x3d064561	0.03278101
50	0x3d99224e	0.07477246
51	0xbd6e91d8	-0.058244556
52	0x3efe1928	0.49628568
53	0x3ec0a356	0.37624615
54	0x3f21c943	0.63197726
55	0x3f11d7ec	0.56970096
56	0xbd09d23a	-0.033647753
57	0xbdcadb5e	-0.09905122
58	0xbedf4fb6	-0.43615502
59	0xbd92c05a	-0.071655944
60	0x3f417e59	0.75583416
61	0x3dd51e59	0.10406179
62	0x3f4d5e43	0.80221957
63	0x3ec3eed1	0.3826814
64	0x3f1d096f	0.6134252
65	0x3eeedc07	0.46652243
66	0x3f8c6eba	1.0971291
67	0x3f85f177	1.0464314
68	0x3e30f563	0.17281108
69	0x3dc21c1e	0.09478019
70	0x3fc5838c	1.543077
71	0x3f1650ff	0.5871734
72	0x3ee91bf1	0.4552913
73	0xbed76971	-0.42072633
74	0xbfba4fea	-1.4555638
75	0xbf70a00f	-0.9399423
76	0xbeb09417	-0.34487984
77	0x3f324336	0.69633806
78	0x3fe439a9	1.7830096
79	0x3f8e6f71	1.1127759
80	0x3ed69f81	0.41918567
81	0xbeaf9449	-0.3429282
82	0xbfbce2c4	-1.4756703
83	0xbf4ad3bb	-0.79229325
84	0xbe21dc50	-0.15806699
85	0xbc0dd079	-0.008655661
86	0xbf04ed0b	-0.519242
87	0x3f04911e	0.5178393
88	0xbe527dfd	-0.20555873
89	0x3f184e30	0.59494305
90	0x3f0b7732	0.5447875
91	0x3eb37b92	0.35055214
92	0xbf29dfc3	-0.6635706
93	0xbf8adb93	-1.0848259
94	0xbf20f7f4	-0.62878346
95	0xbebbb8b5	-0.36664358
96	0xbdd84da6	-0.10561685
97	0x3e0b1b4d	0.13584633
98	0xbeaa36b9	-0.33244875
99	0x3e810f63	0.25207052
100	0xbdcea901	-0.10090829
101	0x3c28645a	0.010277832
102	0xbf4da88e	-0.8033532
103	0xbec0c434	-0.3764969
104	0xbf4ebe18	-0.8075881
105	0xbf239861	-0.63904387
106	0xbfaeeb81	-1.366562
107	0xbe816482	-0.25271994
108	0xbdb70d67	-0.08938103
109	0x3e7b5ea2	0.24547818
110	0x3ec88ba8	0.3916905
111	0x3c983df3	0.018584227
112	0xbf113424	-0.56720185
113	0xbf2a031f	-0.6641101
114	0xbf817280	-1.0113068
115	0xbf09e0cc	-0.5385864
116	0x3e138034	0.14404374
117	0xbe9efdab	-0.31052908
118	0xbf833624	-1.0250897
119	0xbf7cfabb	-0.98820084
120	0x3bf622a7	0.007511455
121	0x3e58c1cf	0.21167682
122	0x3e613e4d	0.21996422
123	0xbd801321	-0.062536485
124	0x3c4ece3a	0.01262241
125	0x3cfc10fc	0.030769818
126	0xbeab80a1	-0.33496574
127	0xbe672ded	-0.22576113
128	0x3f0e581b	0.5560319
129	0xbecb6695	-0.397267
130	0xbfa2d2e1	-1.2720605
131	0xbfaa407b	-1.3300928
132	0x3c5d941b	0.013524081
133	0xbdcae845	-0.09907583
134	0xbf0868b3	-0.5328476
135	0xbefb0bf2	-0.4903255
136	0x3eccac4b	0.399752
137	0xbf0457d8	-0.5169654
138	0xbfbdce4b	-1.4828581
139	0xbf56ab37	-0.83855003
140	0x3e46c784	0.19412047
141	0x3e5a7f5b	0.21337645
142	0x3e21ca47	0.15799819
143	0x3e5f3eab	0.2180125
144	0x3f4de200	0.80422974
145	0x3f20ace2	0.627638
146	0x3f8869fa	1.0657341
147	0x3f2d4b36	0.6769289
148	0x3e074e29	0.1321341
149	0xbe85a4d8	-0.26102328
150	0xbfa4e062	-1.2880976
151	0xbfa59fbd	-1.2939373
152	0xbcf34b03	-0.029698854
153	0xbdcb0233	-0.09912529
154	0xbde728fd	-0.11287115
155	0x3ea31888	0.31854653
156	0xbda130c0	-0.078706264
157	0xbefd9e43	-0.49534807
158	0xbf92b368	-1.1461
159	0xbf8ae43c	-1.0850902
160	0xbe07919e	-0.13239142
161	0x3e177c92	0.14793614
162	0xbf04c2b8	-0.5185962
163	0x3eb77c16	0.35836858
164	0x3e9887c1	0.29791072
165	0x3d005d65	0.031339068
166	0xbf879d7d	-1.0594937
167	0xbe965d28	-0.29367948
168	0x3df9556a	0.121744946
169	0xbe0dc120	-0.13843203
170	0x3ec76e20	0.38951206
171	0xbc91758e	-0.01775625
172	0x3e245731	0.16048886
173	0xbe3eb94c	-0.18625373
174	0xbf8f309d	-1.1186711
175	0xbf55eb11	-0.8356181
176	0x3f38a7d7	0.72131103
177	0x3f472691	0.7779322
178	0x3fa229d0	1.266901
179	0x3f568806	0.83801305
180	0x3d61009a	0.054932214
181	0xbe6b7430	-0.22993541
182	0x3eba2219	0.3635414
183	0xbe68db14	-0.22739822
184	0x3ede4b36	0.43416756
185	0xbed9158c	-0.4239925
186	0xbfa13e0e	-1.2597063
187	0xbf9e0a6e	-1.2346933
188	0x3f20694b	0.62660664
189	0x3f5a6f8b	0.8532645
190	0x3fa228dc	1.2668719
191	0x3f6dfe82	0.92966473
192	0x3ef818af	0.48456332
193	0xbb7e0339	-0.0038759245
194	0x3f56abf0	0.83856106
195	0x3f053afb	0.5204312
196	0x3e29bc10	0.16575646
197	0xbe849f38	-0.25902724
198	0xbf049887	-0.5179524
199	0x3e972bd7	0.29525635
200	0xbd4ef3b3	-0.05052538
201	0xbe9aa712	-0.3020559
202	0xbfe1f32c	-1.7652335
203	0xbf7cd63f	-0.98764414
204	0x3dd05bad	0.10173736
205	0xbe38b611	-0.18038203
206	0x3ea83108	0.32849908
207	0x3d8256ae	0.06364189
208	0xbe1bbb12	-0.1520808
209	0xbe5d6e46	-0.21624097
210	0xbf9bddc7	-1.2177056
211	0xbf63aff7	-0.88940376
212	0x3e96ea0e	0.29475445
213	0xbe5e9358	-0.21735895
214	0xbebea253	-0.3723322
215	0x3ed950fe	0.42444605
216	0x3ec8d3ae	0.39224
217	0xbe42f1f7	-0.19037615
218	0xbdf77ca5	-0.12084321
219	0x3ce61206	0.028084766
220	0x3ef94015	0.48681703
221	0x3f0c0496	0.546945
222	0x3e910d30	0.28330374
223	0x3f2e202e	0.6801785
224	0x3ec204e0	0.37894344
225	0xbed9100a	-0.4239505
226	0xbfb2f36c	-1.3980536
227	0xbf8faf30	-1.1225338
228	0xbe7da50d	-0.24769993
229	0x3f2a27fd	0.6646727
230	0x3fae32dd	1.3609272
231	0x3f9b33c2	1.212517
232	0xbdf79293	-0.12088504
233	0xbe8c6467	-0.2742035
234	0xbff2dea0	-1.897419
235	0xbf6f79d9	-0.935453
236	0xbeb270d4	-0.34851706
237	0x3f43bc08	0.7645879
238	0x3f7128f6	0.94203126
239	0x3f8661c6	1.0498588
240	0x3d4816f9	0.048850033
241	0xbd8830f5	-0.06649963
242	0x3f17ed85	0.593468
243	0xbd7d58c9	-0.06185225
244	0xbdcc9b9d	-0.099906184
245	0x3e42d858	0.19027841
246	0xbf2d5194	-0.67702603
247	0xbf287cca	-0.65815413
248	0x3d545c0e	0.051845603
249	0xbdf41bb8	-0.119193494
250	0xbb84aaa3	-0.004048662
251	0x3e431eee	0.19054767
252	0xbea7f9cc	-0.32807767
253	0xbe984d58	-0.2974651
254	0xbf875316	-1.0572231
255	0xbf2a0765	-0.66417533

actor_fc1.bias f4 [64]
0	0x3eaaece1	0.3338385
1	0x3f07fcbe	0.5312003
2	0x3f134b6e	0.5753697
3	0x3eeee6ef	0.46660563
4	0xbe9a9092	-0.30188423
5	0xbef1f73a	-0.4725893
6	0x3c66016f	0.014038428
7	0xbec515cf	-0.384932
8	0x3f03fa48	0.51553774
9	0x3ea85c15	0.32882753
10	0x3dd0896a	0.1018246
11	0x3d6426ee	0.05570119
12	0xbed3dac7	-0.4137785
13	0x3ec3c241	0.3823414
14	0xbec54a57	-0.3853328
15	0x3f16a878	0.5885081
16	0x3edb19e2	0.42793185
17	0x3e2b405c	0.1672377
18	0x3c473039	0.012157493
19	0x3ed0e94e	0.40802997
20	0x3d3b39ce	0.045709424
21	0xbeb48288	-0.35255837
22	0xbed49ff5	-0.41528288
23	0x3e8e897a	0.2783926
24	0xbe9ddd96	-0.3083312
25	0xbed0402c	-0.4067396
26	0x3eb18852	0.34674317
27	0xbf45e450	-0.773015
28	0x3ebec589	0.37260082
29	0xbdcd17ef	-0.100143306
30	0xbf04d0dd	-0.518812
31	0xbe9571d5	-0.2918841
32	0x3dca57fa	0.098800614
33	0xbeb11f4e	-0.34594196
34	0x3de7da56	0.11320941
35	0x3e04aea5	0.12957247
36	0x3f1d9a85	0.61563903
37	0x3eaba1cb	0.33521876
38	0xbea2f5e1	-0.31828216
39	0x3e95f7c7	0.29290602
40	0xbeee6d69	-0.46567848
41	0xbe832942	-0.25617415
42	0xbe8954c7	-0.26822492
43	0xbd6e5750	-0.058188736
44	0x3f1557d9	0.5833717
45	0xbed667a8	-0.41875958
46	0x3c27a4a5	0.010232125
47	0x3f18c94c	0.59682155
48	0x3e4e5bbd	0.20152183
49	0xbef7ef2c	-0.4842466
50	0x3ea59d48	0.3234656
51	0xbef08c2d	-0.46981946
52	0x3db13391	0.08652414
53	0xbee2c364	-0.44289696
54	0xbf1f3232	-0.62185967
55	0x3eba8642	0.36430556
56	0x3c0aee71	0.0084797
57	0x3eb81e72	0.35960728
58	0x3e819c4a	0.25314552
59	0x3e94eba0	0.29086018
60	0xbe497eaf	-0.19677232
61	0xbed9770f	-0.42473647
62	0xbf424079	-0.7587963
63	0x3e1ea030	0.15490794

actor_fc2.weight f4 [2, 64]
0	0xbeb10185	-0.34571472
1	0xbf1c97d6	-0.61169183
2	0xbf648141	-0.89259726
3	0xbedcada2	-0.4310122
4	0xbdf79d53	-0.12090554
5	0x3d91d25d	0.07120202
6	0x3e395dac	0.18102139
7	0x3cb504d1	0.022097023
8	0xbedfb233	-0.43690643
9	0x3f084210	0.53225803
10	0x3ec9fc14	0.39450133
11	0x3e282233	0.16419296
12	0x3e47cf90	0.19512773
13	0xbe505d56	-0.20348105
14	0xbd1f3dd4	-0.038877323
15	0xbe383da0	-0.17992258
16	0xbefd3d59	-0.49460867
17	0xbdef8f29	-0.116972275
18	0x3e7cb2b5	0.24677546
19	0xbf38cfc7	-0.72192043
20	0x3e0b6b01	0.13615038
21	0x3a91b529	0.0011116612
22	0x3d9d3a60	0.0767715
23	0x3f0c070b	0.54698247
24	0x3d373d1b	0.04473601
25	0x3e41a1c3	0.18909363
26	0x3ef5dcbb	0.48019966
27	0x3d679bad	0.05654495
28	0x3f303624	0.6883261
29	0x3e254cc6	0.16142568
30	0x3e02bf92	0.12768391
31	0x3c6b1675	0.014348616
32	0x3ecbef56	0.39831036
33	0x3db7436a	0.08948405
34	0x3ed1dc1b	0.4098824
35	0xbd54e078	-0.051971883
36	0xbec4dc1e	-0.38449186
37	0x3eb3f86a	0.35150462
38	0x3b8ce81e	0.0043001315
39	0x3ea11f5e	0.31469244
40	0xbbbb3b5e	-0.005713864
41	0x3d311a78	0.043238133
42	0x3d31d6eb	0.043417852
43	0x3e872e6c	0.26402605
44	0xbf24321f	-0.6413898
45	0x3c021096	0.007938525
46	0x3ec6ec5a	0.38852197
47	0xbf292296	-0.660684
48	0xbea95967	-0.3307602
49	0xbdac6955	-0.08418528
50	0x3eafc6b5	0.3433129
51	0x3da1971f	0.07890152
52	0x3e1e7cf0	0.15477347
53	0xbbf5027f	-0.007477104
54	0x3d8824e0	0.06647658
55	0xbee1b9a1	-0.44086936
56	0x3eb0de30	0.34544516
57	0xbee3d51f	-0.44498536
58	0x3e94bc44	0.29049885
59	0xbe77e1fb	-0.24207298
60	0x3daffca7	0.085931115
61	0x3e499655	0.19686253
62	0x3dd7ffe5	0.10546855
63	0x3e3b9136	0.18317112
64	0x3eb54d48	0.35410523
65	0x3f47004c	0.7773483
66	0x3f4ea635	0.8072236
67	0x3ed82bc2	0.42220885
68	0xbda715da	-0.08158465
69	0x3c0c6ea2	0.008571299
70	0xbe8d3dbc	-0.27586162
71	0x3d3e915d	0.046525348
72	0x3ecb50f5	0.39710203
73	0xbf02cd3a	-0.510944
74	0xbe9b15f2	-0.3029018
75	0xbe1401c0	-0.14453793
76	0xbe37f0b0	-0.17962909
77	0x3e85a3f4	0.2610165
78	0xbd2d131e	-0.04225456
79	0x3eab5481	0.3346291
80	0x3f0aa98c	0.5416496
81	0x3ccbb74d	0.024867678
82	0xbe3b597e	-0.18295857
83	0x3f0391b6	0.5139421
84	0xbe8cc66b	-0.2749513
85	0xbd09e62b	-0.03366677
86	0x3ddcf3b9	0.10788674
87	0xbf1cfcba	-0.6132313
88	0x3d5a8338	0.053347796
89	0xbe34261d	-0.17592664
90	0xbf17bd69	-0.5927339
91	0xbe875db1	-0.26438668
92	0xbf1b3983	-0.6063463
93	0xbe31da8c	-0.17368525
94	0x3de053f9	0.109535165
95	0x3db41156	0.08792369
96	0xbee7a7bb	-0.45245156
97	0xbda9cfeb	-0.0829161
98	0xbe9fa559	-0.31180838
99	0x3db48327	0.08814078
100	0x3ebb84ae	0.36624664
101	0xbe97b8a4	-0.29633057
102	0x3d3745ef	0.04474443
103	0xbeabb6d1	-0.33537915
104	0xbce2f266	-0.027703475
105	0xbe20be99	-0.15697707
106	0x3bc1e538	0.0059172176
107	0xbe2614a9	-0.16218819
108	0x3f29a36f	0.66265005
109	0x3cac970d	0.02106812
110	0xbe21cbaf	-0.15800355
111	0x3ef15682	0.47136313
112	0x3e1ba96c	0.15201348
113	0x3c87b488	0.016565576
114	0xbe646035	-0.22302325
115	0x3a5d12af	0.0008433265
116	0xbe943c2a	-0.28952152
117	0x3d421844	0.047386423
118	0xbe14ce8d	-0.14531918
119	0x3e97874f	0.2959542
120	0xbeb1d7f2	-0.34735066
121	0x3ede53fb	0.43423447
122	0xbe71c684	-0.23610884
123	0x3ea86a94	0.32893813
124	0xbd86acc8	-0.06575924
125	0xbe3f2040	-0.18664646
126	0x3dd4ceeb	0.10391029
127	0xbe919377	-0.2843282

actor_fc2.bias f4 [2]
0	0xbd74912b	-0.059708755
1	0x3c9552dd	0.018227989

critic_fc1.weight f4 [64, 4]
0	0x3e9a6e69	0.3016236
1	0x3ede303b	0.43396172
2	0x3f3e0c20	0.7423725
3	0x3d9fd16e	0.078036174
4	0xbd1d5d07	-0.038418796
5	0x3f5c7c24	0.86126924
6	0x3fb4e188	1.4131327
7	0x3f29825f	0.66214556
8	0x3eb67133	0.3563324
9	0x3d70461e	0.05866062
10	0x3f06d0b7	0.52662224
11	0xbebe0806	-0.37115496
12	0x3f79077a	0.97277033
13	0x400fb6af	2.2455251
14	0x4005b975	2.0894444
15	0x3fc65125	1.5493513
16	0x3e8274ba	0.2547968
17	0xbe0fac2e	-0.14030525
18	0xbed130ea	-0.4085763
19	0xbe1cd3d8	-0.15315187
20	0xbe0b2832	-0.13589552
21	0xbc5bbe52	-0.013412075
22	0x3f0a8782	0.5411302
23	0x3edb240f	0.42800948
24	0x3eb9b9e2	0.3627463
25	0x3dd0c2a4	0.10193375
26	0xbd4c4691	-0.049871985
27	0xbe949eb4	-0.2902733
28	0xbf0ef880	-0.5584793
29	0xbd94eb1d	-0.07271407
30	0xbf66eda3	-0.90206355
31	0x3e8b6f8a	0.27233535
32	0xbeb4e32d	-0.3532957
33	0x3e8cf281	0.27528766
34	0x3f642987	0.89125866
35	0x3edfeae4	0.43733895
36	0xbe81d1b0	-0.2535529
37	0x4000408e	2.00394
38	0x40201aad	2.5016282
39	0x3fb20faa	1.391103
40	0xbfd1b256	-1.6382549
41	0xbf893aba	-1.0721047
42	0xbfcd9c02	-1.6063235
43	0xbf3eb531	-0.74495226
44	0xbcc83bbb	-0.024442544
45	0xbd162e9f	-0.036665555
46	0x3e81f31d	0.25380793
47	0x3e9e727c	0.3094672
48	0x3ecd4e22	0.40098673
49	0x3ca45275	0.02005885
50	0xbe2d2227	-0.1690756
51	0x3e9dd7d2	0.3082872
52	0x3f4c6d2d	0.7985409
53	0x3f94f8fa	1.1638482
54	0x3fbc7443	1.472298
55	0x3f464a39	0.77457005
56	0xbeb958c7	-0.36200544
57	0xbef21719	-0.47283247
58	0xbfe37be6	-1.7772186
59	0xbe7e2068	-0.2481705
60	0x3ec8e41f	0.39236543
61	0x3f82d690	1.0221729
62	0xbdc5d677	-0.096600465
63	0x3e865099	0.26233366
64	0x3f3021e7	0.6880173
65	0x3f440ed2	0.76585114
66	0x3f61557a	0.8802105
67	0x3f082f1a	0.5319687
68	0x3e73c57a	0.238058
69	0x3e3f0cf5	0.18657286
70	0x3eeedd93	0.46653423
71	0xbe48c1a1	-0.19605114
72	0xbdd57758	-0.10423154
73	0x3e5ee9b4	0.21768838
74	0xbd6397de	-0.055564754
75	0x3e766e2c	0.24065465
76	0x3e9d9dab	0.30784354
77	0x3e4c47a8	0.1994921
78	0x3eb7bd55	0.35886636
79	0x3c26f614	0.010190506
80	0x3ed99334	0.4249512
81	0xbce9f4ac	-0.028559051
82	0x3f19b088	0.6003499
83	0xbe2e1201	-0.16999055
84	0x3f4ceff2	0.8005363
85	0x3ddbf1b6	0.10739462
86	0xbdbbadce	-0.0916401
87	0x3e927b8e	0.2860989
88	0xbe12593d	-0.14291854
89	0x3e68bd3a	0.22728434
90	0xbf031869	-0.5120912
91	0x3ee0148f	0.43765685
92	0xbf56846a	-0.837958
93	0xbee996d5	-0.45622888
94	0xbfb35cca	-1.4012692
95	0xbeb5af29	-0.354852
96	0x3ebe279a	0.3713959
97	0x3f679b10	0.9047098
98	0x3fd0ed12	1.6322348
99	0x3f0c9a90	0.54923344
100	0x3fc823d3	1.5635933
101	0x3c1489aa	0.009066025
102	0xbfbd5d29	-1.4794055
103	0xbe0dabbe	-0.13835046
104	0x3d76ad52	0.060223885
105	0x3e232c12	0.1593478
106	0xbd301be2	-0.04299534
107	0x3f1fa9da	0.6236855
108	0xbd65d2a1	-0.056109075
109	0x3f04ca03	0.51870745
110	0xbe3df257	-0.18549477
111	0x3f5eb286	0.86991155
112	0x3fbc2dac	1.4701438
113	0xbe97a1ce	-0.29615635
114	0xbedbf616	-0.42961186
115	0xbe65a03c	-0.22424406
116	0x3f9586d0	1.1681767
117	0xbcfb278a	-0.030658502
118	0xbfa6812e	-1.3008173
119	0xbdb2a88d	-0.08723555
120	0xbe935879	-0.28778437
121	0x3ed6844a	0.41897804
122	0x3f390460	0.722723
123	0x3edd3981	0.43207934
124	0x3f1188e4	0.56849504
125	0xbdb097f7	-0.08622735
126	0x3e935762	0.28777605
127	0x3e50858e	0.20363447
128	0xbf22be81	-0.63571936
129	0xbf08a9a4	-0.5338385
130	0xbfc63a9b	-1.5486635
131	0xbea70eb3	-0.32628402
132	0x3f544fb1	0.829341
133	0xbd420a88	-0.047373325
134	0xbf224b2f	-0.6339597
135	0x3c8a08d1	0.016849907
136	0x3d35bd66	0.044370078
137	0xbe849bca	-0.25900108
138	0xbf34a846	-0.70569265
139	0xbe5ca7a3	-0.21548323
140	0x3f258019	0.64648587
141	0xbe81c818	-0.25347972
142	0xbec797c6	-0.3898298
143	0x3e5442ec	0.20728654
144	0xbbd46267	-0.006481457
145	0x3e011727	0.12606488
146	0x3f377f35	0.7167848
147	0x3c63c536	0.013901999
148	0xbf5edaed	-0.87052804
149	0xbd6c60db	-0.057709556
150	0xbee8aa12	-0.45442253
151	0x3e4fcdfd	0.20293422
152	0x3f0e1383	0.5549852
153	0xbe5ed8eb	-0.21762435
154	0x3f2868b6	0.65784776
155	0xbe8610c8	-0.26184678
156	0x3ee3ddb9	0.44505098
157	0x3e205afa	0.15659705
158	0xbe3dd764	-0.18539196
159	0xbd5ba062	-0.05361975
160	0x3f6de8ed	0.9293354
161	0x3f6080c3	0.87696475
162	0x3fc3cbb6	1.5296543
163	0x3f29cfc6	0.6633266
164	0x3f6c5775	0.9232095
165	0xbbdb6ac3	-0.0066960766
166	0x3e7a42a8	0.2443949
167	0xbe24cd61	-0.16093971
168	0xbf473214	-0.7781079
169	0xbe1873a0	-0.14887857
170	0x3ea8f39c	0.3299836
171	0xbdc03d69	-0.09386713
172	0xbc243be3	-0.010024044
173	0x3d91ec18	0.071251094
174	0xbe665879	-0.22494687
175	0x3b7a8035	0.003822339
176	0x3ee2879f	0.44244096
177	0x4009cf9d	2.1532967
178	0x4011b101	2.2764285
179	0x3fbd285a	1.4777939
180	0x3edbda0d	0.42939797
181	0xbf569a01	-0.8382874
182	0xbe589491	-0.21150424
183	0xbeeb91b8	-0.46009612
184	0x3e350554	0.17677814
185	0xbe8b6952	-0.2722879
186	0x3e86f19b	0.26356205
187	0xbe6fb09a	-0.23407212
188	0x3fcaed58	1.5853682
189	0xbe0709cb	-0.1318733
190	0xbf9ed19e	-1.240772
191	0xbe3109d3	-0.17288904
192	0x3ef7754d	0.4833168
193	0xbe109815	-0.14120515
194	0x3f32f194	0.6989987
195	0xbe4d6d56	-0.2006124
196	0xbde93856	-0.11387698
197	0xbee6452d	-0.44974652
198	0xbf764f29	-0.9621454
199	0xbec98ec2	-0.39366728
200	0xbe4d3145	-0.20038326
201	0x3e36f4a4	0.1786676
202	0xbb8f947b	-0.004381714
203	0xbdf009a1	-0.117205866
204	0x3e8e4266	0.27785033
205	0x3fa3c50a	1.2794507
206	0x4010237d	2.252166
207	0x3f5425c8	0.8287015
208	0x3f235845	0.63806564
209	0xbf054122	-0.5205251
210	0x3eac2df5	0.33628812
211	0xbe9c592d	-0.30536786
212	0x3c1cd28d	0.009571684
213	0x3f0acb6b	0.5421664
214	0xbe8d1a82	-0.27559286
215	0x3f02ac4f	0.5104417
216	0xbf58f67d	-0.8475111
217	0x3e03a9dd	0.12857766
218	0xbe111d39	-0.14171304
219	0x3d962023	0.07330348
220	0x3f0a6271	0.5405646
221	0x3e7b1825	0.24520929
222	0xbeb58ac5	-0.35457435
223	0x3dd3cbfe	0.10341643
224	0xbf8fa21e	-1.1221349
225	0x3e84094e	0.2578835
226	0xbf19857c	-0.59969306
227	0x3d2c9fbf	0.042144533
228	0xbc8a9a92	-0.016919408
229	0xbb189a96	-0.00232855
230	0x3f95e7d2	1.1711371
231	0x3dfe486a	0.12416156
232	0x3f1df8e1	0.61707884
233	0xbe4011a1	-0.18756725
234	0xbe0d6591	-0.13808276
235	0x3f0ddcaa	0.5541483
236	0x3f103e5f	0.5634517
237	0xbea4aec0	-0.32164574
238	0x3dc74ea3	0.09731796
239	0x3ecb8260	0.39747906
240	0x3f0a749b	0.54084176
241	0xbe25eba0	-0.16203165
242	0xbef19d2b	-0.47190222
243	0x3f0a2bc8	0.53973055
244	0x3dc5daae	0.096608505
245	0xbcf01600	-0.029307365
246	0x3e46039f	0.19337319
247	0x3e072750	0.1319859
248	0x3f4959e6	0.786528
249	0xbf204ef1	-0.62620455
250	0x3e987ce2	0.29782778
251	0x3edbfcfa	0.42966443
252	0xbf4118af	-0.7542829
253	0x3e66e440	0.22548008
254	0x3e813673	0.25236854
255	0x3e02d7f3	0.1277769

critic_fc1.bias f4 [64]
0	0x3fb3c181	1.4043428
1	0x3f34463c	0.7041967
2	0x3fd83aef	1.6892985
3	0xbe18bbe1	-0.1491542
4	0xbf3129ee	-0.69204605
5	0x3e8d6b4a	0.27620918
6	0x3f9e0039	1.2343818
7	0xbed6d569	-0.41959694
8	0x3ef8cc59	0.48593405
9	0x3f67941a	0.9046036
10	0x3d36f885	0.0446706
11	0xbecff4bb	-0.40616402
12	0x3fc529b3	1.540335
13	0x3f10bc79	0.56537586
14	0xbe6cbacd	-0.23118134
15	0xbef2fbf2	-0.47457844
16	0x3eae0ac1	0.3399258
17	0x3f43f886	0.7655109
18	0xbf0df223	-0.55447596
19	0x3fd175a4	1.6364026
20	0x3fc8b43d	1.5680004
21	0xbd5982d5	-0.053103287
22	0xbeeaeadc	-0.45882308
23	0xbc0fcceb	-0.008776884
24	0x3f2878c0	0.6580925
25	0xbe4fea43	-0.20304208
26	0xbf412201	-0.7544251
27	0xbe27b1eb	-0.16376464
28	0xbe6a942a	-0.22908083
29	0xbe5b0280	-0.21387672
30	0xbefce960	-0.493968
31	0x3fc1e6c6	1.5148551
32	0x3a2a6eec	0.0006501514
33	0x3f818f15	1.012179
34	0xbecb82df	-0.39748284
35	0x3fc7a121	1.5596048
36	0xbed7968c	-0.42107046
37	0xbe76c7d0	-0.2409966
38	0x3fcc3d19	1.5956146
39	0x3f860357	1.0469769
40	0x3f1c3116	0.610124
41	0x3f74471c	0.95421004
42	0xbed8d57d	-0.4235038
43	0xbe1a43ee	-0.15064976
44	0xbdbfe283	-0.093693756
45	0x3fb87d01	1.4413148
46	0x3fd10f43	1.6332783
47	0xbe785317	-0.24250446
48	0x3fb9fff3	1.4531235
49	0xbea24e01	-0.31700137
50	0xbf03f01c	-0.5153825
51	0x3f3f5ed4	0.7475407
52	0x3fb81b5d	1.4383351
53	0x3e967116	0.29383153
54	0xbeb37471	-0.35049775
55	0xbda7debd	-0.08196781
56	0xbe6fdea1	-0.2342477
57	0xbf15b0d6	-0.58472955
58	0x3f8037da	1.0017045
59	0x3fc10e09	1.5082408
60	0x3fb845af	1.4396266
61	0xbf442e9a	-0.7663361
62	0x3fa12546	1.25895
63	0xbf0d9bdb	-0.5531594

critic_fc2.weight f4 [1, 64]
0	0x3dc4ba53	0.09605851
1	0x3f53784a	0.8260542
2	0x3f0f1a37	0.55899376
3	0xbffc607f	-1.9716948
4	0x3dfed69d	0.12443278
5	0xbdc0175b	-0.09379455
6	0x3e3d4670	0.18483901
7	0x3e2c8df0	0.1685102
8	0xbe8003cd	-0.250029
9	0xbfec002b	-1.8437551
10	0xbfdd8029	-1.7304736
11	0x3dbb9f50	0.09161246
12	0x3e79644d	0.24354668
13	0x3f893db3	1.0721954
14	0xbe63a728	-0.22231734
15	0xbf03dc3a	-0.51507914
16	0x3f64b1b7	0.8933367
17	0xbe642b27	-0.22282086
18	0x3d55f176	0.05223223
19	0x3e978ab8	0.29598022
20	0x3f02c20a	0.5107733
21	0xbe723e74	-0.23656636
22	0x3e41f5b3	0.18941383
23	0xbedeffe6	-0.4355461
24	0x3f862e64	1.0482907
25	0xbf1182b5	-0.5684007
26	0x3df7d64f	0.12101423
27	0xbe050943	-0.12991814
28	0xbeb90357	-0.3613536
29	0xbeb03a1c	-0.34419334
30	0xbd0120d3	-0.031525444
31	0x3e816bc9	0.25277546
32	0xbf03aa44	-0.5143168
33	0xbab12b29	-0.0013516891
34	0x3e1a49be	0.15067193
35	0x3ea77a76	0.32710618
36	0x3e0d9da6	0.1382967
37	0x3caf5417	0.021402402
38	0x3f2a474f	0.6651506
39	0xbe0171af	-0.12641023
40	0x3f6e9a1a	0.9320389
41	0x3e7ee325	0.24891336
42	0x3e10d956	0.14145407
43	0xbcf12333	-0.02943573
44	0xbfe5b9a7	-1.7947282
45	0x3f857662	1.0426753
46	0x3f3d51d6	0.73952997
47	0xbeed6183	-0.46363458
48	0x3f06d9b3	0.5267593
49	0xbe22ad3b	-0.15886395
50	0xbc9fa5d1	-0.019488247
51	0xbf8f8afc	-1.121429
52	0x3f1dbf80	0.6162033
53	0xbcde3166	-0.027123164
54	0x3d9847c9	0.07435567
55	0xbe86a43c	-0.26297176
56	0xbd703a6d	-0.05864947
57	0xbe256425	-0.16151483
58	0xbdacb126	-0.08432226
59	0x3e3cb84b	0.18429677
60	0x3d8c3d83	0.0684767
61	0x3e8c9e68	0.27464604
62	0x3dc27be0	0.094962835
63	0x3e9c40db	0.3051823
