playground/classic_controls/discrete/cartpole/dqn/model.pth (torch, 3283 bytes, 4 tensors)

net.0.weight f4 [64, 4]
00000000: 984c 4b3c 1cd9 873d 8293 cc40 f16f 093f
00000010: c803 e23d 9759 d7bd 6793 20bf 63a1 3ebe
00000020: 777f 3abe 053b 4fbe 59ea 24be c1a3 c8be
00000030: 6fd4 92be 09ef 4f3d cd68 0c3f 0ddd ab3e
00000040: cf1f 8c3d 4d7b 1f3e 93e5 64bf e4f2 efbd
00000050: 628f cd3d 8a65 1d3e bd7a 11bf 764b 323d
00000060: 0fc9 fdbc 06b2 7fbc 5e77 9cc0 b545 25bf
00000070: 3099 323f 2025 94be c6e6 debf c4fe 34be
00000080: bf72 14be e947 693d ecea 0bbf a2d5 80be
00000090: 48c6 a73e d6b9 babe 4047 10c0 59cf 55bf
000000a0: 3dd6 9e3d 5ae6 46bd 014a d940 05f9 1e3f
000000b0: 232b 91bd 8a74 753d 8fdc d540 3dc8 893e
000000c0: 108c 1ebd 5ad6 80bd 7225 b8c0 a5d4 47bf
000000d0: bed2 84bf 0ef2 903e 01ba 7840 ca88 5b3f
000000e0: 365e 1c3e dbf8 1f3e 9b62 75bf e531 e13c
000000f0: 3acf 11bd a505 6f3c 2eed 0341 736d 733f
00000100: 0552 ba3e 1660 1dbe 8455 9bc0 3701 32bf
00000110: 285d b3be 7abe cc3e 9b31 b83e 252c 2c3f
00000120: 7b8a 8cbd da08 17be 23f6 edc0 0dd8 5cbf
00000130: 665e 8cbd 3733 5abd 0a6a b1c0 551c fabe
00000140: 3f98 41bd 947e ad3d 0cf7 ed40 0605 613f
00000150: fb26 dbbd 2ff6 a23c 7cba ddc0 8ae1 41bf
00000160: 16bf 0e3f 7e6d f0be 256d d3c0 4aab 5fbf
00000170: b5cc 0abe 3b14 ffbd e0da e7c0 c433 87bf
00000180: 72e9 95be 05ec f83e d5d5 e63f 02f7 673f
00000190: 3909 703c a9a7 4ebc 5fde 48bf d79d 843d
000001a0: 22cf 03be dd6b 043e c13a 82bf cc97 813e
000001b0: 8b77 6fbe d31d 0d3e e3fa d7c0 1e52 1cbf
000001c0: 46b4 b03e 8b90 a8be 7792 dabe 49c9 afbe
000001d0: 2596 cf3c 2488 6c3e 4a96 05bf c536 513e
000001e0: ce67 2b3d cfd0 64bd efb9 c8c0 930a 7abe
000001f0: e7ef 26bf 5e55 eabe a110 67c0 2aae 1abf
00000200: 0f35 86be 3bcc 32be 6170 9e3c 5d3d 03be
00000210: e76b 153e ac1b 113e f671 dcbe 3d26 203e
00000220: 8e8b bb3f 5a75 e13e 6130 523f acb4 483e
00000230: 7fee c3bd 054e f13d 418a 4fbf 2bb0 52be
00000240: fc04 683d 0819 c6bd 1df1 d640 444b 323f
00000250: ce09 c43d 7712 923e 24f8 c8be 6111 753e
00000260: 0d3d fd3e db43 5dbe 359c 8ec0 5d2d 29bf
00000270: 0a6d 693e 0e3b 5dbe f37d e7be d948 363d
00000280: 29ed e3bd 7e4a dd3e 66a5 01bb 4625 a33e
00000290: 6521 4abe 9678 b13e 446d 10bf b764 5e3e
000002a0: cf8b 15be 4027 a03e 91e5 34bf 326e 0d3e
000002b0: a582 f3be 9c9e 2d3e 01ee f940 a79f 913f
000002c0: e6f5 3b3d dfb8 20bd 28e6 b0be b3ff a4bc
000002d0: 9bf7 283e 7ad1 88be 6601 6bbf 3951 81be
000002e0: 1343 09bc 8b92 163c 27e8 c740 c71e 373f
000002f0: d559 e6bd e82c 0abe a44e 37bf 793e a2bd
00000300: 68d7 acbc 1f58 2a3d 25c9 9440 2885 573f
00000310: d00b 27bb 8890 69bd 2b9c b9c0 9eea 28bf
00000320: 4b8f 583d 7666 91bd 73c2 c2c0 41a3 b7be
00000330: e360 16be 22f6 2abe 4008 79be 67e6 a03c
00000340: 805e 8bbd 535f f8bc 6d1d 2e3e 820c 1dbd
00000350: e506 193f 64a8 1ebe b0e1 1ec0 9129 f3be
00000360: cb06 a23e 7ecd 9abe 7112 2fc0 19b0 42bf
00000370: 17eb 8bbe 71a7 083e b7f8 32be f284 13be
00000380: 999e 883e 1e64 00be 532e a2be 5ce5 233e
00000390: 3618 ac3b cfa1 84bc 815b c7c0 bfe0 eabe
000003a0: 5168 453e 9bd7 efbd ad77 17be 075d 8ebe
000003b0: 23b9 0dbc 38a3 a3bd bae8 9cc0 2818 41bf
000003c0: 1e59 283d 1fa2 febd c18e c3be 2434 a3be
000003d0: 7238 e13e 3913 2abd 908e 27bf c321 54be
000003e0: 892e a93f 1c0e 67bf 665e 3cbf d799 4abf
000003f0: 8291 013f 8adf 8dbe 0a7e 1fbe 5db6 3abe
0.012408398 0.06633207 6.3930063 0.53686434 0.110358775 -0.10515135 -0.6272492 -0.18616252
-0.18212686 -0.20237358 -0.16105022 -0.39187434 -0.286777 0.05076507 0.54847413 0.33567086
0.068420045 0.1557438 -0.894128 -0.117162496 0.10037114 0.15370765 -0.5682791 0.043528996
-0.030979661 -0.015606409 -4.889571 -0.6455949 0.69764996 -0.28934574 -1.7414176 -0.1767531
-0.14496897 0.056953344 -0.5465534 -0.2516299 0.32768464 -0.36469907 -2.2543488 -0.8351951
0.077557065 -0.048559524 6.7902837 0.62098724 -0.07088306 0.059925593 6.6831737 0.26910582
-0.038707793 -0.06290884 -5.754571 -0.78058845 -1.0376813 0.28309673 3.8863528 0.857556
0.15270314 0.15622275 -0.95853585 0.027489612 -0.035598017 0.014588748 8.245405 0.9508888
0.363907 -0.15368685 -4.854189 -0.69533104 -0.3503201 0.39989072 0.35975346 0.6725486
-0.068623506 -0.1474947 -7.436296 -0.8626717 -0.068539426 -0.0532715 -5.544194 -0.4884974
-0.047264334 0.084714085 7.436407 0.8789829 -0.10700794 0.01989278 -6.929014 -0.7573477
0.55760324 -0.46958536 -6.6070733 -0.8737074 -0.13554652 -0.124550305 -7.245468 -1.0562673
-0.29279667 0.4861757 1.8034006 0.9061128 0.014650636 -0.0126132155 -0.7846431 0.06475418
-0.12871984 0.12931772 -1.017418 0.25311124 -0.23385446 0.13780908 -6.749376 -0.610628
0.34512538 -0.32922778 -0.4268987 -0.34333256 0.02534015 0.23098809 -0.5218245 0.20431049
0.041847043 -0.055863198 -6.272697 -0.24418096 -0.6520981 -0.45768255 -3.61039 -0.60422003
-0.26212355 -0.1746072 0.019340696 -0.12816377 0.14591943 0.14170712 -0.43055695 0.15639587
1.4651964 0.44034845 0.8210507 0.19600171 -0.09566974 0.11782459 -0.81070334 -0.20575015
0.05664538 -0.09672743 6.716933 0.69646096 0.095721826 0.28529713 -0.39251816 0.23932411
0.4946064 -0.21607916 -4.4565682 -0.66084844 0.22795501 -0.21604559 -0.4521328 0.044503067
-0.11129219 0.43220896 -0.0019782423 0.31864375 -0.19739302 0.34662312 -0.56416726 0.21718107
-0.14604114 0.31279945 -0.7066279 0.13811567 -0.4756061 0.16955036 7.810303 1.1376847
0.045888804 -0.039238807 -0.34550595 -0.020141458 0.16500704 -0.26722318 -0.9179901 -0.2525728
-0.008377808 0.009190212 6.247089 0.7153134 -0.11247603 -0.13493693 -0.7160437 -0.07922072
-0.021098807 0.041587945 4.649554 0.84187555 -0.0025489219 -0.0570226 -5.8003135 -0.65983
0.05287103 -0.07099621 -6.0862365 -0.3586674 -0.14685397 -0.16695455 -0.24319553 0.019641114
-0.06805134 -0.030318892 0.17003413 -0.038342007 0.59776145 -0.15493923 -2.4825249 -0.4749265
0.31645808 -0.30234903 -2.7355006 -0.76049954 -0.27327797 0.13345124 -0.1747769 -0.14406183
0.266835 -0.12538192 -0.31675968 0.16005462 0.0052519096 -0.016190438 -6.22992 -0.45874593
0.19278075 -0.11711045 -0.14791746 -0.2780535 -0.008650097 -0.07990116 -4.903409 -0.75427485
0.041100614 -0.12433266 -0.3819485 -0.31875718 0.43988377 -0.04152224 -0.6545191 -0.20716004
1.3217326 -0.90255904 -0.7358154 -0.7914099 0.5061265 -0.2770961 -0.15575424 -0.18233629

net.0.bias f4 [64]
00000000: e234 c7bf 0e1d 8f3f 348f ad3f f961 903f
00000010: 4b41 a53f de97 4d3f a5bc b3bf f4e2 1e3f
00000020: 67da a33f 9e00 b63f 969c cdbf a5a1 b6bf
00000030: a4cc d6bf 56c6 fdbf a426 7b3f ab3d c5bf
00000040: 05c0 9b3f 2a82 303f 3b0e bebf cbf9 afbf
00000050: 008b d1bf dd60 adbf 00cf a2bf 75f8 d5bf
00000060: d4d7 af3f 7c30 713f 7516 663f e8f5 96bf
00000070: 6ab9 883f b6c4 483f 40b5 a2bf 746a fdbe
00000080: 85a0 a83f df95 863f 8c99 a6bf dfc7 a13f
00000090: e340 bbbf 97f2 913f f73e 993f 4dbe a43f
000000a0: f091 933f 87ee 713f 4b3d 7c3f 94ed e4bf
000000b0: 4ac6 bbbe 5a50 8f3f 76b9 c7bf b956 803f
000000c0: 1965 cdbf 4051 aabf d558 a0bf 4d60 923f
000000d0: 724b d2be fd50 62bf 5278 b33f dc79 643f
000000e0: c4fc ab3f 17ae a8bf 68f1 763f 4eea bfbf
000000f0: 20db 8b3f ff42 9c3f 26b6 cfbe 03bd 6d3f
-1.5563014 1.1180742 1.3559327 1.1279899 1.2910551 0.80309856 -1.4041945 0.62065053
1.2801026 1.4218938 -1.6063411 -1.426808 -1.6781201 -1.9826152 0.98105836 -1.5409445
1.2167975 0.68948615 -1.4848093 -1.3748106 -1.6370544 -1.3545185 -1.2719421 -1.6716448
1.373774 0.94214606 0.89878017 -1.1793795 1.0681584 0.7842516 -1.2711563 -0.4949528
1.3173987 1.0514487 -1.3015609 1.2639121 -1.4629177 1.1402158 1.197234 1.2870575
1.1528912 0.9450459 0.98531026 -1.7885003 -0.3667472 1.1196396 -1.5603473 1.0026466
-1.6046478 -1.3306046 -1.2527109 1.1435639 -0.41073185 -0.8840483 1.4021094 0.8924844
1.3436513 -1.3178128 0.96462107 -1.4993379 1.0926247 1.2207946 -0.40568656 0.92866534

net.2.weight f4 [2, 64]
00000000: 4f03 b5bf 36db 413f 3a21 293f 39a3 743f
00000010: 9ed2 293f aead af3e 950a 06c1 167f f83d
00000020: 9a69 2c3f 90f4 793f 82b1 8dc0 a903 21bf
00000030: 6a6c fcc0 3868 de40 cad3 e63e 0feb e6c0
00000040: be22 eabf 9e20 4bbe ada8 8b3f 4708 0ac1
00000050: aa2f f0c0 f135 80bf b9a3 98be 976c e83e
00000060: 013f 7f3f 904f e73e 39fa f03e 5714 79be
00000070: e13e 283f 42e1 9c3e 9cd0 21c1 e2a7 59bf
00000080: 0bb3 383f 7ff7 0d3f a72e febf f649 093f
00000090: 61af fcc0 be9c 183f b2c9 6bbe 0ccf 0a3f
000000a0: ca99 e43e 3755 0b3f 0bc2 1c3f 84b7 9bc0
000000b0: eb06 1ebd 7936 063f e227 a1bf c9b6 273f
000000c0: 0557 7640 5fe8 27c0 2509 bfc0 0c90 253f
000000d0: 8092 a3bb fc75 7d3f f2f2 893f 88fc 043f
000000e0: c9ef 063f d600 9bc0 37bb 243f 5597 eac0
000000f0: 0137 1e3f a107 e03e 1baf 363f 62e1 1b3f
00000100: 770b 15c1 095a 533f 063d 3c3f e48c ff3e
00000110: e271 363f a453 ef3e 0240 8840 2dad 0e3f
00000120: d482 303f 61b2 963f eca9 dec0 d6f9 31c1
00000130: 23b7 20be 477b 4c40 4766 283f 193d 1bbe
00000140: 3c60 acbf 8c4a 143f a4d8 bac0 85c2 ee3f
00000150: 6371 a3bf e668 cec0 572c 68c0 a683 cfc0
00000160: a8e3 263f ab80 033f acff 063f bb33 87c0
00000170: 0f0b 373f 3364 c33e aaac 26be d56d 9abf
00000180: 27f4 073f a39b 173f d40c 06c0 4932 223f
00000190: 229b b7bf d0f8 193f a840 d5bf d1c8 fe3e
000001a0: c17f de3e ff3b 033f 0a3b 263f 1d34 6c3f
000001b0: 10d1 a9bc b4fc 403f ed24 09c1 da11 303f
000001c0: fb32 06c1 6563 c8c0 6827 51c0 fa31 e23e
000001d0: 216b 1cbc 9d74 1240 5406 a33f 20b2 fc3e
000001e0: 7506 fd3e a9d0 b2c0 6e47 263f 0ed5 4abf
000001f0: 68df 1b3f 7a3f 253f b0db 2d3f b165 573f
-1.4141635 0.75725114 0.66066325 0.9556156 0.66337 0.34312195 -8.3775835 0.12133615
0.67348635 0.976388 -4.4279184 -0.6289621 -7.888234 6.950222 0.45083457 -7.2161937
-1.8291852 -0.19836661 1.0910851 -8.627021 -7.5058184 -1.0016462 -0.2981241 0.45395347
0.9970551 0.4517789 0.47065905 -0.24324165 0.65720946 0.30640608 -10.11343 -0.85021794
0.721482 0.55455774 -1.9857987 0.5362848 -7.8964086 0.5961417 -0.2302616 0.5422218
0.44648582 0.544269 0.61233586 -4.866152 -0.038580816 0.5242687 -1.2590296 0.65513283
3.8490613 -2.6235578 -5.9698663 0.64672923 -0.0049918294 0.99008155 1.0777266 0.5194783
0.52709633 -4.843852 0.6434817 -7.330973 0.6180268 0.4375582 0.7136094 0.6089078
-9.315299 0.8255926 0.73530614 0.4991218 0.7126752 0.467435 4.2578135 0.55732995
0.6894963 1.1773187 -6.9582424 -11.123495 -0.15694861 3.1950243 0.6578106 -0.15160026
-1.3466868 0.5792625 -5.8389454 1.8653113 -1.2768978 -6.450305 -3.6277063 -6.4848204
0.65191126 0.51368207 0.52733874 -4.2250648 0.7150125 0.38162383 -0.16276804 -1.2064768
0.5310692 0.5922186 -2.094533 0.6335798 -1.4344218 0.6014528 -1.6660357 0.49762586
0.43456843 0.5126342 0.64933836 0.9226702 -0.020729572 0.75385594 -8.571515 0.6877724
-8.387446 -6.262133 -3.2680302 0.44178754 -0.009547026 2.2883675 1.2736306 0.4935465
0.4941899 -5.587971 0.64952743 -0.79231346 0.60887766 0.6454998 0.6791334 0.84139544

net.2.bias f4 [2]
00000000: 7de7 363f c684 1b3f
0.71446973 0.6074947
