playground/classic_controls/discrete/cartpole/dqn/model.pth (torch, 11643 bytes, 8 tensors)

0.weight f4 [32, 4]
0.13528489 -0.3075715 0.5694056 -0.12465731 0.43963596 -0.07793095 -0.8163488 0.21793768
0.002062315 -0.00824475 1.0034351 0.036742803 0.22508363 -0.089055784 -5.1653233 -0.6548901
0.32280666 0.7123374 3.7334714 0.66833717 0.04761165 -0.14518873 -0.11562827 -0.34891707
-0.029948123 0.13579676 4.527575 0.37909064 0.05524823 -0.21451232 4.50196 0.11440581
0.3716535 -0.34334782 0.48550862 -0.019102626 0.38483924 -0.448158 -0.57198846 -0.3225731
-0.29872945 0.33406487 -0.18160354 0.09788387 -0.035260428 -0.023427688 -0.5281903 0.013951332
-0.052322548 0.004095731 0.5116671 0.09378181 -0.0019308826 -0.12919265 0.06430448 -0.20984931
-0.98885065 -0.97898257 -0.8607743 -0.6536273 0.059897758 0.08149168 -0.44421977 -0.055831227
-0.03324226 0.033428576 0.39119574 0.33688986 0.16384995 -0.09259977 0.18285988 -0.15647592
-0.015258556 -0.052443337 -4.7010293 -0.29896793 1.1496761 0.684112 -1.1840354 0.22762449
0.01614764 -0.020462068 0.16003223 0.058195595 0.0329889 0.102069564 0.6299977 0.33188576
0.27170977 -0.14949107 0.54893786 -0.39432713 0.028505657 0.11131067 4.9224114 0.5203587
-0.00086207775 0.13678111 0.1692782 0.22275198 0.22634728 -0.15280609 0.3778135 -0.0017082288
0.5738432 -0.31619924 -3.0694396 -0.30649546 0.055886023 -0.202052 0.93958455 -0.41329142
0.11702859 0.07525219 1.0096819 0.10197916 0.34866855 0.08870255 -0.59399414 -0.18268923
0.15361696 -0.0148960715 0.11461826 -0.0402001 0.010586956 -0.0041499203 0.0037350913 0.24521601
00000000: 1f88 0a3e 037a 9dbe 91c4 113f 554c ffbd
00000010: f717 e13e 439a 9fbd 3cfc 50bf 0e2b 5f3e
00000020: e727 073b fd14 07bc 9070 803f 9f7f 163d
00000030: 537c 663e e162 b6bd 544a a5c0 e1a6 27bf
00000040: ea46 a53e be5b 363f 32f1 6e40 2518 2b3f
00000050: 6f04 433d 5bac 14be 84ce ecbd 42a5 b2be
00000060: c455 f5bc 4e0e 0b3e e5e1 9040 2b18 c23e
00000070: f84b 623d 1ea9 5bbe 0e10 9040 984d ea3d
00000080: 5e49 be3e 49cb afbe 9694 f83e 1c7d 9cbc
00000090: a609 c53e f774 e5be d66d 12bf 4d28 a5be
000000a0: 11f3 98be 8d0a ab3e 47f6 39be 5777 c83d
000000b0: 3d6d 10bd 6ceb bfbc 7b37 07bf 2194 643c
000000c0: 2b50 56bd 7b35 863b 9dfc 023f ad10 c03d
000000d0: ab15 fdba 144b 04be 11b2 833d bde2 56be
000000e0: 5125 7dbf 9a9e 7abf b45b 5cbf 1e54 27bf
000000f0: 5a57 753d 1ce5 a63d c670 e3be 49af 64bd
00000100: 0929 08bd 67ec 083d cf4a c83e d47c ac3e
00000110: 48c8 273e f3a4 bdbd 9f3f 3b3e 393b 20be
00000120: 06ff 79bc d3ce 56bd d56e 96c0 5312 99be
00000130: 9628 933f f721 2f3f 798e 97bf 6516 693e
00000140: 0e48 843c 11a0 a7bc 7ddf 233e 815e 6e3d
00000150: 5e1f 073d d909 d13d 8747 213f eeec a93e
00000160: 8b1d 8b3e 3014 19be 3187 0c3f 3fe5 c9be
00000170: b284 e93c d9f6 e33d 6584 9d40 3a36 053f
00000180: 0ffd 61ba 5910 0c3e 4457 2d3e 1819 643e
00000190: 95c7 673e 3379 1cbe c570 c13e a6e6 dfba
000001a0: 63e7 123f dee4 a1be b371 44c0 f9ec 9cbe
000001b0: bee8 643d b8e6 4ebe 9d88 703f ef9a d3be
000001c0: afac ef3d d21d 9a3d 423d 813f 73da d03d
000001d0: af84 b23e afa9 b53d 0010 18bf e312 3bbe
000001e0: c44d 1d3e a70e 74bc fabc ea3d dca8 24bd
000001f0: e974 2d3c 0efc 87bb 6fc8 743b e819 7b3e

0.bias f4 [32]
-0.8213619 -1.2917551 0.7371681 -0.9707064 0.04090175 -0.7539628 -1.0696341 -0.8687635
-1.1253655 -1.173057 -0.96590537 -0.7070431 -0.7187735 -0.8200235 -0.7886395 -0.8856196
-1.0453693 -0.7369758 -0.99221843 -0.044463445 -0.24951373 -0.84047544 -1.0794605 -0.9698102
-0.6496447 -0.7793591 -0.96359485 -0.8982788 1.2092379 0.027819106 -0.570137 -0.8109846
00000000: c644 52bf 3b58 a5bf 0cb7 3c3f 3780 78bf
00000010: 9888 273d b503 41bf c5e9 88bf 4967 5ebf
00000020: fa0b 90bf bb26 96bf 9345 77bf c700 35bf
00000030: 8a01 38bf 0fed 51bf 47e4 49bf f7b7 62bf
00000040: a9ce 85bf 72aa 3cbf 0702 7ebf 4d1f 36bd
00000050: 8780 7fbe 6629 57bf c32b 8abf 7b45 78bf
00000060: 1d4f 26bf 1484 47bf 27ae 76bf 99f5 65bf
00000070: 4fc8 9a3f e5e4 e33c 80f4 11bf b09c 4fbf

2.weight f4 [32, 32]
-0.1299002 -0.17349556 -0.0011653261 -0.14747299 -0.15392463 -0.15031183 -0.05045906 -0.13617799
-0.028041959 0.07429715 0.036465872 0.009542842 0.016540201 0.04943573 0.008353799 -0.124862455
0.04253206 0.023593811 -0.059816185 -0.05152536 -0.089578636 -0.13301387 -0.032555345 -0.11699922
-0.25685954 0.05330634 0.038044076 0.05163142 -0.23502396 -0.024002226 -0.046903364 -0.2575736
0.059644528 -0.044461396 0.038202044 -0.18898776 -0.14530492 -0.09933241 0.0626612 -0.1897203
0.006226212 -0.24017633 0.04260755 -0.024520217 -0.10977599 0.124634154 -0.14707261 -0.0037731994
0.034816362 -0.083684996 -0.08163907 -0.03298981 0.07393378 -0.2178386 -0.1693752 -0.16542545
0.036286138 -0.09539586 -0.12244167 -0.06638552 -0.12392408 -0.033964276 -0.0376452 0.105427206
0.01588026 0.17677173 -0.2540124 -1.8237791 -0.73605114 -0.38577232 -2.1173115 -4.05002
0.13815807 0.101227365 -0.09840449 -0.07322856 0.080654755 0.29672176 -1.8434848 0.04625996
0.009744371 -0.13413699 -2.6992114 -0.39500636 0.14373581 0.2505632 -0.04978275 -0.9524758
-0.19685973 0.16208202 -0.91136384 -0.2597711 0.28228515 0.18387562 -0.15425156 -0.17926358
-0.38744813 -0.7030977 0.30467868 -2.9688892 -0.5247827 -0.34551206 -1.4994591 -3.1305835
0.07930913 -0.121760346 -0.39845726 -0.31903857 0.28612527 0.19712508 -0.7046731 0.094768174
0.5709377 -0.21558602 -3.1011057 -0.096805096 -0.17756763 -0.199474 -0.12798747 -0.7608973
-0.31348252 -0.31406596 0.49710158 -0.1689192 0.49425602 0.042303756 -0.37647894 -0.17674445
0.11521553 0.12077232 0.02814685 -1.3443004 0.010250448 0.037768096 -2.2644272 -3.7590394
-0.11359039 0.1460148 0.048401754 0.11286906 0.14640631 -0.16480207 -0.5265777 -0.30166844
0.18449889 -0.02797704 -2.4578586 -0.3881408 -0.1049788 -0.021215448 0.31657198 -1.386622
0.032447893 0.19430146 -0.6000197 0.1841338 0.21910933 -0.10086478 -0.09898587 -0.34097642
0.012055847 -0.016089313 0.04060322 -1.6546837 -0.5619492 -0.3228605 -2.1551597 -4.42621
0.00812078 0.28549117 -0.03533806 -0.022908786 0.07313901 0.2541727 -1.9783238 -0.05102505
-0.28907514 -0.017526066 -2.8086967 -0.27388752 0.072321795 -0.18505917 -0.08201876 -1.195887
-0.3524381 -0.056529686 -0.8686557 -0.14277388 0.29918167 -0.002163265 -0.28870982 -0.0431121
0.0020445758 -0.12491946 -0.1648066 0.024570968 0.07037108 -0.15727413 -0.088923864 -0.015774548
0.053786457 -0.08023859 -0.10118344 -0.11982469 -0.19627702 0.07158379 -0.19502093 0.060981184
-0.14877298 -0.12959394 -0.041458815 -0.01613535 -0.079458974 -0.059512615 -0.0764637 -0.032757517
-0.15424621 -0.061314184 0.09667951 -0.036687434 0.045841224 -0.095029145 -0.07134894 -0.04805541
-0.16604151 -0.042256698 -0.33449578 0.16725026 0.017277062 -0.15602106 -0.39184335 -0.27481374
-0.07393691 -0.16113722 0.015313923 -0.11844878 0.028972775 0.13880302 -0.25191367 0.042267576
-0.14774466 -0.013052374 -0.08980012 -0.1216581 -0.02606222 0.010096595 -0.10622049 -0.210145
0.16870998 -0.048666 -0.08856532 0.013944775 -0.44166553 -0.046249926 -0.13197552 -0.069223434
00000000: 8f04 05be d2a8 31be dbbd 98ba 2903 17be
00000010: 6b9e 1dbe 58eb 19be 29ae 4ebd 3e72 0bbe
00000020: 40b8 e5bc 1b29 983d 3d5d 153d 9559 1c3c
00000030: 517f 873c 1f7d 4a3d 5fde 083c e3b7 ffbd
00000040: 1936 2e3d cf47 c13c d101 75bd 420c 53bd
00000050: 0175 b7bd ca34 08be c158 05bd 499d efbd
00000060: 1883 83be c057 5a3d 1bd4 1b3d 787b 533d
00000070: 1faa 70be 51a0 c4bc be1d 40bd b0e0 83be
00000080: d24d 743d 271d 36bd bf79 1c3d 0286 41be
00000090: d0ca 14be ca6e cbbd 8454 803d 0a46 42be
000000a0: 4005 cc3b c9f0 75be 4185 2e3d 9fde c8bc
000000b0: 3cd2 e0bd 3140 ff3d 349a 16be c847 77bb
000000c0: 9a9b 0e3d 0a63 abbd 6232 a7bd 5320 07bd
000000d0: 986a 973d 1511 5fbe b170 2dbe 4a65 29be
000000e0: c6a0 143d e85e c3bd b3c2 fabd 22f5 87bd
000000f0: e8cb fdbd 201e 0bbd da31 1abd 38ea d73d
00000100: 5217 823c a603 353e ea0d 82be 9871 e9bf
00000110: d96d 3cbf f383 c5be 0882 07c0 c499 81c0
00000120: 4f79 0d3e 4b50 cf3d 4b88 c9bd dbf8 95bd
00000130: 522e a53d eaeb 973e 4ff7 ebbf 157b 3d3d
00000140: dba6 1f3c 355b 09be e1bf 2cc0 463e cabe
00000150: 7b2f 133e d249 803e ffe8 4bbd 74d5 73bf
00000160: 9995 49be d4f8 253e 244f 69bf b800 85be
00000170: ae87 903e e449 3c3e 1ff4 1dbe df90 37be
00000180: 9a5f c6be 36fe 33bf d8fe 9b3e 4802 3ec0
00000190: 2958 06bf f5e6 b0be 47ee bfbf 7b5b 48c0
000001a0: d36c a23d 7d5d f9bd 9702 ccbe 0659 a3be
000001b0: 037f 923e 28db 493e 7565 34bf d115 c23d
000001c0: f928 123f 95c2 5cbe 8478 46c0 c041 c6bd
000001d0: 4ad4 35be ea42 4cbe 260f 03be 2aca 42bf
000001e0: c880 a0be 41cd a0be 1984 fe3e 28f9 2cbe
000001f0: 200f fd3e b446 2d3d d9c1 c0be 7ffc 34be
00000200: 1ff6 eb3d 7a57 f73d 3994 e63c 0912 acbf
00000210: 7ff1 273c b8b2 1a3d 60ec 10c0 1a94 70c0
00000220: 14a2 e8bd e784 153e eb40 463d e527 e73d
00000230: 89eb 153e e0c1 28be cccd 06bf 4974 9abe
00000240: 47ed 3c3e 1b30 e5bc 8e4d 1dc0 64ba c6be
00000250: 20ff d6bd 05cc adbc b915 a23e d47c b1bf
00000260: 15e8 043d f6f6 463e e49a 19bf 928d 3c3e
00000270: 325e 603e 3292 cebd 1bb9 cabd 7694 aebe
00000280: e385 453c bccd 83bc 904f 263d adcc d3bf
00000290: e7db 0fbf f94d a5be 23ee 09c0 83a3 8dc0
000002a0: 050d 053c e62b 923e a4be 10bd 35ab bbbc
000002b0: e8c9 953d ed22 823e b739 fdbf a5ff 50bd
000002c0: a801 94be d392 8fbc b0c1 33c0 fc3a 8cbe
000002d0: 731d 943d 2780 3dbe 74f9 a7bd d312 99bf
000002e0: c472 b4be ac8b 67bd 3860 5ebf 5133 12be
000002f0: 572e 993e 90c5 0dbb c6d1 93be 5096 30bd
00000300: 4afe 053b c6d5 ffbd 10c3 28be 0e49 c93c
00000310: b61e 903d 780c 21be b71d b6bd a039 81bc
00000320: 304f 5c3d 2154 a4bd 4339 cfbd a666 f5bd
00000330: d8fc 48be 869a 923d 91b3 47be 68c7 793d
00000340: f257 18be 46b4 04be b8d0 29bd 482e 84bc
00000350: 63bb a2bd 80c3 73bd 0099 9cbd bf2c 06bd
00000360: b8f2 1dbe 9524 7bbd e8ff c53d 9045 16bd
00000370: 02c4 3b3d a49e c2bd 651f 92bd c0d5 44bd
00000380: c906 2abe 5c15 2dbd 0843 abbe a743 2b3e
00000390: a088 8d3c fcc3 1fbe b19f c8be 63b4 8cbe
000003a0: 3c6c 97bd 2801 25be 40e7 7a3c 4695 f2bd
000003b0: 5058 ed3c 6122 0e3e d4fa 80be c420 2d3d
000003c0: 604a 17be a0d9 55bc 20e9 b7bd e227 f9bd
000003d0: 7080 d5bc 306c 253c 218a d9bd 4030 57be
000003e0: 4fc2 2c3e 0056 47bd bc61 b5bd a078 643c
000003f0: fc21 e2be 9070 3dbd 9724 07be 04c5 8dbd

2.bias f4 [32]
0.029127572 -0.12868433 1.3613558 1.5934922 1.600113 1.3120811 -0.22060707 -0.49270263
-0.44233376 1.6802738 0.5242077 1.0241342 -0.1196948 1.6576077 -0.17571314 -0.10145488
-0.4511051 -0.1978181 -0.054842684 -0.22959234 1.3333786 1.3604171 -0.017992113 1.7564003
-0.08165421 -0.29869056 1.7414695 1.3402954 -0.28980824 -0.38633668 1.3636656 -0.2575623
00000000: f29c ee3c d3c5 03be e840 ae3f 8df7 cb3f
00000010: 81d0 cc3f 46f2 a73f d2e6 61be 8543 fcbe
00000020: 9279 e2be 3613 d73f 7a32 063f d416 833f
00000030: 8c22 f5bd 7d2c d43f 25ee 33be 93c7 cfbd
00000040: 3ff7 e6be d490 4abe b9a2 60bd 411a 6bbe
00000050: 26ac aa3f 2622 ae3f 3264 93bc bad1 e03f
00000060: 533a a7bd f8ed 98be 79e8 de3f cd8e ab3f
00000070: bf61 94be eccd c5be 988c ae3f 35df 83be

4.weight f4 [32, 32]
-0.18140525 -0.07906667 0.56437993 -0.04654277 0.70281184 0.7857149 -0.047671914 0.076204166
-0.12798405 1.0927113 -1.1697584 0.2521661 -0.15179244 0.6814409 0.11937548 0.0488261
0.055336293 0.09549789 -0.16508889 -0.008374823 -0.17795132 0.48347774 -0.03259021 0.88699335
-0.12904136 -0.51790076 0.53676426 1.2289968 0.06779662 -0.051086955 0.7316621 0.032416806
-0.14561757 -0.12134164 0.0511568 -0.17549272 -0.2752914 -0.022442212 0.086778894 -0.15420416
-0.14006878 -0.010138159 -0.124416664 -0.10471865 0.0056700855 -0.15388219 0.018193142 -0.07771687
0.15580665 0.090244815 0.012994334 0.058448657 -0.24039727 -0.23798463 0.1256236 0.015051082
0.12816034 0.15994062 0.031653512 -0.15039282 0.14684801 0.11734156 0.03852328 -0.15617299
-0.05343037 0.21143454 0.81039834 0.33499104 0.87441427 0.6625742 0.13684058 -0.04002884
0.026762778 1.0027086 -1.9183302 0.23071457 0.116604105 0.9022363 0.13737622 0.050213818
0.19248483 -0.057578783 0.0032428592 0.030724501 0.000994716 0.6656426 0.0012694405 1.0525923
0.10775469 -0.68790996 0.71325594 1.1281707 0.08745231 -0.018310707 0.77324104 0.07142638
0.27207652 -0.02178272 1.2101219 1.3461901 1.0979226 1.2631935 -0.16612732 -0.1657869
0.26805034 1.0458119 -0.22254851 0.7457958 0.08424155 1.0331078 0.103445396 0.069537535
0.28223112 0.11610321 -0.22412099 -0.11453324 1.2650094 1.0667472 0.05478904 1.228006
0.14807373 -0.70159954 1.2637053 0.23000783 0.059555076 -0.088661894 0.8916742 -0.28801152
-0.029235583 -0.006039635 0.8954636 1.2204758 1.1120756 1.0575922 -0.11105557 -0.2993163
0.23566125 1.0700427 -0.029204505 0.5141858 0.1773015 1.1057043 -0.005555979 -0.013704571
0.45613715 0.09835623 -0.25079352 -0.07021132 1.0964217 0.84748703 0.09982206 1.0451503
-0.026857084 -0.96429294 0.8695573 0.47676542 0.099284306 0.07291583 0.7861686 -0.13963749
-0.16697936 -0.082948074 -0.16473922 -0.13874905 -0.12770592 -0.020405456 0.09833823 0.10425262
0.0900449 -0.23191735 -0.06887412 -0.30882746 -0.1053903 -0.16634339 0.018112138 0.117211536
-0.08090641 -0.03730382 -0.14795731 -0.1370081 -0.31243625 -0.03105015 0.031979725 -0.37383863
0.08009635 -0.005012676 -0.0081896335 -0.08018288 -0.15048322 0.12229495 -0.10127187 0.029464543
-0.08857984 -0.011721328 -0.038686365 -0.11120467 0.11770077 0.11474575 0.025199965 0.04482737
-0.04766324 0.012129322 -0.16900584 -0.31357884 0.0042170435 -0.16475551 -0.1523214 -0.13654868
-0.0136493 0.15373437 0.08698322 -0.11911989 0.068327546 -0.12798333 -0.060909763 -0.10490009
-0.007260382 -0.16470067 0.004652038 -0.38688347 0.16710974 -0.0787902 0.13564773 0.13284273
-0.13770348 0.096004896 0.98859465 0.45116118 1.1614227 1.0511552 -0.22643366 -0.030024469
-0.10031209 1.4330393 -2.049303 0.20005919 0.10910694 0.98176885 0.097091146 -0.017233884
-0.0045609996 0.02521001 0.2120178 -0.23211356 0.15133953 0.81622124 -0.05339169 1.4488513
-0.19134456 -0.50144583 0.8126287 1.4939156 0.027355772 -0.071998164 0.8241304 -0.11197056
00000000: 4cc2 39be b5ed a1bd 347b 103f a2a3 3ebd
00000010: 7aeb 333f 9d24 493f a043 43bd ee10 9c3d
00000020: 400e 03be f7dd 8b3f a5ba 95bf ea1b 813e
00000030: 7a6f 1bbe e972 2e3f 227b f43d e0fd 473d
00000040: 4fa8 623d 6694 c33d 100d 29be 8e36 09bc
00000050: df38 36be 658a f73e 507d 05bd ff11 633f
00000060: 6b23 04be 2595 04bf 6269 093f c44f 9d3f
00000070: f4d8 8a3d 8e40 51bd 354e 3b3f 7cc7 043d
00000080: c61c 15be f781 f8bd cb89 513d 5db4 33be
00000090: fff2 8cbe bbd8 b7bc 22b9 b13d b2e7 1dbe
000000a0: 316e 0fbe 851a 26bc 2ace febd bb76 d6bd
000000b0: 20cc b93b 4b93 1dbe c909 953c 062a 9fbd
000000c0: c78b 1f3e 46d2 b83d 30e6 543c dc67 6f3d
000000d0: b42a 76be 3eb2 73be 79a3 003e d098 763c
000000e0: 773c 033e 79c7 233e 1da7 013d 9300 1abe
000000f0: 535f 163e c650 f03d 96ca 1d3d d0eb 1fbe
00000100: ced9 5abd 4c82 583e 4476 4f3f f283 ab3e
00000110: 9dd9 5f3f 769e 293f f01f 0c3e 48f5 23bd
00000120: 9d3d db3c c158 803f d88b f5bf 7140 6c3e
00000130: 22ce ee3d f5f8 663f 5aac 0c3e 01ad 4d3d
00000140: be1a 453e bbd7 6bbd 2686 543b f3b1 fb3c
00000150: 2161 823a 8e67 2a3f 5b63 a63a 58bb 863f
00000160: 7eae dc3d de1a 30bf f197 363f e667 903f
00000170: 321a b33d 5600 96bc 20f3 453f fe47 923d
00000180: 9d4d 8b3e ad71 b2bc 46e5 9a3f f54f ac3f
00000190: ba88 8c3f 53b0 a13f 481d 2abe 0bc4 29be
000001a0: e53d 893e 2add 853f c2e3 63be 79ec 3e3f
000001b0: d586 ac3d e03c 843f 2edb d33d b269 8e3d
000001c0: 9980 903e 85c7 ed3d f97f 65be 6790 eabd
000001d0: d4eb a13f 2c8b 883f 796a 603d 4d2f 9d3f
000001e0: a4a0 173e 079c 33bf 18c1 a13f 2c87 6b3e
000001f0: 06f0 733d 5e94 b5bd c344 643f 3f76 93be
00000200: 767f efbc 21e8 c5bb 1a3d 653f 8d38 9c3f
00000210: 7e58 8e3f 2e5f 873f 1a71 e3bd fc3f 99be
00000220: 2f51 713e 29f7 883f 493e efbc aea1 033f
00000230: 868e 353e b887 8d3f ee0e b6bb 2389 60bc
00000240: cf8a e93e fe6e c93d 0268 80be f4ca 8fbd
00000250: 8c57 8c3f e9f4 583f 826f cc3d 7cc7 853f
00000260: 6303 dcbc e7db 76bf 4f9b 5e3f 991a f43e
00000270: 9255 cb3d e554 953d 5842 493f 21fd 0ebe
00000280: a3fc 2abe aee0 a9bd 66b1 28be 3b14 0ebe
00000290: 57c5 02be 5829 a7bc 8e65 c93d 6682 d53d
000002a0: 7669 b83d be7b 6dbe e00d 8dbd a21e 9ebe
000002b0: dfd6 d7bd ec55 2abe e85f 943c 9a0c f03d
000002c0: 43b2 a5bd e4cb 18bd 1f82 17be da4b 0cbe
000002d0: a5f7 9fbe e25c febc 2cfd 023d c767 bfbe
000002e0: 8e09 a43d 6041 a4bb d02d 06bc ec36 a4bd
000002f0: 4618 1abe c675 fa3d a067 cfbd a05f f13c
00000300: 5969 b5bd d00a 40bc 9875 1ebd 46bf e3bd
00000310: 1a0d f13d d2ff ea3d 2870 ce3c e89c 373d
00000320: 883a 43bd 10ba 463c de0f 2dbe 688d a0be
00000330: 202f 8a3b abb5 28be 24fa 1bbe 6bd3 0bbe
00000340: 50a1 5fbc 8b6c 1d3e 4224 b23d 21f5 f3bd
00000350: 50ef 8b3d 100e 03be 847c 79bd dcd5 d6bd
00000360: 80e8 edbb 4ba7 28be 2070 983b 9715 c6be
00000370: d11e 2b3e c25c a1bd 3de7 0a3e ed07 083e
00000380: 2402 0dbe 379e c43d 8a14 7d3f 99fe e63e
00000390: 80a9 943f 418c 863f 3ade 67be e0f5 f5bc
000003a0: 6d70 cdbd d56d b73f c827 03c0 51dc 4c3e
000003b0: 7673 df3d 3455 7b3f b9d7 c63d 132e 8dbc
000003c0: 7074 95bb 3985 ce3c 321b 593e 2daf 6dbe
000003d0: c0f8 1a3e e0f3 503f 3fb1 5abd f673 b93f
000003e0: d4ef 43be c15e 00bf 6f08 503f a038 bf3f
000003f0: 3619 e03c c673 93bd 36fa 523f d250 e5bd

4.bias f4 [32]
1.6933662 -0.18258487 1.2920309 0.8669528 1.0415235 -0.30220377 -0.4351777 2.16376
-0.4374191 -0.039470635 0.55452836 -0.3072129 -0.29448923 -0.26150158 -0.20313375 1.2279058
-0.30125472 0.6234095 -0.240176 -0.06468411 -0.14345898 0.6040058 -0.16179004 0.35731
-0.28227806 -0.009545127 1.7172326 -0.5142583 0.88253444 1.0044264 0.9539268 -0.1489638
00000000: 39c0 d83f 87f7 3abe 4561 a53f 9ef0 5d3f
00000010: a450 853f 74ba 9abe 9dcf debe 0b7b 0a40
00000020: 65f5 dfbe f6ab 21bd 92f5 0d3f 024b 9dbe
00000030: 4bc7 96be 89e3 85be 4b02 50be 042c 9d3f
00000040: 0f3e 9abe c497 1f3f b3f0 75be 1a79 84bd
00000050: e9e6 12be 20a0 1a3f 4aac 25be 56f1 b63e
00000060: c086 90be 2a63 1cbc 47ce db3f 6fa6 03bf
00000070: c7ed 613f 0b91 803f 8c34 743f f789 18be

6.weight f4 [2, 32]
1.3932766 0.09892043 1.367442 0.17532915 0.3458573 0.054083318 -0.044605553 1.7973373
0.2037551 -0.0043199915 0.6837648 -0.023285896 0.22734007 0.17403527 -0.08569361 1.5991004
0.1294157 0.08096696 0.044508033 -0.5759787 -0.045097917 0.41663122 -0.0887313 -0.0017933772
0.090796694 0.041038956 -4.5765815 -0.009756176 0.23194812 0.2735881 0.25484845 -0.0712883
-1.2951868 0.20525554 -0.743693 1.4488363 1.2891372 0.14065668 0.18744573 -1.3219159
-0.007340621 0.09571141 -0.14239034 -0.1106993 0.023458328 -0.03388915 -0.56368506 -0.9339013
-0.029629627 1.4596093 -0.2639082 1.3151369 -0.018765705 0.07195671 0.2137019 1.1666346
-0.086205244 0.04198379 1.3187503 0.053327136 1.2074935 1.3685693 1.3166707 0.008671947
00000000: e356 b23f cb96 ca3d 5708 af3f 7c89 333e
00000010: 3514 b13e 7886 5d3d 50b4 36bd 260f e63f
00000020: 2da5 503e b78e 8dbb 360b 2f3f 10c2 bebc
00000030: d6cb 683e 4d36 323e 2280 afbd 52af cc3f
00000040: 8d85 043e 01d2 a53d 0e4e 363d 5773 13bf
00000050: 98b8 38bd b050 d53e c1b8 b5bd c10f ebba
00000060: 9ef3 b93d 7718 283d 5b73 92c0 5ed8 1fbc
00000070: cf83 6d3e bd13 8c3e 7f7b 823e 9aff 91bd
00000080: aec8 a5bf 822e 523e aa62 3ebf 7873 b93f
00000090: 7302 a53f 4e08 103e c6f1 3f3e 8a34 a9bf
000000a0: 9889 f0bb 5804 c43d c6ce 11be 51b6 e2bd
000000b0: ae2b c03c 59cf 0abd aa4d 10bf 2814 6fbf
000000c0: d5b9 f2bc 7ad4 ba3f fa1e 87be 6856 a83f
000000d0: 89ba 99bc 0a5e 933d acd4 5a3e 4854 953f
000000e0: 608c b0bd 32f7 2b3d cfcc a83f 8e6d 5a3d
000000f0: 268f 9a3f 472d af3f aa88 a83f c814 0e3c

6.bias f4 [2]
1.5955302 0.862973
00000000: 553a cc3f cceb 5c3f
