playground/classic_controls/lunarlander/a2c/model.pth (torch, 5575 bytes, 5 tensors)

base.0.weight f4 [64, 8]
000000 e6 c8 7b 3f 4d 7b 0b 40 62 19 a4 3f c6 55 3f c0
       0.9835342 2.1794007 1.2820246 -2.9896102
000010 7a d4 8d bf 9a ee 80 bf f6 69 10 3f 0a 6e b0 be
       -1.1080468 -1.0072815 0.56411684 -0.34458953
000020 32 9e a9 bd 07 07 bd be ce ca 7e 40 72 76 6e 3e
       -0.082821265 -0.36919424 3.9811282 0.23287371
000030 23 66 84 bf 65 43 82 be 11 ce 56 3e 14 eb fe 3e
       -1.034367 -0.25442043 0.20977046 0.49788725
000040 71 d4 8b bf 29 55 40 3e 4e 43 42 c0 3d e3 47 be
       -1.0924207 0.18782486 -3.035358 -0.19520278
000050 88 e9 97 3f 6a 95 14 40 54 09 20 bc 5c 3d 6b be
       1.1868143 2.3216195 -0.009767849 -0.22972625
000060 56 35 81 be f4 b7 89 bd e2 ad dc bc 7f 1b 68 3e
       -0.25236005 -0.067245394 -0.026938383 0.22666739
000070 e2 39 5b bd b3 df 56 bd 14 a9 11 3e 00 75 fd 3d
       -0.053522 -0.05245943 0.14224654 0.123758316
000080 e8 87 36 3e 03 d2 d3 3d 52 1f 49 be ac 2a 60 3e
       0.17825282 0.10342791 -0.19640854 0.21891278
000090 05 b9 4b be dd b7 86 3d ce 7d 59 be 34 ae 0f be
       -0.19894798 0.06578038 -0.21239397 -0.14031297
0000a0 c0 eb 16 bf f1 57 11 3e fe 6b 68 bf 9c c4 04 40
       -0.58953476 0.14193703 -0.90789783 2.0745
0000b0 15 13 88 3f 94 ba 9b 3f 8d 76 75 3f 2c 5e dd 3e
       1.0630823 1.2166314 0.9588402 0.4323591
0000c0 56 7c ae be 44 ab 13 bf 4a 17 f4 3f 08 77 8a 3f
       -0.34079236 -0.57683206 1.9069607 1.0817575
0000d0 88 e8 c8 be de 3a 4b be dc bf 33 3f 27 22 e5 3e
       -0.39239907 -0.19846675 0.7021463 0.4475262
0000e0 e2 76 c9 bf 61 b8 19 c1 46 fb 04 c1 63 3d 09 c0
       -1.5739405 -9.607514 -8.311346 -2.1443717
0000f0 c8 77 1c 40 0a 78 93 3e ab d3 53 3e 30 0e 95 bd
       2.4448109 0.2880252 0.20686214 -0.07278097
000100 b2 a5 33 bf b0 4a 33 bf 0a c0 13 3b 10 40 da 3f
       -0.70174706 -0.7003584 0.0022544884 1.70508
000110 e7 6d b5 3e 2a b8 e9 ba 3f 78 26 bd cc f3 fd bd
       0.3543541 -0.0017831374 -0.04064202 -0.12400016
000120 0d f5 5b bf 97 ed 0e bf 12 6a 04 3c 15 32 88 3e
       -0.8592079 -0.55831283 0.00808193 0.2660071
000130 77 ea a3 3e 67 f5 9b be 71 40 de bb 44 d3 38 3d
       0.3201482 -0.30460665 -0.0067825844 0.045123354
000140 37 9e 6c 3d ad 3d ff be 27 fb 3e 40 b8 cc 08 3f
       0.057768073 -0.49851742 2.9840791 0.53437376
000150 39 4c ed be 05 a4 a6 be b6 27 49 3f d0 be 9f 3e
       -0.46347216 -0.32547012 0.7857622 0.31200266
000160 5c 7c 08 3f e7 1a 28 3f 2e d7 ab c0 c8 b4 0b c0
       0.5331476 0.6566605 -5.370017 -2.182909
000170 1c f2 1f 3f f3 9d 24 3e 2f a4 91 be bf 35 9b 3e
       0.62478805 0.16075878 -0.28445575 0.30314443
000180 c3 f4 0f 3f b5 99 b6 3f 4d 30 89 c0 ab 0f 04 c0
       0.5623285 1.4265658 -4.287146 -2.0634563
000190 62 d5 6b 3e 6d 65 2b 3f 8e 49 b3 3c 1b d8 f7 3e
       0.23030618 0.6695164 0.02188566 0.48407063
0001a0 ab 2e 0b 3f d2 3f 6c 3c 94 1b 86 c0 3b 98 0d 40
       0.54368085 0.014419513 -4.1908665 2.2124164
0001b0 9f 4e db 3f 71 5c 66 3e 45 76 e5 be 5d ac 2b 3f
       1.7133368 0.22496201 -0.44816795 0.6705988
0001c0 d9 d7 ab bf da 8d ca 3d 21 0b 81 bd 83 13 8b 3f
       -1.3425246 0.09890337 -0.06300951 1.086533
0001d0 69 41 d9 3e 92 dc cf 3f e5 8a b9 3f f0 b7 84 3f
       0.42432716 1.6239188 1.4495512 1.0368633
0001e0 00 a4 8d bf b0 74 e9 bf 4b 76 00 3f 19 57 83 3e
       -1.1065674 -1.8238735 0.501805 0.25652388
0001f0 1c 70 53 3d f8 40 fc be ce 66 18 3e c4 9e 06 3f
       0.051620588 -0.49268317 0.14882967 0.5258601
000200 b6 1a e5 be 6b c3 1e c1 d3 ec b7 3f a4 10 35 c0
       -0.4474694 -9.922709 1.4369148 -2.8291407
000210 9b d8 ef bf 71 96 b7 bc 1a e8 31 3f 49 2d ca be
       -1.8737978 -0.022410603 0.69494784 -0.39487675
000220 17 1c 2b be 83 9b 77 bf e1 57 6d 40 48 2a d7 3d
       -0.16709934 -0.9672167 3.7084887 0.105061114
000230 13 69 11 3f 36 0d 7c 3f 0b 54 0c bf 73 9f 5a 3d
       0.56800956 0.9845766 -0.5481574 0.05337472
000240 42 ee 17 bf 32 ed ec be 44 6c 83 3d ef 5c b7 3f
       -0.5934793 -0.46274716 0.064171344 1.4325236
000250 8c 95 12 3f cb 38 bb 3d a8 4f 06 3f d2 33 9b 3e
       0.5725944 0.09141692 0.52465296 0.30312973
000260 d9 7a 28 bf ac 92 22 3f 65 a7 72 c0 27 4b 5f 40
       -0.6581245 0.63505054 -3.791467 3.488962
000270 43 07 de 3e ec 49 ef 3c 90 67 73 3f 10 44 20 3f
       0.43364915 0.029210053 0.950799 0.62603855
000280 f5 af 18 bf 89 11 a5 3e 58 6f 09 c0 87 e0 e1 3f
       -0.5964349 0.3223994 -2.147421 1.7646645
000290 dc cd 1c bf 39 7a 73 be bc 4b 95 be 08 a9 7b 3f
       -0.61251616 -0.23777093 -0.29159343 0.98304796
0002a0 3c f0 df be 62 a5 17 3f 55 3d c2 3f aa 79 0b 40
       -0.43737972 0.5923673 1.5174967 2.1793008
0002b0 35 6a 44 bf bf 04 1c c0 f9 92 10 3e 8d 28 09 3f
       -0.7672456 -2.4377897 0.14118566 0.535775
0002c0 1a f2 33 bf 6e fc ac be 61 8a a0 bd 16 20 b6 3f
       -0.7029129 -0.3378634 -0.07838894 1.4228542
0002d0 ce a2 5c 3f cb 5d 94 3e e2 d9 d9 3e 39 35 aa 3e
       0.8618592 0.28977808 0.42549044 0.3324373
0002e0 37 64 6b bf 31 10 81 c0 90 70 2f bf 25 c5 e5 bf
       -0.9194979 -4.0332265 -0.6853113 -1.7950789
0002f0 72 b6 d1 3e c6 b6 0c 3f d6 54 b5 3e a4 ae 35 3f
       0.40959507 0.5496639 0.35416287 0.70969605
000300 cc 64 03 3e 02 e8 3f c0 ff e3 dd 40 3a d4 f8 bf
       0.1283142 -2.9985356 6.9340816 -1.9439766
000310 8e ed ec bf c9 6d 81 be bb 5d 8a 3e 8b 46 c8 3e
       -1.8509996 -0.25279072 0.27024636 0.3911632
000320 b8 46 0d bf ef c2 d5 be 80 c1 a9 be 5d 4c c9 3f
       -0.55186033 -0.41750285 -0.3315544 1.5726429
000330 ab 9b 65 3f 3f 2e b8 3e 7c 25 02 3e ed 03 64 3e
       0.89690655 0.35972783 0.12709612 0.22267123
000340 13 46 11 bf 9a 29 6e be 89 18 77 bf 3f 5a 7a 3e
       -0.5674755 -0.23258057 -0.9652181 0.24448489
000350 0b a7 c2 be 51 d4 1b c0 01 5c bc 3e 24 aa 7a be
       -0.3801807 -2.4348338 0.36788943 -0.24478966
000360 af e2 af bf bc 68 e0 3d 82 b9 06 c0 93 c4 cf 3f
       -1.3741053 0.109574765 -2.1050725 1.6231865
000370 f1 93 3a 3f d7 06 05 40 25 20 6b 3f b8 fe 57 be
       0.7288199 2.0785425 0.91845924 -0.21093261
000380 bb 7c 37 be 76 b7 78 be 4b 36 17 3d d2 4c 79 bd
       -0.17918675 -0.24288735 0.036917012 -0.060864277
000390 78 ae 31 3e 0e 21 4d bd 45 fd cc 3d 63 68 b8 be
       0.17351711 -0.05008035 0.10009245 -0.3601714
0003a0 3d d5 4f 3e 78 87 c0 bd b4 c8 f4 40 9a 87 09 40
       0.20296188 -0.094008386 7.6495 2.1489015
0003b0 84 e6 38 40 b6 7d 4b bc 71 26 09 bf 08 92 45 3e
       2.8890696 -0.012420109 -0.5357428 0.19293988
0003c0 8c 17 80 bf 2f 25 a0 c0 cc 10 be 3d 48 1d ae bf
       -1.0007186 -5.004539 0.092805475 -1.3602686
0003d0 21 20 03 bd 09 be 1a 3f 6f e9 27 3f 9d d8 0b 3f
       -0.032013062 0.6044622 0.65590566 0.546274
0003e0 14 42 21 be d0 39 84 be 56 34 e0 3f 68 ac a8 3f
       -0.15747863 -0.25825357 1.7515972 1.3177614
0003f0 2b c5 69 bd 0f 12 12 c0 09 c6 d0 ba bf 26 05 3f
       -0.0570728 -2.2823522 -0.001592816 0.52012247

base.0.bias f4 [64]
000000 66 9a d0 3f 78 5a a6 3f 7b 39 a0 3e 73 aa d7 be
       1.6297119 1.2996359 0.31293854 -0.4212223
000010 1b 9f d9 be c9 20 83 3f 92 49 e2 3f 7a d2 09 3f
       -0.425042 1.024438 1.7678702 0.53836787
000020 9f 74 04 40 d3 64 9b 3f 33 6c 9d 3f f0 bd ba 3f
       2.069618 1.2140144 1.2298645 1.4589214
000030 4d c5 a0 3f 9b 5d 46 3f 6d b5 ba 3e 8a b4 cc 3f
       1.2560211 0.7748658 0.36466542 1.5992596
000040 f2 f0 8e 3f e9 9e e1 3e da 53 f3 3f 65 21 ce 3e
       1.1167281 0.4406655 1.9009964 0.40259853
000050 41 94 40 3f ed 10 f8 3e 2f 15 e6 3f 6c 02 61 3f
       0.7522622 0.48450413 1.7975215 0.8789432
000060 4d 7a 59 be be 8d f9 3f 3f 3f 18 3e fe bd 4d 3f
       -0.2123806 1.9496381 0.14867876 0.8036803
000070 6b 0d cd be 8b bc 53 bd 9a 7e 69 3f d9 90 36 3e
       -0.400493 -0.05169348 0.91208804 0.17828692
000080 6b b3 24 3f c3 40 c3 be ee 84 cd bd 08 1e c6 3e
       0.6433627 -0.38135347 -0.1003512 0.38694787
000090 1d 9a 33 3f 9f a2 cd 3f 36 22 5b 3f ed 4e 97 3f
       0.70157033 1.6065253 0.85599077 1.1820961
0000a0 a9 6f 3a 3f 45 1b 9f 3e 61 6b a8 3f 54 b2 b7 3e
       0.7282663 0.31075493 1.315777 0.3587824
0000b0 71 b0 b2 3f c7 71 67 3f 2e ba 0e 3f bd 48 43 3f
       1.3960096 0.90407985 0.5575284 0.76282865
0000c0 76 69 9b 3f eb b3 40 3f be 10 fd 3f 58 23 40 3f
       1.2141559 0.75274533 1.9770734 0.7505393
0000d0 8a a2 cc 3f ed fc 4f 3f 68 15 22 3f 98 f4 c4 3f
       1.5987103 0.8124531 0.63313913 1.5387144
0000e0 2f ce cc 3f ef a5 ed bc 7a 8d ea 3e 88 b3 f6 be
       1.6000422 -0.029009787 0.45811063 -0.48183846
0000f0 90 a6 72 bc 51 be 82 3b 54 08 1a 3f b9 a8 42 3f
       -0.014810219 0.0039899726 0.6016896 0.760387

actor.0.weight f4 [4, 64]
000000 3a 4c d2 be 62 07 ef be 10 27 bf bd be 43 e4 3c
       -0.4107378 -0.4668532 -0.093336225 0.027864333
000010 c3 30 30 3e 3d 06 b0 be 80 75 05 be af 78 2b 3d
       0.17206101 -0.3437976 -0.13033104 0.04186314
000020 fd 34 ca be 89 5f e6 be 87 dd f7 bd 78 86 c9 be
       -0.39493552 -0.44994763 -0.121028 -0.39360404
000030 2c 0d b2 be cc f7 f5 bd 60 16 5e bd 17 55 88 be
       -0.34775674 -0.12010154 -0.054220557 -0.26627418
000040 1f 59 d2 bc 10 be 0b 3e 54 ca 4e be af cb cb be
       -0.025677262 0.13646722 -0.2019437 -0.39803836
000050 88 2f 94 be 44 26 9c bd b4 c6 13 bc 1d b1 f7 bd
       -0.28942513 -0.07624486 -0.0090195425 -0.120943286
000060 f0 64 18 be e3 7c 2e be 6f 13 ba bc b1 00 99 be
       -0.14882255 -0.17039828 -0.022714345 -0.2988334
000070 ec 55 14 3b b9 e3 0c bf 2f 1f e2 bc 70 60 3c be
       0.0022634221 -0.5503498 -0.02760276 -0.18396163
000080 31 27 05 be ef 66 cb bd a3 e3 92 be 77 91 65 bd
       -0.13003232 -0.099317424 -0.28689298 -0.05604693
000090 67 22 89 be 01 eb ab be 77 cf 04 be 77 e0 4e be
       -0.2678406 -0.3357773 -0.12969767 -0.20202814
0000a0 96 90 2f be 16 53 81 3d 1f 09 fd bd 29 f8 c3 3c
       -0.17144999 0.063146755 -0.12355255 0.023922043
0000b0 5e a7 bb bd 99 90 99 be bd e4 11 be f5 a8 ba bd
       -0.09162782 -0.29993132 -0.14247413 -0.09114257
0000c0 0f a7 df be f1 59 5e 3d a9 d7 39 be fe 1b fb be
       -0.43682143 0.054284994 -0.18148674 -0.49044794
0000d0 43 9a 7b be c0 2c 97 be f3 b1 d8 bd 05 00 23 bf
       -0.24570565 -0.2952633 -0.10580816 -0.63671905
0000e0 2f 98 ab be 85 00 ee 3d a0 40 93 be 0d b6 25 be
       -0.33514544 0.11621193 -0.28760242 -0.16182728
0000f0 39 7b 03 be 0e 8e ca bc c1 21 02 be 0c 75 4d be
       -0.12839974 -0.02472594 -0.12708189 -0.20064181
000100 45 ec 1e 3f c3 fd 99 3f 8b bb a7 bf e0 6a 04 3e
       0.6207927 1.2030567 -1.3104109 0.12931395
000110 32 69 eb bc 64 db 73 3e 6c 7e 94 3f 54 14 86 c0
       -0.028736684 0.2381416 1.1601081 -4.1899815
000120 65 46 c3 3e e7 8e 70 be 78 fd 81 3f 1b fc 15 c0
       0.38139644 -0.23492013 1.0155478 -2.3435123
000130 e6 2f e5 bf 41 b4 c4 3f 9a d7 93 bc 4e c9 e4 3d
       -1.7905242 1.5367509 -0.018047143 0.11171208
000140 a8 7d d0 3e d9 e5 68 bd b8 ef 6f be f6 98 82 3d
       0.40720868 -0.056859825 -0.23431289 0.06376831
000150 ab 90 39 bf 41 8d ef 3f 00 74 74 be ba b8 67 bf
       -0.7248637 1.8714982 -0.23872375 -0.90516245
000160 ba 71 4d 40 b7 c6 01 bf f9 64 6e bf 91 8c 12 bf
       3.2100663 -0.5069384 -0.9312282 -0.5724574
000170 32 3e 21 3c 9e cc 5f c0 58 7c 7e be 26 16 94 3e
       0.009841489 -3.4968638 -0.24852121 0.28923148
000180 72 0b fe be 61 9b db bf e6 0c da 3e dd 02 be bd
       -0.49618107 -1.7156793 0.42587966 -0.0927789
000190 32 2a cf be f8 51 a4 be b7 32 3f 3f 2c 05 0f bf
       -0.4046188 -0.32093787 0.7468676 -0.55867267
0001a0 5c 76 82 bf 0e cb a4 3d 34 8e e9 be a9 9c 6b bf
       -1.019237 0.08046542 -0.45616305 -0.9203592
0001b0 20 a1 8d 3e f4 10 3f 3f 4e 30 e2 3f 82 ae 36 3f
       0.2766199 0.74635243 1.7670991 0.7136003
0001c0 59 a5 bc bf e0 c3 b7 bf df 86 56 3f 0f fb 90 c0
       -1.473796 -1.4356651 0.83799547 -4.530647
0001d0 41 78 f1 3c c7 27 5e c0 0a 3d 1c bf 40 a6 27 3f
       0.029476287 -3.4711778 -0.6103064 0.6548805
0001e0 d7 aa a9 3e e1 96 dd bf f1 97 38 be 53 09 1e c0
       0.33138153 -1.731167 -0.18026711 -2.469319
0001f0 b6 6a 03 c0 db 43 d2 3f 9f 79 3a bf a3 f2 59 40
       -2.053388 1.6426958 -0.7284183 3.4054344
000200 f5 30 e9 3e 9b e8 13 be 14 5c ef be 39 77 71 3c
       0.45545164 -0.144442 -0.46749938 0.014737898
000210 ae bb 8a bd ac 5a 84 bf 7f bf 72 be d6 6d 01 bf
       -0.06774078 -1.0340171 -0.23705862 -0.5055822
000220 ff 78 90 be af 20 eb 3e b8 33 87 bd f3 32 c4 3e
       -0.28217313 0.45923373 -0.066016614 0.3832012
000230 63 c2 8b 3e fe 4e 1a c0 41 c1 e6 3d bb b3 36 3e
       0.27296743 -2.4110713 0.11267329 0.17841999
000240 78 5e 3c 3f d3 87 59 3f f3 f0 77 3e 13 b4 0f c0
       0.7358165 0.84972876 0.24213009 -2.2453659
000250 e3 9e f3 be 9f 40 b8 bf 40 87 45 3e dc ac 2b 3f
       -0.47582158 -1.4394721 0.19289875 0.6706064
000260 68 22 fd bf 62 94 18 3e 43 1b cd 3e 7d 48 30 bf
       -1.9776125 0.14900354 0.40059862 -0.6886061
000270 55 1d 78 3c ad 2a ae 40 a6 a4 24 3f 91 78 8c be
       0.015143712 5.4427094 0.64313734 -0.27435735
000280 8a 36 2f 3f 0d 36 43 40 c0 73 8f 3d 00 85 f0 3e
       0.68442595 3.050174 0.070044994 0.4697647
000290 22 1f f1 3e 38 e3 0c 3d 63 12 48 be 97 da 2d 3f
       0.47094065 0.03439638 -0.19538264 0.67911667
0002a0 cb 62 f8 3e 5a 01 2c 3f 7e 40 0e 3f 93 fe 7b bf
       0.48512873 0.6718956 0.5556716 -0.98435324
0002b0 8c a9 c6 bd 62 44 a1 3e dd 32 fe be c5 a2 e6 3e
       -0.09700307 0.31497484 -0.4964818 0.45046058
0002c0 74 5d 18 3f a7 f9 04 3d c0 0e e0 3c 93 aa 21 3f
       0.595176 0.03246465 0.027350783 0.631509
0002d0 ae 2e 6f 3e 3b d8 0d 3f 8a 3c b7 bf 97 3b f1 3e
       0.2335765 0.55408067 -1.431535 0.47115776
0002e0 dc e0 8e 3e 76 db a0 3f 15 a4 17 3f 49 7e 77 40
       0.2790593 1.2566974 0.59234744 3.8670828
0002f0 0b 65 33 bf d2 90 77 c0 15 2e 91 3f c1 13 e0 bf
       -0.70076054 -3.8682141 1.1342188 -1.7506028
000300 e1 dd 84 bf 02 16 c4 bf d6 ff a7 3f 78 78 5c bd
       -1.0380212 -1.5319216 1.312495 -0.053825825
000310 03 df d9 3c 96 d5 95 3f 69 bb 9d bf 4c 57 0e 40
       0.026595598 1.1705806 -1.2322818 2.2240782
000320 92 d1 4f 3e a6 bc 07 be 45 a2 aa bf e8 aa 71 3f
       0.20294788 -0.13255557 -1.3330771 0.9440141
000330 23 52 6b 3f ce c3 ed 3f e8 cd 9b bd 0b c1 ca be
       0.91922206 1.857538 -0.07607633 -0.39600405
000340 99 5b 21 bf 0c 58 a1 bf 35 b2 80 3e 50 a0 f1 3f
       -0.6303039 -1.2604995 0.2513596 1.8877048
000350 f2 7d 90 3f 05 61 29 bd b9 d1 69 3e 74 e5 cf 3e
       1.1288435 -0.04135229 0.22833909 0.40604746
000360 f7 85 bb bf fc fb 09 3f 49 91 0e 3f 27 91 ab 3f
       -1.4650258 0.5390012 0.5569044 1.3403672
000370 64 c7 49 bd 4f a8 78 c0 07 ff 6c be 10 78 5e 3e
       -0.04926242 -3.8852727 -0.2314416 0.21725488
000380 33 5f e7 3e 1f 04 01 c0 b7 c5 a7 be 77 35 97 be
       0.4518982 -2.0158765 -0.32768032 -0.29532978
000390 8f c3 51 bd 98 a5 2b 3f 9b 78 81 bf 13 aa 03 3e
       -0.05121189 0.6704955 -1.0114931 0.12857847
0003a0 03 d7 14 3f b3 a3 f3 be 0b 48 c9 3e 78 7c db 3f
       0.5814058 -0.4758583 0.39312777 1.714736
0003b0 34 63 98 3e 65 69 78 bf 65 8f 28 c0 f1 de 63 bf
       0.29763186 -0.9703582 -2.633752 -0.89012057
0003c0 f9 5a 0c 3f 41 d8 64 3f b2 7c 4d bf e4 7e e9 3f
       0.54826313 0.8939248 -0.80268395 1.8241849
0003d0 58 12 e8 bd 96 e2 d2 3f d6 f4 05 40 4e 24 ab bf
       -0.11331624 1.6475399 2.0930686 -1.3370454
0003e0 0f 21 d3 be d8 3e dd bd eb a7 82 be 51 6a 2f c0
       -0.4123616 -0.10803002 -0.25518736 -2.740864
0003f0 c4 77 eb 3f 1e e6 3c 40 51 9c 33 bf 85 5f e2 bf
       1.8395925 2.9515452 -0.70160395 -1.76854

actor.0.bias f4 [4]
000000 01 48 c2 be 3a 52 8d bc 92 17 39 3e 72 69 c1 bd
       -0.3794556 -0.017251123 0.18075398 -0.0944394

critic.0.weight f4 [1, 64]
000000 4e 68 1f 40 da aa f3 bc 3b 3f 92 bf bf 00 73 3c
       2.4907413 -0.029744554 -1.1425546 0.014831721
000010 f9 fa 79 bd 26 13 77 bf 51 41 50 bf a9 2d d0 c0
       -0.06103036 -0.96513593 -0.81349665 -6.5055737
000020 13 50 cb bf dc 43 18 bf 4f 5d 38 be db d5 a4 3f
       -1.5883812 -0.59478545 -0.18004344 1.2877764
000030 f6 b7 bb 3f a7 e6 4d 3f ef a8 b3 bf 0c 1c 82 bf
       1.4665515 0.8043007 -1.403593 -1.0164809
000040 fb 83 5c c0 4c ea a0 bf 8c 37 a2 bf 1e 64 97 bf
       -3.4455554 -1.2571502 -1.2673202 -1.1827428
000050 44 d7 5c bf 72 21 9b bf 4b 7e a0 bf 5f 1f ac bf
       -0.8626597 -1.2119582 -1.2538542 -1.3447074
000060 96 9d 5d c0 08 9a b6 bf bb 22 c1 bf 59 ea e9 bf
       -3.4627433 -1.4265757 -1.5088724 -1.8274642
000070 21 8c 96 3c 21 a2 0d 3f 1e 1b ac bf 4d 11 ad bf
       0.018377366 0.55325514 -1.3445776 -1.3520905
000080 57 30 d4 bf 06 ec b6 bf 52 d3 23 c0 9e c8 c6 bf
       -1.6577252 -1.4290779 -2.559773 -1.5529974
000090 5a e7 c8 bf 41 94 a3 bf e1 b2 98 3e 50 b0 fa bf
       -1.5695603 -1.2779619 0.29823974 -1.9585056
0000a0 c6 6f ba be 8d 21 cd bf 44 68 0c c0 3a af c5 bf
       -0.364134 -1.6025864 -2.1938639 -1.54441
0000b0 e6 f6 c9 bf 2b ed 96 bd 52 64 88 bf 0c 79 8a bf
       -1.5778472 -0.07369455 -1.0655615 -1.081819
0000c0 e1 d9 b8 be ae b7 d2 bf 95 cc 7f bf e9 f9 0d c0
       -0.36103728 -1.6462305 -0.9992154 -2.2183783
0000d0 1e f9 81 bf 42 be 61 c0 01 81 6e 3f 39 e9 63 40
       -1.015415 -3.5272374 0.93165594 3.5611098
0000e0 7a 95 91 bf 2a d9 b5 bf 33 ad 2b bf 2e 22 8c bf
       -1.1373742 -1.4206898 -0.67061156 -1.0947931
0000f0 4d 52 bb 40 8b 18 01 41 7a 39 b8 bf b2 8e 81 c0
       5.8537965 8.068492 -1.439254 -4.048669
