playground/classic_controls/lunarlander/a2c/model.pth (torch, 8315 bytes, 7 tensors)

actor_fc1.weight f4 [64, 8]
000000 d7 ae c5 bd f4 f6 a0 3e 19 46 1e 40 b5 25 46 bf
       -0.09652489 0.3143841 2.4730284 -0.77401286
000010 f1 2e 92 be 67 a0 5f 3e 52 4b 98 be f4 c7 a8 be
       -0.28551438 0.21838532 -0.29744965 -0.32965052
000020 c9 1b 6f be 22 4a 51 3e 80 f8 08 c0 49 e8 84 bf
       -0.23350443 0.20438436 -2.1401672 -1.0383388
000030 b5 11 4a 3f 0b 56 e1 bd a3 05 fe bd 9f 6c d2 bd
       0.7893327 -0.110027395 -0.12403419 -0.10274624
000040 23 d3 bc 3e 15 fd bf ba 8c 74 c7 bf fa 8f 73 bf
       0.36879835 -0.0014647568 -1.5582442 -0.95141566
000050 b2 76 b8 3f 64 37 9b be 71 8a 8c be f0 8f 2b 3e
       1.4411223 -0.30315697 -0.27449372 0.16754127
000060 3d 3b 3f 3d b9 04 52 3e 07 73 dd 3f da e1 c0 be
       0.046687353 0.20509614 1.7300729 -0.3767231
000070 b7 8b 1d 3f 60 db 7b 3f ff 36 bb 3e 89 03 be be
       0.6154131 0.98381615 0.36565396 -0.37112072
000080 1e 2d 61 3b 47 0a 54 be 3c 21 30 bf 9a 53 4b bf
       0.0034359167 -0.20707045 -0.6880071 -0.7942444
000090 a6 f8 50 3f ef 89 03 be 2f 5b d7 3e 6a fb 8b 3e
       0.8162941 -0.12845586 0.42061755 0.2734025
0000a0 9d 62 63 3e 12 2b 88 bf 53 f4 71 3f f5 58 83 be
       0.22205587 -1.0638144 0.94513434 -0.25653806
0000b0 74 9c 36 bf 2d 82 26 3d 09 f1 0c 3e 76 1d 80 be
       -0.7133248 0.04065149 0.13763823 -0.25022477
0000c0 b8 ff a8 3d 4b fe 9d be 64 fe 7d 3e d0 bd 79 be
       0.082518995 -0.30858073 0.24804074 -0.24388814
0000d0 84 f9 57 3c 84 90 34 3e 55 75 3c 3d 6c 9e a5 3d
       0.013182048 0.17633253 0.046010334 0.08086857
0000e0 14 03 61 be 8b a8 ee bd 47 42 94 3e d5 a7 a0 3e
       -0.2197383 -0.11653241 0.28956816 0.31378046
0000f0 45 71 96 3e 57 c9 4a be 36 09 29 3e f1 e4 d0 be
       0.29383293 -0.19803368 0.1650742 -0.40799668
000100 a6 e1 8a bd cc 7f 5f bf fe f3 d0 bf 47 5e 93 be
       -0.0678132 -0.8730438 -1.632446 -0.28782865
000110 f4 a3 9c 3f 4c e6 d0 bd a7 48 f3 bd 96 6a e1 3c
       1.2237535 -0.10200176 -0.11879092 0.027516644
000120 03 fb 09 3e dd 35 bb 3e 1c 8e 9c 3d 5e c6 4f bf
       0.1347466 0.36564532 0.07644293 -0.8116206
000130 e3 f9 13 bf f3 33 28 bf 02 68 44 bf 44 dc d0 bd
       -0.5780317 -0.6570427 -0.76721203 -0.10198262
000140 3b 91 f5 bd c8 26 da 3d 91 22 84 bf 4d db 02 bf
       -0.11990591 0.10651928 -1.0323049 -0.51115876
000150 27 98 09 3f c2 34 07 be 96 6e 47 3e 89 5b 1e 3e
       0.5374779 -0.1320372 0.19475779 0.15464605
000160 7a 2b 61 bd 1e 15 d2 be 68 d4 59 bf d2 32 8c bf
       -0.054973103 -0.41031736 -0.8508973 -1.0953009
000170 60 a0 7a 3f 44 d1 9f bd ad b7 98 3e 1a 78 63 3e
       0.9790096 -0.07803586 0.29827634 0.22213784
000180 b7 f5 5b be a5 d2 4b be f2 fe e7 3f 2b d9 97 3e
       -0.21480452 -0.19904573 1.8124678 0.29657874
000190 8e b5 7f 3f 41 27 70 3e 32 4e 50 3f fd 8c 14 be
       0.99886405 0.23452474 0.81369317 -0.14506908
0001a0 5f 14 d3 be 79 49 18 3e fb cc 4a bf d1 1c a4 bf
       -0.4122648 0.14871778 -0.79219025 -1.2821294
0001b0 d4 22 77 3c ea c2 bb bd 0d 43 dc 3d b1 fd b0 be
       0.015083987 -0.09168036 0.107549764 -0.3456855
0001c0 d1 41 79 3d 33 9f 98 3e 59 d5 a7 bf ff 7a 94 bf
       0.060853783 0.2980896 -1.3111984 -1.1600035
0001d0 41 7c a1 3e 08 79 8a be b8 b0 23 be 76 e6 35 3e
       0.3154011 -0.27045465 -0.15985382 0.17763695
0001e0 64 4f de bc f9 2d 01 bf 3b 0d dc bd 89 62 74 3d
       -0.027137466 -0.50460774 -0.10744711 0.059664283
0001f0 e9 ad 8e be b2 7c 46 3e bd 3b 8b 3e 40 ac 71 bd
       -0.27867058 0.19383505 0.27194014 -0.05900216
000200 54 08 78 be 1a a8 04 3f 16 eb 4a 3f d2 88 34 bf
       -0.24221927 0.51819 0.7926496 -0.7052127
000210 3d 68 6a bf b8 9c bf bd fe 20 3f 3e 15 b8 7f 3d
       -0.91565305 -0.093560636 0.1866493 0.062431414
000220 d9 25 26 3e 54 5d 75 3e c3 cb 0e 40 96 8e fa 3f
       0.16225375 0.23961383 2.2311866 1.9574764
000230 3b 57 5f bf f5 1f c7 3c ce bb 09 be 7f 07 d7 bc
       -0.8724248 0.02430723 -0.13450548 -0.026248692
000240 43 d2 ce be ce 83 a3 bd 0e 63 0c 3f ca 6d aa 3f
       -0.40394792 -0.07984124 0.54838645 1.3314755
000250 6a 69 fc 3e 46 a5 6b bf e3 3c 65 be 8d 8d 1d bf
       0.49299175 -0.9204906 -0.22386508 -0.61544114
000260 89 63 bf 3e ea c1 cc be f1 35 9d 3d 29 57 66 be
       0.37380627 -0.39991695 0.07676304 -0.22494186
000270 92 cb 30 bd af 40 1a be 7e c6 86 be 3d 35 02 be
       -0.04316289 -0.15063737 -0.26323313 -0.12715621
000280 64 42 42 bd d7 4d 43 3d 82 a5 07 40 56 d3 85 3f
       -0.047426596 0.047681656 2.1194768 1.045512
000290 e0 90 11 bf ef d8 15 be 5c 21 05 3a 2b 63 cb bd
       -0.56861687 -0.14633535 0.00050785183 -0.09931024
0002a0 16 7a a0 bc 98 f9 6d bf 27 a8 87 3f 1a 2f 48 be
       -0.019589465 -0.92958975 1.0598191 -0.19549218
0002b0 09 5f 42 bf 21 d3 51 3c a3 d2 62 3e ab e3 b1 3d
       -0.7592626 0.012806685 0.22150664 0.08686002
0002c0 7f 1f 14 bd b6 6c 7e bd e4 56 b1 3f 8f dc 63 bf
       -0.03616285 -0.062115394 1.3854642 -0.8900842
0002d0 cf e0 99 bf 92 b5 80 3e 67 7a 96 bc 66 fb 88 be
       -1.2021731 0.25138527 -0.018368913 -0.26754302
0002e0 48 51 91 be 5f 6a 90 3e a0 8e b2 be 51 83 8a bf
       -0.28382325 0.28206155 -0.3487444 -1.0821325
0002f0 5c 9c 8a be 6b 97 cf bd 73 89 fa bd 96 e8 08 bf
       -0.27072418 -0.101363026 -0.122332476 -0.534799
000300 b3 1d fe bc be ce 0b 3e 8c 06 a6 3f 21 fb c7 3d
       -0.031020021 0.13653085 1.2970748 0.09764696
000310 f7 13 1a bf 95 62 81 be 82 f1 3b 3d e6 dc 93 3b
       -0.60186714 -0.25270525 0.045884617 0.004512417
000320 c8 9b 37 3e f6 65 88 bd bc 1f 8b bd a3 b2 ee be
       0.1793052 -0.066600725 -0.06793162 -0.46620664
000330 14 17 da 3e bf 63 54 be 6b 09 28 be 42 cf 15 be
       0.42595732 -0.20741175 -0.16409843 -0.14629844
000340 50 3b 5e be 20 3a a9 3e 65 06 e9 bf fc 55 90 be
       -0.21702313 0.33052158 -1.8205076 -0.281906
000350 fd a4 37 3f f9 e5 92 3e 22 d4 bf bd 54 03 37 be
       0.7173613 0.2869108 -0.09366633 -0.17872363
000360 57 25 ba bc 08 93 6a be c3 fd 90 3d 97 71 f4 3e
       -0.022722883 -0.2290765 0.07079651 0.47742912
000370 3f 28 9a 3e b2 63 b9 be 5a 3b 39 bf eb 00 1d 3f
       0.3010883 -0.36208874 -0.7235619 0.61329526
000380 a5 f5 22 3e 2e 8c 40 bf 6f 6c 49 3f ef b7 01 bf
       0.15914018 -0.752139 0.7868108 -0.50671285
000390 82 17 35 bf f8 81 90 bd 0a da 75 3d 39 0f 12 3e
       -0.70738995 -0.070560396 0.06002239 0.1426362
0003a0 89 a9 6d 3d 87 a6 24 bd a6 52 ae 3d b4 84 f4 3d
       0.05802301 -0.040197875 0.08511858 0.119393736
0003b0 31 c2 14 3d 5f 40 8f 3d 16 ce 82 be 42 87 96 be
       0.036318008 0.069947 -0.25547856 -0.2940007
0003c0 39 6b d7 3d 30 f5 9d 3d b5 ba 0c 3f 21 17 18 be
       0.10518498 0.077127814 0.5497239 -0.14852573
0003d0 5f e2 c2 be 1c b0 45 be 59 8e 44 bd 34 aa e0 bd
       -0.38063332 -0.19305462 -0.047987316 -0.10969964
0003e0 48 63 e3 bd 12 7e 07 3e 3b a1 d7 bf 23 08 8f 3f
       -0.11102921 0.13231686 -1.6846079 1.1174358
0003f0 a8 f2 ab 3f fe ce da 3e 0c 72 61 3d 85 b4 95 3d
       1.3433428 0.42736048 0.055040404 0.07309822

actor_fc1.bias f4 [64]
000000 69 de 08 3d 9b c9 41 3f 89 09 6d bf 6a 00 73 bd
       0.03341523 0.7569825 -0.92592674 -0.059326567
000010 cc ef 06 bf 47 16 c9 3e 2b 7a ea be 38 7d 47 be
       -0.5270965 0.3927481 -0.45796332 -0.19481361
000020 5f f3 96 3e cb 41 0c 3f 02 ee 06 3f 4b e2 1a bf
       0.29482552 0.5478789 0.5270692 -0.60501546
000030 0d b5 93 bd c5 8c 06 3f ce 76 a7 3e e1 05 fb bd
       -0.07212267 0.5255855 0.32707828 -0.12256981
000040 5a f3 28 3f a2 b4 5e 3e b6 17 ce 3e b5 6d a7 be
       0.65996325 0.21748593 0.40252465 -0.32700887
000050 b5 2b 25 3e bc 39 88 3e 97 9a 2c bf 01 76 18 3f
       0.16129954 0.26606548 -0.67423385 0.5955506
000060 d8 f2 e0 3a 9b 12 70 be 9d 83 2a 3f 93 c1 06 be
       0.0017162217 -0.23444597 0.66607076 -0.1315978
000070 5d f2 d2 3d e2 a8 59 be 32 5c c2 3e a6 0a 32 3e
       0.103001334 -0.2125583 0.37960964 0.17386875
000080 f2 e2 12 3f 5e f5 4f 3e 29 0f e3 3e 10 10 5a bc
       0.5737754 0.20308444 0.44347504 -0.013309494
000090 9d d5 58 3e ca 39 df 3e 37 90 cf bd 89 95 8f 3e
       0.21175237 0.43598777 -0.10134929 0.28043774
0000a0 24 d9 30 3e 3d 96 8a be 45 62 ac be da 5a 52 bc
       0.17270333 -0.27067748 -0.33668724 -0.0128390435
0000b0 e5 a4 2e 3f b3 be 05 3f a3 d1 3e 3e 5e 35 1e bf
       0.6822036 0.5224411 0.18634658 -0.6180018
0000c0 d4 ba c9 bd 11 ee 3f bc 92 ec 29 bf 36 1e 3f 3f
       -0.09850088 -0.011714474 -0.663766 0.74655473
0000d0 8c f3 19 3f c5 d4 27 3f 73 8f 83 3e f6 21 8f be
       0.6013725 0.65559036 0.2569538 -0.27955598
0000e0 5e 99 0c be 47 1d f2 be 1e ef 9e 3e b2 35 bc be
       -0.1373038 -0.47287962 0.31041807 -0.36759716
0000f0 c3 d7 f5 be d7 df 54 3e c8 94 57 3e 4d 33 0c 3f
       -0.48016176 0.20788513 0.2105285 0.5476578

actor_fc2.weight f4 [4, 64]
000000 c4 1a 6e be 79 e6 16 bf 36 72 39 be c8 fa 76 be
       -0.23252398 -0.58945423 -0.18109974 -0.24119103
000010 b5 80 b0 bc 48 07 0a 3e f8 af 21 3e e0 5d 20 3d
       -0.021545747 0.1347934 0.15789783 0.039152026
000020 bb 2f 13 be 81 b7 1c bf d3 81 ed bb 9f c9 be bd
       -0.14373676 -0.61217505 -0.0072481423 -0.093158
000030 37 20 93 3d 09 b4 50 be 47 63 9d be 67 ee b1 3d
       0.07183879 -0.20381178 -0.30739805 0.0868805
000040 9c e1 48 bd 08 70 a5 bc 62 93 96 bd 61 cf 82 3d
       -0.049043283 -0.020195022 -0.0735233 0.06387211
000050 44 f6 cd 3d e0 35 18 3f 84 78 92 3d 16 fe 97 be
       0.10056737 0.59457207 0.07151893 -0.2968604
000060 08 fc ba bd e0 40 55 bd 98 fd 38 bf 83 36 da be
       -0.091301024 -0.052063823 -0.72261953 -0.42619714
000070 5c 4f 1c 3e 52 e8 09 bd 23 44 22 3d ac 89 b8 be
       0.15264648 -0.033668824 0.03961576 -0.36042535
000080 e0 69 3f bd 2e 58 97 3e 1a 5c 06 bf 1a e0 08 3c
       -0.04673183 0.29559463 -0.52484286 0.008354211
000090 66 3a 24 bf 73 82 b3 3c 4a 7b b9 be 8f df b7 3e
       -0.6415161 0.021912789 -0.36226875 0.3591275
0000a0 a2 65 2c 3e 62 73 8e bd e6 70 ab be dc ce 6d 3e
       0.16835645 -0.06955601 -0.33484572 0.23223442
0000b0 6b 8e fb be d6 5d c0 3f d4 46 83 bd 87 67 30 3e
       -0.49132094 1.5028636 -0.06409994 0.17226993
0000c0 b7 e7 3f be fd eb 83 3e 33 63 d5 3b 82 88 ca bc
       -0.18740736 0.25765982 0.0065120696 -0.024723295
0000d0 dc a0 68 bf f7 78 09 be e0 5d 85 be 94 27 75 3c
       -0.9087045 -0.1342505 -0.26048183 0.014963049
0000e0 45 78 c6 3d a6 6d 11 3d 6e d7 18 be 00 4c 4f 3d
       0.09690908 0.03550496 -0.1492593 0.05060959
0000f0 62 9e ab bd 08 31 22 be 73 4e 96 3f 32 0c 81 3f
       -0.083798185 -0.15839016 1.1742691 1.0081847
000100 ef bb 7a 3f 3e 76 b3 bf bb 89 2c 3e 70 ba c4 be
       0.97943014 -1.402046 0.16849415 -0.3842349
000110 3e 8c c2 3d f7 3d 15 3f 86 af f7 bd 54 40 b8 3d
       0.09499405 0.58297676 -0.12094025 0.089966446
000120 73 87 5f 3d 42 52 cc 3d 88 08 08 bf 2f 35 15 3e
       0.054572534 0.09976627 -0.5313802 0.14571069
000130 62 ff 80 bf ec a8 11 bf dd 3b 92 bf bf 41 ea 3d
       -1.0077937 -0.5689838 -1.1424519 0.11438321
000140 6d 47 8f 3e 43 82 a0 3f 04 07 a6 3f f3 a6 07 bd
       0.2798418 1.2539753 1.2970891 -0.0331182
000150 27 3a 80 3f e0 1a 1f 3f cb 7e 57 3f 60 0d 8b be
       1.0017747 0.62150383 0.84177846 -0.27158642
000160 14 1c df 3e 29 b5 fc bc d1 4d 64 bf b8 cb b3 bd
       0.4357611 -0.030848103 -0.8918124 -0.08779091
000170 fb bf 1b 3f 72 b2 54 3d 4f d5 41 3e d1 41 f1 be
       0.60839814 0.05192799 0.18929027 -0.47120526
000180 a5 07 2d be d8 e0 88 3e 86 d2 ba 3d 62 46 94 bf
       -0.16897447 0.26734042 0.091221854 -1.1583979
000190 1b 8b b7 be ac b8 18 be 71 46 ff be 86 b2 a6 3f
       -0.35848317 -0.14914197 -0.4985843 1.3023231
0001a0 19 26 82 3e 39 d3 92 3e bd f2 b7 bd 47 94 7c bd
       0.2541969 0.28676775 -0.089818455 -0.061664846
0001b0 03 99 2d bf 53 d8 32 3f 45 f4 8b 3f df 3d 8e 3f
       -0.678116 0.69861335 1.093392 1.1112632
0001c0 54 a2 89 bf 62 2d 89 3f 28 3f 21 bd a6 65 c0 3e
       -1.0752664 1.0716975 -0.03936687 0.37577552
0001d0 20 84 5b be 97 aa e1 3e 0e 14 51 bf fb be e1 bb
       -0.2143712 0.44075462 -0.81671226 -0.0068892217
0001e0 63 64 7e 3f c7 2c 7c bd 50 40 79 bf f4 b3 b0 3d
       0.9937193 -0.06156614 -0.9736376 0.08628073
0001f0 23 f9 68 3e c9 12 b1 3f 86 80 ed 3f c5 c1 e7 3d
       0.22751288 1.3833858 1.8554847 0.113162555
000200 91 ec e5 3b 27 9a ed 3e 6f bd a2 bf 4c 1f 6b 3f
       0.0070167263 0.4640667 -1.271406 0.9184463
000210 51 c9 01 bf 32 c5 00 bf 0d 0a c3 3c db 36 57 3d
       -0.5069781 -0.50300896 0.023808504 0.05254255
000220 3e fb 46 bf 7e 4e e4 3e 77 02 89 3e 25 7f 0c bf
       -0.77727115 0.44591135 0.26759693 -0.5488151
000230 a5 e0 9d 3f e9 7d 06 3f 2a 27 14 3f 24 c1 0a 3e
       1.2334181 0.52535874 0.5787226 0.1355024
000240 e9 5c b8 3e 65 7d 86 bf 86 83 99 bd e5 d0 52 3d
       0.36008385 -1.0507017 -0.07495789 0.05146875
000250 0f 31 43 bf d5 67 63 bf a7 04 32 bf 19 d4 01 3f
       -0.7624673 -0.8883031 -0.6953835 0.5071426
000260 dc 30 f6 bd 0f 67 02 be cb 9c c8 bd 15 d2 9d 3e
       -0.12021038 -0.12734626 -0.09795531 0.30824342
000270 77 cb 4f be 2f 6b 9e bc cb 5a 15 3e 29 30 26 bf
       -0.2029246 -0.019338218 0.14585416 -0.64917237
000280 12 14 05 3f 04 3a 83 bf 06 e5 bb 3e 24 ed ee 3f
       0.5198375 -1.025208 0.3669817 1.866612
000290 b6 b4 08 3f f1 21 b4 3e 6f 80 87 3f 88 84 46 3d
       0.53400743 0.35182145 1.058607 0.048466235
0002a0 2f e7 86 bf 55 d1 9c 3d 63 4c 13 bf 6e 66 4a bf
       -1.0539302 0.076571144 -0.5753843 -0.79062545
0002b0 0e 2e 08 3f e5 a6 9e bf 24 67 87 bf 6a 3b 61 bf
       0.53195274 -1.2394682 -1.0578351 -0.87981284
0002c0 a5 18 e3 3f b8 4f 63 bf 86 34 42 bf a9 d4 e2 3e
       1.7741896 -0.88793516 -0.75861394 0.44302872
0002d0 9e 53 0d 3f a8 6e 3d 3e 5b d9 4a be 8d 49 da 3d
       0.55205715 0.18499243 -0.19809477 0.1065856
0002e0 60 a7 25 bf b8 83 5b 3e 91 f3 7e 3f c1 b1 59 3d
       -0.6470852 0.21436965 0.995904 0.053148035
0002f0 78 84 22 be 06 6d 7f bf e1 94 21 c0 7a 54 5e bf
       -0.15870845 -0.9977573 -2.5247118 -0.8684765
000300 0d 2d b1 bf 3f d0 d2 3e 05 f6 b6 3f 34 f5 52 bf
       -1.3841873 0.41174504 1.4293829 -0.824054
000310 7e 4b 0e 3f 5c c3 35 bd fb d2 00 be 08 a9 b4 bd
       0.5558394 -0.044375762 -0.12580483 -0.08821303
000320 1d f3 7d 3f 21 f7 f6 be 0a 5b 18 3e dd 82 62 3f
       0.99199086 -0.4823542 0.14878479 0.8848093
000330 08 ba 3a bf 2b bc 5f be 69 21 37 bd 3f cd d6 3b
       -0.7294011 -0.21849124 -0.044709597 0.006555229
000340 4b 9a 43 bf 42 38 ae 3e d5 04 f9 be c8 dc 72 bd
       -0.7640731 0.34027296 -0.486365 -0.059292585
000350 86 c1 96 3c 60 97 fd 3d 57 28 c0 3d 08 c6 be be
       0.018402826 0.12382388 0.09382694 -0.3726046
000360 05 9c 2f be 14 68 30 3e 63 ca 0e 3f 15 50 1e be
       -0.1714936 0.17227203 0.5577757 -0.15460236
000370 a3 d2 ec bd 7a 08 d9 3d 26 eb 87 be f0 a6 86 3f
       -0.11563613 0.1059732 -0.26546592 1.0519695
000380 05 2a e0 be 65 a9 94 3f 39 16 14 be f2 98 a4 bf
       -0.43782058 1.1614195 -0.14461602 -1.2859175
000390 8a 3c 72 be ae a6 d5 be f3 7b 21 bf d2 cc 1e c0
       -0.23655906 -0.4172873 -0.63079756 -2.4812512
0003a0 db b9 87 3f b8 92 6b bc b1 35 6b 3f 4b 50 87 3f
       1.0603594 -0.014378242 0.918788 1.0571378
0003b0 7e d0 2f 3e de 82 72 3f b2 41 b3 3d 1c 6f fc 3d
       0.17169377 0.9473094 0.08752765 0.1232588
0003c0 7c c9 44 bf 2f a2 27 be 00 2a 8d 3f 54 1a 82 bf
       -0.7686994 -0.16370462 1.1028442 -1.0164285
0003d0 9a 04 b7 3c e1 51 10 bf fc d3 68 3f ef 0e 2b 3e
       0.022341061 -0.5637494 0.9094846 0.16704915
0003e0 91 f1 e1 bd 95 d8 f6 3c 9a c6 f2 be 7b 2e 36 3e
       -0.11032403 0.030132571 -0.47417146 0.17791168
0003f0 e4 c0 6b 3d f8 df 6a 3e 00 6d b9 3f 35 87 a9 3e
       0.057557 0.22937 1.4486389 0.33110967

actor_fc2.bias f4 [4]
000000 15 c2 12 be 71 98 82 be 5f 52 e2 3e c2 7e a7 be
       -0.14331849 -0.2550693 0.4420347 -0.32713896

critic_fc1.weight f4 [64, 8]
000000 97 3b ba be 66 8c 73 3d ff 2b a9 be c7 bb 94 3e
       -0.36373588 0.059460066 -0.3304138 0.29049513
000010 be 5a 4f 3f 03 a6 f9 3e c8 74 b6 be 55 5b 7b 3e
       0.80997837 0.4875947 -0.35635972 0.24546559
000020 83 e2 c0 be 4e 17 8d bf f8 cf ad 3c a1 26 73 be
       -0.37672815 -1.1022737 0.021217331 -0.23745205
000030 89 d0 2d be 58 34 0e be 52 77 16 3f e9 93 a0 3e
       -0.16974081 -0.13887155 0.5877582 0.31362846
000040 05 ff 76 bf 26 b0 73 bf bc 1d ed be 4a ef 06 bd
       -0.9648288 -0.95190656 -0.46311748 -0.032943048
000050 ce 18 f0 bd 53 ba 4f 3e 1f d3 4f 3e 22 6b ce be
       -0.11723481 0.20285921 0.2029538 -0.4031611
000060 84 38 2a bf 14 0a 05 bd 3f 0e 03 be f7 75 e4 3e
       -0.66492486 -0.032480314 -0.12798403 0.4462125
000070 70 e8 15 be 92 d1 83 bd c7 82 44 3f c1 50 46 3e
       -0.14639449 -0.06436457 0.7676205 0.19366743
000080 a8 5a bb bd 86 80 ac be d7 ab 3e 40 ff 5f e2 3e
       -0.09148151 -0.33691806 2.9792383 0.44213864
000090 1e a7 cd 3f ae 8e be 3f e9 e6 07 bf e8 0f 38 3f
       1.6066625 1.4887292 -0.53086716 0.7189927
0000a0 c5 dc ef 3d 37 0f 1d c0 13 cd 60 3f 9c 78 d8 be
       0.1171203 -2.4540536 0.8781292 -0.42279518
0000b0 47 f8 1d be e1 9c d4 be ee c4 01 3f ce 16 8d bc
       -0.15426742 -0.4152594 0.50691116 -0.017222788
0000c0 0a f2 05 3e 91 ad 7a bf 56 ef 35 3e 3d c0 46 bf
       0.13080612 -0.9792109 0.1776708 -0.7763708
0000d0 d8 42 8e bf f7 61 e8 bf b3 97 f5 3e cf cc fc 3d
       -1.1114149 -1.8154896 0.479673 0.12343752
0000e0 9e cb 0d be da 72 78 bf 1d 59 87 3d c2 c0 f8 3d
       -0.13847205 -0.9705025 0.06608794 0.12146141
0000f0 bd b6 d2 bd 50 0a c8 be 07 29 13 3f 3b 99 40 3d
       -0.10288761 -0.39070368 0.5748448 0.047021132
000100 0d 45 d4 be 38 89 44 3e a8 12 39 bf 47 9d 88 3f
       -0.41458932 0.1919297 -0.7229409 1.0672997
000110 3d f1 e6 3e a2 2d dc 3e 47 c5 0d bf 9b 8f b9 3d
       0.45105925 0.43003565 -0.55379146 0.09060594
000120 8d af 16 3d 34 0e da bf cc 33 ab 3e 7e 39 d3 be
       0.036788512 -1.7035584 0.33437955 -0.412548
000130 02 38 76 bd 63 f6 27 3d 97 48 0d 3f 46 92 77 3d
       -0.060112007 0.041006457 0.5518889 0.06044223
000140 e9 b1 be be ed ec 8c be cd 06 89 be df e7 a3 3e
       -0.3724511 -0.2752451 -0.26763 0.3201284
000150 2a 31 7f 3e c6 d0 8d be 58 ca b2 3e cc f1 48 be
       0.24921098 -0.27698344 0.3492 -0.19623488
000160 d9 cc aa bc 6a 98 bc be 03 c4 80 3e 9e bb d2 3e
       -0.020849632 -0.36835033 0.25149545 0.41158766
000170 70 e8 7c be 2e b7 bb be 40 9f a8 3e df cf 83 3e
       -0.24698043 -0.36663193 0.32933998 0.2574453
000180 42 1c 28 bf 8c 3c 17 bf 52 f9 ac be 64 c5 46 3f
       -0.6566812 -0.5907676 -0.33783966 0.77644944
000190 8a a4 00 bc d5 e3 96 3d a0 8d c9 bb c6 01 e9 3d
       -0.007851729 0.07367674 -0.006150916 0.113772914
0001a0 ca 23 bd 3d 9c d3 83 be 32 20 15 be 9c 94 9d be
       0.09235342 -0.25747383 -0.14563063 -0.30777442
0001b0 5e bf fa be 90 f4 be be b7 fe fc 3e af 3d a1 3e
       -0.48974127 -0.3729596 0.49413082 0.31492373
0001c0 a5 2c 12 bf 2d 7f 7d bf d4 42 2e 3e 48 8c bb bd
       -0.5709937 -0.9902218 0.1701768 -0.09157616
0001d0 36 40 4f 3d af a4 11 be 0b 53 ca 3e a9 c0 a2 3e
       0.050598346 -0.14222978 0.39516482 0.31787613
0001e0 e4 43 92 bd b0 a4 a3 3d 53 92 f4 3f 0f 99 6c 3f
       -0.07141855 0.07990396 1.9107155 0.9242105
0001f0 18 38 92 3f e4 0b 04 40 b8 76 8c 3e 3b c1 41 be
       1.1423368 2.0632257 0.27434325 -0.18921368
000200 8a eb b5 be e4 0d bd 3d cb 5f a4 bf 1f a0 79 3f
       -0.35531265 0.09231165 -1.2841734 0.9750995
000210 33 6d be 3e 4d d7 67 3f ce 3e 3a bd a7 5c e0 be
       0.37192687 0.905629 -0.04547005 -0.43820688
000220 97 bb 99 be 2e bb fd bd d1 be e5 3f 53 cb 53 3f
       -0.30025932 -0.12389217 1.7948858 0.82732123
000230 86 9c 78 3f 89 4c f1 3f 17 22 bf 3d ce d2 14 3e
       0.97113836 1.8851482 0.09332674 0.1453354
000240 6c 91 97 be be 0b b6 bd a0 63 39 40 ad f6 69 3f
       -0.29603136 -0.088889584 2.8967056 0.9139202
000250 e1 45 ae 3f d9 a3 ee 3f b5 47 d4 bd 4f 2a c1 3e
       1.3615075 1.8643752 -0.103652395 0.3772759
000260 dd d6 83 be 07 0c a3 be 48 98 bb 3e 23 24 20 3e
       -0.25749865 -0.31845114 0.3663962 0.15638785
000270 1c 3a e9 be 37 10 8f be 16 a9 e3 3e 38 c2 c9 3e
       -0.45552146 -0.27942058 0.4446494 0.3940599
000280 65 62 e7 be 39 73 80 be 8f 07 49 3c ae bb dc 3d
       -0.45192257 -0.25087908 0.0122698685 0.107779846
000290 3e 0b 43 3f 16 6b ca 3f 11 62 5c 3e b6 0d 1f 3d
       0.7618903 1.581393 0.21521784 0.038831435
0002a0 2b 08 55 be 58 75 57 bd 0d 85 28 bf 7b 88 64 3f
       -0.20803897 -0.052602142 -0.6582802 0.8927075
0002b0 87 b5 9a 3e 50 83 66 3f 7c 90 db bd 1f 7f a4 be
       0.3021662 0.90044117 -0.107209176 -0.32128236
0002c0 4f c6 c9 be ed 0d 37 be 08 6b 43 3f be 06 36 3f
       -0.3940911 -0.17876406 0.7633519 0.7110404
0002d0 f5 5c ac bd 66 7f a5 be af 9b be 3d e5 a3 ac 3d
       -0.08416168 -0.3232376 0.09307038 0.08429698
0002e0 19 50 16 bf c8 67 6f bf 86 91 10 be 0e af ad 3e
       -0.5871597 -0.9351773 -0.14118013 0.3392262
0002f0 ab 09 ff bd ad 2d ec be b1 f7 25 be 1c a1 0c 3e
       -0.12453016 -0.46128598 -0.16207768 0.13733333
000300 af ae 20 3d 87 bd 86 be 62 5a f2 3e 9e cc fa 3e
       0.03922909 -0.26316473 0.47334582 0.48984236
000310 1a ec 0a bf 54 3e 05 be 35 f0 48 3f f8 a7 3a 3d
       -0.5426651 -0.13012058 0.78491527 0.045570344
000320 99 c1 b7 be 9b 75 4c be 8f 10 35 40 d5 98 81 3f
       -0.3588989 -0.19966738 2.8291357 1.0124766
000330 47 87 ab 3f 1d 95 07 40 14 e6 49 be 66 88 98 3e
       1.3400658 2.1184762 -0.19716674 0.29791564
000340 cb e5 0b bf af 26 f3 be 1c 4c 60 bf 65 e0 64 be
       -0.5464751 -0.4749045 -0.87616134 -0.22351225
000350 20 29 21 bf 05 45 a2 bf e2 e2 aa 3c ae d6 3d 3e
       -0.62953377 -1.2677313 0.02086014 0.18538925
000360 a3 3d f1 be c9 4a 2b bf 95 3b 77 3e 67 c7 23 be
       -0.47117338 -0.6691099 0.24143822 -0.15994035
000370 1f 7d 96 bd 7b da c0 be 14 da 52 3f 05 1e b7 3e
       -0.07348084 -0.37666687 0.8236401 0.3576509
000380 d4 73 15 3e 83 16 c6 bf c7 78 c0 3f cf be 35 bf
       0.14594966 -1.547562 1.5036858 -0.70994276
000390 70 5f b1 bf 5f 47 a2 bf f0 10 8e 3f 8e 0c e4 be
       -1.385725 -1.2678031 1.1098919 -0.44540828
0003a0 76 6f 9d bc 93 a7 eb be d5 0f 48 3e 41 f7 08 3f
       -0.019218188 -0.46026286 0.1953729 0.5350228
0003b0 88 66 28 3d d5 8d f3 bc 07 21 12 3f de 18 5f bc
       0.041113406 -0.029730717 0.57081646 -0.013616769
0003c0 10 6f 26 bf f4 84 67 be 8c 5f 16 3d 41 23 80 3f
       -0.6501322 -0.22609311 0.036712214 1.0010759
0003d0 c4 5d f7 3c 04 05 12 3d 1f b0 98 3e 2b 05 75 3d
       0.030196078 0.035649315 0.2982187 0.05981938
0003e0 7d ae 55 3e 6a 35 e8 bf 48 c5 e1 3e f5 c6 31 bd
       0.20867343 -1.8141301 0.44095826 -0.04340263
0003f0 8d 02 3e be ba c3 83 be b1 a4 22 3f f8 64 e9 bd
       -0.1855566 -0.25735265 0.6353255 -0.113962114

critic_fc1.bias f4 [64]
000000 b8 27 cf 3e 58 0b 0a 3f 9b 75 ad 3e 7b f1 b7 3e
       0.4045999 0.5392356 0.33878788 0.35926422
000010 c5 4b 3a bc 70 1d 5b 3f 42 42 fd bb 65 42 35 3f
       -0.011370604 0.85591793 -0.007728846 0.70804435
000020 6a aa b5 3e 45 52 1e 3f 4c 80 1f 3f 51 e8 22 3f
       0.35481578 0.61844283 0.6230514 0.63635737
000030 08 f4 81 3f 7a ff 23 3f 3f c0 3a 3f 23 a8 fe bd
       1.0152597 0.640617 0.72949594 -0.12434413
000040 2e 6e e9 3e 82 25 66 be 8c 2a 92 be 88 bc 2f 3f
       0.45591873 -0.22475246 -0.28548086 0.6864705
000050 a6 cb a5 be 7c eb af 3e 13 ae 14 3f ab dd 50 3f
       -0.32381934 0.34359348 0.58078116 0.8158824
000060 b2 42 5c 3f ea 64 bb bd ad b1 75 3d 7b 3d 09 3f
       0.8603927 -0.09150107 0.059983898 0.53609437
000070 67 d6 ca 3d 2c a8 52 3f 3d c3 38 3f c7 c6 80 3f
       0.09904175 0.8228786 0.7217291 1.0060662
000080 61 74 57 be 13 7a 1b 3f 7b aa 58 3f ca 97 b8 3e
       -0.21040489 0.60733145 0.8463513 0.36053306
000090 66 77 7a bc 97 77 49 be 68 f4 c7 bd 61 3b 43 3f
       -0.015287256 -0.19674526 -0.09763414 0.7626248
0000a0 75 04 c2 3e f4 0c 4e 3f bb 67 92 be d0 6a 43 3f
       0.37894025 0.80488515 -0.28594765 0.7633486
0000b0 19 d7 c5 bd 9b 50 2b 3f 22 c9 8c 3e ad 89 fb 3e
       -0.09660167 0.6691987 0.27497202 0.49128476
0000c0 fd 54 0c 3f 9e 32 54 3f d4 c2 8f 3e e5 2c 93 be
       0.5481718 0.82889736 0.2807833 -0.2874519
0000d0 3f 39 f0 3d b9 36 58 bd 98 4e 27 3e 6e 3b 10 3f
       0.11729669 -0.052786563 0.16338575 0.5634068
0000e0 d6 2c f1 3e d0 29 1d 3f 92 61 0a 3f 70 9a 2f 3f
       0.4710452 0.61391926 0.5405513 0.6859503
0000f0 5d 02 13 3f 8b d1 3b 3e ff 24 3f 3f 78 89 d6 3f
       0.5742548 0.18341653 0.74665827 1.6760702

critic_fc2.weight f4 [1, 64]
000000 71 3f 8f 3c 68 b1 d1 be 5c 6d 4b be 61 f5 c5 be
       0.017486306 -0.40955663 -0.19865936 -0.38663772
000010 2f 3f b4 bf e6 c9 f1 be 90 2a c7 bf b8 39 a3 be
       -1.4081782 -0.4722435 -1.5559864 -0.31879973
000020 f3 00 83 be 01 a3 d0 be 5f bf 75 3d 3b bf 80 be
       -0.25586662 -0.40749362 0.05999696 -0.25145897
000030 7f ba 18 be 9f ea ed bd 85 f6 b4 be 9f 0f c1 bf
       -0.14914893 -0.11617016 -0.3534433 -1.5082892
000040 93 c9 1b bf 10 a8 ad bf 74 9a c0 bf 57 f2 93 be
       -0.6085445 -1.3566914 -1.5047135 -0.28895828
000050 ff 0b 82 bf 53 6f cc be c4 61 c6 be db 03 d0 bd
       -1.0159911 -0.39928684 -0.38746464 -0.10156985
000060 0d 67 a9 be 1f b4 f5 bf d9 bb 47 bf a3 c0 c3 be
       -0.33086434 -1.9195594 -0.7802101 -0.38232908
000070 ed dc 90 bf 4e e7 c9 be d9 bf 13 be 57 f6 fd be
       -1.1317421 -0.39434284 -0.14428653 -0.49602005
000080 b7 d2 c1 bf 74 ef ac be 64 dc ff bd d6 a7 ae bf
       -1.514243 -0.33776438 -0.12493208 -1.364497
000090 92 00 ba bf 74 fe a3 bf 80 09 ac bf 52 fc 61 be
       -1.4531424 -1.2812028 -1.3440399 -0.22068909
0000a0 5a 41 94 be 65 41 9f be 02 2b 4f c0 82 79 98 be
       -0.2895611 -0.3110458 -3.237 -0.29780203
0000b0 b5 4b cd bf c2 da 64 be 98 55 64 be d1 7e 1d bf
       -1.6038729 -0.22349074 -0.22298276 -0.6152163
0000c0 00 79 7f be 44 db f1 bd 89 37 c1 be bd 0a 92 c0
       -0.24948502 -0.118094 -0.37737682 -4.563811
0000d0 82 54 8b bf 59 c7 cd bf 3d a8 19 c0 c8 25 e1 be
       -1.0885165 -1.6076461 -2.4008934 -0.43974137
0000e0 df 0b 58 c0 b4 dc 44 bd 89 56 10 be 9f fb 80 be
       -3.3757246 -0.04806204 -0.1409551 -0.25191972
0000f0 84 c1 a2 be a5 71 db be 92 a7 a6 be b0 61 2e 40
       -0.31788266 -0.4286014 -0.3254972 2.7247124
