playground/classic_controls/continuous/mountaincarcontinouus/ddpg/model.pth (torch, 802587 bytes, 12 tensors)

net.0.weight f4 [256, 2]
0	0xbe1394b4	-0.14412194
1	0x3ead3e79	0.33836725
2	0x3f7aadf1	0.97921664
3	0x40766815	3.8501027
4	0x3d7adf66	0.061248206
5	0x3e5a8ce4	0.21342808
6	0x3e0fac5e	0.14030597
7	0xbea7f6c7	-0.32805464
8	0x3f5012a9	0.81278473
9	0x40629714	3.540471
10	0xbee22fbc	-0.44177043
11	0xbe0041d3	-0.1252511
12	0x3f78d6cd	0.9720276
13	0x3f5be363	0.8589384
14	0xbbf00cb2	-0.007325732
15	0xbe783b22	-0.24241307
16	0x3d946ea3	0.07247665
17	0x3f1f1e08	0.621552
18	0xbe534513	-0.20631818
19	0xbe91b76d	-0.28460255
20	0xbf00a0dd	-0.5024546
21	0x412555f9	10.333489
22	0xbd323780	-0.04350996
23	0xbee091bc	-0.43861187
24	0xbec31386	-0.38100833
25	0x3ff5b623	1.9196209
26	0x3ecb01ab	0.3964971
27	0x3f108ffa	0.5646969
28	0xbe9058df	-0.28192803
29	0x3e1a9cb8	0.15098846
30	0x3f1d8769	0.61534745
31	0xbecde842	-0.4021626
32	0x3f93f928	1.1560411
33	0x3f86c949	1.0530177
34	0x3eee252b	0.46512732
35	0xc002bafa	-2.0426621
36	0xbec8793f	-0.39155003
37	0xc00d9527	-2.2122285
38	0xbdc50740	-0.096205235
39	0xbf12e393	-0.573785
40	0x3f287cf4	0.65815663
41	0x406b3a30	3.6754265
42	0xbe0a1580	-0.13484764
43	0x3ea618f6	0.3244092
44	0x3e5b5a4e	0.21421167
45	0x4105a903	8.353763
46	0xbf13baaa	-0.577067
47	0x3eba80d2	0.36426407
48	0xbe848110	-0.25879717
49	0x3e7ed9c4	0.24887758
50	0xbceeb34b	-0.029138228
51	0xbe8f5556	-0.27994794
52	0x3f90c005	1.13086
53	0x3f8986dc	1.0744281
54	0x3f38cc4b	0.72186726
55	0x3e830e55	0.25596872
56	0x3e3a55e4	0.18196827
57	0x3f033dd3	0.5126621
58	0x3e829c96	0.2551009
59	0xbe189490	-0.14900422
60	0xbe775f3e	-0.24157426
61	0x3f09ec58	0.53876257
62	0x3fdd557f	1.7291716
63	0x4112a2c1	9.164735
64	0x3d97dea0	0.07415509
65	0x3f0a34f0	0.53987026
66	0x3e2570e8	0.16156352
67	0xbf0a0254	-0.539098
68	0x3f86d08f	1.0532397
69	0x3f00ad93	0.50264853
70	0xbe1aeaf3	-0.15128689
71	0x3de5169a	0.111859515
72	0xbefbad7d	-0.491558
73	0x4056ec9c	3.3581915
74	0xbb6c4578	-0.0036052149
75	0x3d1fe740	0.039038897
76	0xbe7f41c9	-0.24927439
77	0xc132fc70	-11.18663
78	0x3ef6e191	0.4821897
79	0x3ef773fa	0.4833067
80	0xbeb7c5e7	-0.35893175
81	0xbe080360	-0.13282537
82	0x3ecde22a	0.40211612
83	0xbe2bf70c	-0.1679346
84	0x3ebfbdf3	0.37449607
85	0x3fe84a11	1.8147603
86	0x3d8bcb8b	0.06825932
87	0x3f06ccd0	0.5265627
88	0x3f592b7f	0.84831995
89	0x3ea36048	0.31909394
90	0x3e8919f0	0.267776
91	0xbeafad68	-0.34311986
92	0x3f2a56a7	0.6653847
93	0x3e8f73e0	0.28018093
94	0x3e4b4a17	0.19852482
95	0x3ef70f20	0.48253727
96	0xbe95f06e	-0.29284996
97	0x3f1b326f	0.6062383
98	0xbe9fadab	-0.31187186
99	0x3e9843bb	0.29739174
100	0x3f437f13	0.76365775
101	0x4050c1f1	3.2618372
102	0x3d83bbda	0.06432314
103	0x3ea973bf	0.3309612
104	0xbed9432c	-0.4243406
105	0x3f11688a	0.5680014
106	0xbeef3a05	-0.46723953
107	0x3ecf20a9	0.40454605
108	0x3d2713c2	0.040790327
109	0xbeaa9630	-0.3331771
110	0x3db87d00	0.09008217
111	0xbf23d880	-0.6400223
112	0x3eb0a71a	0.34502488
113	0xbe87735f	-0.2645521
114	0x3d3e5a36	0.04647275
115	0xbef0fa8e	-0.47066158
116	0x3f077311	0.5290995
117	0x4087b1dc	4.2404613
118	0xbed973ad	-0.42471066
119	0x3e599ea6	0.21251926
120	0xbdd36c78	-0.10323423
121	0x3f13c941	0.57728964
122	0xbd3518f0	-0.044213235
123	0x3e4032bf	0.18769358
124	0xbcb4ad47	-0.022055281
125	0x3e8b9969	0.2726548
126	0x3ed83be5	0.42233196
127	0x3e5a20b6	0.2130154
128	0xbed64646	-0.4185049
129	0x3db1be1d	0.08678839
130	0xbf668587	-0.90047497
131	0xc049290e	-3.1431308
132	0x3eed3428	0.46328855
133	0x3f148b63	0.5802519
134	0xbeedf8b2	-0.46478802
135	0xbd44ef6b	-0.04807989
136	0x3fc3cee4	1.5297513
137	0x40bd7f28	5.921772
138	0xbf68b1fd	-0.9089659
139	0xc109add7	-8.604941
140	0x3ea0044a	0.31253272
141	0x3e66dd9a	0.22545472
142	0xbf3f2481	-0.74665076
143	0x411ebbb5	9.920827
144	0xbe47a72a	-0.19497362
145	0x3f165403	0.5872194
146	0x3debeda0	0.11519933
147	0xbf0d6df7	-0.5524592
148	0x3faf39c8	1.3689508
149	0x400f5b50	2.2399483
150	0xbe66f80c	-0.2255556
151	0x3e4834dc	0.19551414
152	0x3e0d0f11	0.13775279
153	0x3f136360	0.5757351
154	0x3d6f24af	0.058384594
155	0xbd7e1d75	-0.06203981
156	0xbdb01520	-0.08597779
157	0x3ee1a4de	0.44071096
158	0x3ef0efaa	0.4705785
159	0xbd3aee7a	-0.045637585
160	0x3f0d623b	0.5522801
161	0x40caa311	6.3324056
162	0x3c1ca500	0.009560823
163	0xbe9c85aa	-0.30570728
164	0xbee83e8d	-0.45360222
165	0x409d55b7	4.916713
166	0x3f1fdae9	0.62443405
167	0x3ef5ec52	0.4803186
168	0x3e88b60d	0.26701394
169	0xbf001d32	-0.5004455
170	0x3ea38016	0.3193366
171	0xbe8dd011	-0.27697805
172	0x3eb39b1e	0.35079283
173	0xbf2cf1ba	-0.67556345
174	0xbdc44648	-0.095837176
175	0x3f2a5474	0.66535115
176	0x3ec3c246	0.38234156
177	0x3f975bb4	1.182486
178	0xbe0ade4f	-0.13561366
179	0x3e67e72b	0.22646777
180	0xbd81a8c4	-0.063310176
181	0xbdb58c43	-0.088646434
182	0x3f9c4d87	1.221116
183	0x40328fdd	2.7900307
184	0xbe73cc84	-0.23808485
185	0x3f1d4849	0.61438423
186	0xbbed46ba	-0.0072410973
187	0x3df3b6a1	0.11900068
188	0xbe82c634	-0.25541842
189	0xbe42cee3	-0.19024234
190	0x3eeb6ee6	0.45983046
191	0x3dd024cb	0.10163268
192	0x3eddee2f	0.43345782
193	0x3f93c6a9	1.1545001
194	0xbe41c497	-0.1892265
195	0x3fb03353	1.3765663
196	0x3e9f3af5	0.31099668
197	0x3e0719c1	0.13193418
198	0x3e9d723e	0.30751222
199	0x3ef63299	0.48085478
200	0xbee8ad3c	-0.45444667
201	0xbe7664d2	-0.24061897
202	0x3f17307d	0.5905836
203	0xbd4cc420	-0.049991727
204	0xbeb144f7	-0.34622929
205	0x3db12470	0.08649528
206	0xbf26a86c	-0.6510074
207	0x409715ad	4.721396
208	0x3ed4e38e	0.4157986
209	0x3fe47469	1.7848026
210	0x3f518ea4	0.8185828
211	0x3ebb3192	0.36561257
212	0xbead7684	-0.33879483
213	0xbed10010	-0.4082036
214	0x3f6bc8b2	0.9210311
215	0x4059bfb5	3.4023259
216	0xbe51215e	-0.20422885
217	0x3d962e3b	0.073330365
218	0xbe553b91	-0.20823504
219	0x3e9f8c3d	0.3116168
220	0xbf87852d	-1.0587517
221	0x3f7d013e	0.9883002
222	0xbd942fae	-0.07235657
223	0xbe3ea4a1	-0.18617488
224	0x3f69dd2d	0.9135311
225	0x3e5f89b3	0.21829872
226	0xbcd17751	-0.02556959
227	0x3eb03540	0.34415627
228	0x3e5b08d0	0.2139008
229	0xbc9f60a0	-0.019455254
230	0x3f0c9665	0.54916984
231	0x3eaf27fa	0.34210187
232	0x3ef1adeb	0.47203
233	0xbf24a184	-0.64308953
234	0x3da94ee8	0.08267003
235	0xbecd35c5	-0.40080085
236	0x3e493cc8	0.19652092
237	0x3ecbcd14	0.398049
238	0x3ed4fc3e	0.41598696
239	0x3e1cea65	0.1532379
240	0xbe610462	-0.21974328
241	0xbec2880b	-0.37994418
242	0x3ebc916c	0.36829698
243	0xbf28a72a	-0.6588007
244	0xbe414825	-0.18875177
245	0x3f4c425d	0.7978876
246	0x3ed71c2c	0.4201368
247	0x406bc5df	3.683952
248	0x3e23e44d	0.16005059
249	0x3eb10051	0.34570554
250	0xbe7b02cb	-0.24512784
251	0xbed253f9	-0.4107969
252	0xbd1c3ee4	-0.038145915
253	0xbecba0fd	-0.39771262
254	0xbd97becf	-0.07409441
255	0x3afe3e04	0.0019397144

net.0.bias f4 [256]
0	0xbe40857a	-0.18800917
1	0xbf1f67c5	-0.62267715
2	0xbd7b61e5	-0.061372656
3	0xbe123d74	-0.14281255
4	0xbeffba54	-0.49946845
5	0xbf54b3fa	-0.8308712
6	0xbefd9157	-0.49524948
7	0xbcf4649b	-0.029833129
8	0xbd9ac0ad	-0.07556281
9	0xbe945070	-0.2896762
10	0xbee4a704	-0.44658673
11	0xbe93ffa4	-0.28905976
12	0xbef1d143	-0.47229967
13	0xbe627245	-0.22113903
14	0xbf1fbbfd	-0.6239622
15	0xbedc13c8	-0.42983842
16	0xbf1e90c6	-0.61939657
17	0x3e60e0f6	0.21960816
18	0xbf244604	-0.64169335
19	0xbed128fa	-0.40851575
20	0xbec67b13	-0.38765773
21	0xbe26b59b	-0.16280214
22	0xbf088e93	-0.5334255
23	0xbf3ae70b	-0.73008794
24	0xbeab6d8e	-0.3348202
25	0xbe263a70	-0.1623323
26	0xbf143e3b	-0.57907456
27	0xbeb35aa3	-0.35030088
28	0xbf0e7f98	-0.5566344
29	0xbe0de288	-0.13855946
30	0xbea8a7a2	-0.32940394
31	0x3d9900aa	0.0747083
32	0xbd730698	-0.05933246
33	0xbea22b8e	-0.31673855
34	0xbf088b00	-0.533371
35	0xbe39f856	-0.18161139
36	0xbf215456	-0.6301931
37	0xbe96aa59	-0.2942684
38	0xbdae526e	-0.08511816
39	0xbe805131	-0.25061944
40	0xbf11ad0a	-0.5690466
41	0xbf0497a4	-0.51793885
42	0xbe945ff0	-0.28979445
43	0xbd763b6a	-0.060115255
44	0xbecc76b1	-0.39934304
45	0xbed6bcc2	-0.41940886
46	0xbf0b4348	-0.5439954
47	0xbe3e63c4	-0.18592745
48	0xbeb4a14f	-0.3527932
49	0xbebfa9ce	-0.37434238
50	0xbef39176	-0.47571915
51	0xbe730d7b	-0.23735611
52	0xbf173e53	-0.59079474
53	0xbf1fecee	-0.624709
54	0xbe0d4929	-0.1379744
55	0xbe38301c	-0.17987102
56	0xbe4146ac	-0.18874615
57	0xbd3fba7b	-0.0468087
58	0xbecf23b7	-0.40456936
59	0xbf36bcc1	-0.71381766
60	0xbe88d304	-0.26723492
61	0xbd5e375d	-0.054252017
62	0xbe58489a	-0.21121445
63	0xbe53edc0	-0.20696163
64	0xbf00c410	-0.5029917
65	0xbf3e94e9	-0.7444597
66	0xbe9ab3ea	-0.3021539
67	0xbf4c94cb	-0.7991454
68	0xbf49151d	-0.7854784
69	0xbef17991	-0.4716306
70	0xbe976880	-0.29571915
71	0xbe26c188	-0.16284764
72	0xbe74346b	-0.23848121
73	0xbedbc101	-0.42920688
74	0xbdcf4ccc	-0.1012207
75	0xbe9048a4	-0.2818042
76	0xbdf07791	-0.117415555
77	0xbd1f8578	-0.038945645
78	0xbdef5090	-0.11685288
79	0xbe75fa7f	-0.24021338
80	0xbe8bbdbd	-0.27293196
81	0xbf33f31a	-0.7029282
82	0xbf247fce	-0.64257514
83	0xbed01905	-0.40644088
84	0xbe25a332	-0.16175535
85	0xbe8f8361	-0.28029922
86	0xbe6ab040	-0.22918797
87	0xbea11236	-0.31459206
88	0xbe89456b	-0.26810774
89	0xbe2eed68	-0.17082751
90	0xbe3f1d36	-0.18663487
91	0xbf34e404	-0.70660424
92	0xbf317aa2	-0.6932775
93	0xbe393b43	-0.18089013
94	0xbea65c59	-0.3249233
95	0xbec2a35b	-0.38015255
96	0xbea439c8	-0.32075334
97	0xbeaa6a47	-0.33284208
98	0xbe22d4a1	-0.15901424
99	0xbe2a2fe9	-0.16619839
100	0xbf1a5770	-0.6028967
101	0xbefd2f57	-0.4945018
102	0xbf20ad4a	-0.6276442
103	0xbf27dda3	-0.65572566
104	0xbebf298d	-0.37336388
105	0xbec72589	-0.38895825
106	0xbf2922f1	-0.6606894
107	0xbf0c08a2	-0.5470067
108	0xbe7afb33	-0.24509887
109	0xbe80a667	-0.25126955
110	0xbf8cb31c	-1.099216
111	0xbe2f9a54	-0.17148715
112	0xbee55cdf	-0.44797418
113	0xbd4aae0a	-0.049482383
114	0xbe911e43	-0.283434
115	0xbf26052d	-0.6485165
116	0xbe5a4223	-0.21314292
117	0xbe034fb9	-0.1282338
118	0xbdfc898c	-0.123309225
119	0xbe88f7cb	-0.2675155
120	0xbf116cf8	-0.568069
121	0xbeb0457c	-0.34428012
122	0xbe9932f2	-0.2992168
123	0xbed7043a	-0.41995412
124	0xbdcc03c6	-0.09961657
125	0xbec1d9c0	-0.37861443
126	0xbe037511	-0.12837626
127	0xbe180820	-0.1484685
128	0xbec3c8c1	-0.382391
129	0xbe71321c	-0.23554271
130	0xbe1ebe94	-0.15502387
131	0xbec302b8	-0.38088012
132	0xbf00975e	-0.5023097
133	0xbeb5c962	-0.35505205
134	0xbda036e5	-0.0782297
135	0xbf394d0d	-0.72383195
136	0x3ea5ce1c	0.3238381
137	0xbf0dedf1	-0.55441195
138	0xbf284c20	-0.6574116
139	0xbea979e5	-0.3310081
140	0xbe38e8bd	-0.18057533
141	0xbf0444a2	-0.51667225
142	0xbe9c8d81	-0.3057671
143	0xbf255df9	-0.64596516
144	0xbdead549	-0.11466462
145	0xbea850a8	-0.32874036
146	0xbdcc53a8	-0.09976894
147	0xbe905300	-0.28188324
148	0xbef8dc2a	-0.48605472
149	0xbd6d1c90	-0.057888567
150	0xbf1df8b4	-0.61707616
151	0xbe4b6808	-0.19863904
152	0xbe95f12f	-0.2928557
153	0xbec36f08	-0.38170648
154	0xbf506f75	-0.8142007
155	0xbec1b24b	-0.3783134
156	0xbe65966a	-0.2242066
157	0xbeba3c0e	-0.36373943
158	0xbf24c8aa	-0.6436869
159	0xbe5a93fa	-0.21345511
160	0xbf08bbbc	-0.5341146
161	0xbf12cd56	-0.5734457
162	0xbe9f6dc3	-0.3113843
163	0xbf24eea8	-0.6442666
164	0xbeab012e	-0.33399338
165	0xbe29fe56	-0.16600928
166	0xbf44e778	-0.76915693
167	0xbe69c64f	-0.22829555
168	0xbe445c8e	-0.19175932
169	0xbf18da95	-0.5970853
170	0xbf0bb443	-0.5457193
171	0xbe06ac01	-0.13151552
172	0xbec25b89	-0.3796046
173	0xbe0a340a	-0.13496414
174	0xbec5072d	-0.38482037
175	0xbd80cea4	-0.062894136
176	0xbeb3b3cc	-0.35098112
177	0xbed85344	-0.42251027
178	0xbf2f9dec	-0.68600345
179	0x3e76cf42	0.241025
180	0xbec255f4	-0.37956202
181	0xbe14e628	-0.14540923
182	0xbf315324	-0.6926749
183	0xbda88637	-0.082287244
184	0xbe676d50	-0.22600293
185	0xbe9feff3	-0.31237754
186	0xbc77ddd7	-0.015128574
187	0xbf25d589	-0.64778954
188	0xbe53ae73	-0.20672016
189	0xbeb31034	-0.349733
190	0xbdfb3cfa	-0.1226749
191	0xbec7710b	-0.38953432
192	0xbe8a40dd	-0.27002612
193	0xbe5108a4	-0.20413452
194	0xbe8192bc	-0.25307262
195	0xbf04e529	-0.5191217
196	0xbefe14c4	-0.49625218
197	0xbeda48e1	-0.42633727
198	0xbe8a893a	-0.2705782
199	0xbe960645	-0.29301658
200	0xbe7a328e	-0.24433348
201	0xbe531934	-0.20615083
202	0xbe86af95	-0.26305833
203	0xbefc7ed9	-0.49315527
204	0xbeae7956	-0.34076947
205	0xbe574024	-0.21020561
206	0xbeacf503	-0.3378068
207	0xbf0c3980	-0.5477524
208	0x3f041933	0.5160095
209	0xbefec2f3	-0.4975811
210	0xbf2c453a	-0.6729313
211	0xbf100f0b	-0.56272954
212	0xbd3e8fdf	-0.046523925
213	0xbf03d0b6	-0.5149034
214	0xbef10429	-0.47073486
215	0xbe5835f7	-0.21114336
216	0xbda0a987	-0.07844835
217	0x3d95f421	0.073219545
218	0xbdd31e75	-0.103085436
219	0x3e9f6cd0	0.31137705
220	0xbed53085	-0.4163858
221	0xbf0996b2	-0.5374557
222	0xbe469888	-0.19394124
223	0xbe875c7b	-0.26437744
224	0xbe94c505	-0.29056564
225	0xbea9d1e0	-0.33167934
226	0xbdc68b98	-0.09694594
227	0xbe5b4ae2	-0.21415284
228	0xbef8adc6	-0.4857008
229	0xbf115cc8	-0.567822
230	0xbe8ae99b	-0.27131352
231	0xbe9731aa	-0.29530078
232	0xbf047c5e	-0.5175227
233	0xbef0602b	-0.4694837
234	0xbe8ae5b9	-0.2712839
235	0xbe49d884	-0.197115
236	0xbe5274d5	-0.2055238
237	0xbe47b883	-0.1950398
238	0xbdc4770d	-0.0959302
239	0xbd964359	-0.07337064
240	0xbe9ebf5f	-0.3100538
241	0xbf3181ac	-0.6933849
242	0xbf09a744	-0.5377085
243	0xbdd65a61	-0.10466457
244	0xbe7b8355	-0.24561818
245	0xbe985c31	-0.29757836
246	0xbe2e3cf5	-0.17015441
247	0xbeae80d3	-0.3408266
248	0xbf0e1c2a	-0.55511725
249	0xbe8220cc	-0.25415647
250	0xbe3c7495	-0.18403848
251	0xbdfa9a50	-0.12236464
252	0xbed5c550	-0.417521
253	0xbea04de9	-0.3130944
254	0xbe640180	-0.22266197
255	0xbd7969d3	-0.060891937

net.2.weight f4 [256, 256]
0	0xbca864a0	-0.020555794
1	0x3f079cf1	0.5297385
2	0xbd72f462	-0.059315093
3	0x3e14c3f0	0.14527869
4	0x3ba0232f	0.0048870067
5	0x3d7c2b88	0.061564952
6	0x3e96fb08	0.29488397
7	0x3d4f2164	0.050568953
8	0xbd0cf7d7	-0.034416046
9	0x3cdcfebc	0.026976936
10	0xc05ee3ab	-3.4826458
11	0x3cd5c684	0.026095636
12	0x3f0f2864	0.55921006
13	0x3d04cf36	0.032424174
14	0xbd3a811e	-0.045533292
15	0x3d07ad02	0.033123977
16	0x3d8498f8	0.06474489
17	0x3f206e35	0.6266816
18	0xbfb1eb20	-1.389988
19	0xbc6e46b8	-0.014543228
20	0x3e5592e3	0.20856814
21	0x3d374778	0.044745892
22	0x4089729c	4.2952404
23	0x3d104a6e	0.03522723
24	0xbd0b69a4	-0.034036294
25	0x3a9e6b00	0.0012086332
26	0x3d71fa5a	0.059076644
27	0x3cbfb7dc	0.0234031
28	0x3c25db60	0.010123104
29	0xbd77517e	-0.06038045
30	0xbc5392a8	-0.012913384
31	0x3e7bc774	0.24587804
32	0x3d759c56	0.059963547
33	0xbd04e8b0	-0.03244847
34	0x3ddb3c65	0.10704879
35	0xbd0b0c92	-0.033947535
36	0x3f4db774	0.8035805
37	0xbdc00586	-0.093760535
38	0xbf4900c9	-0.78516823
39	0xbbb1e410	-0.0054287985
40	0xbd4bb232	-0.049730487
41	0xbc419180	-0.011814475
42	0x3e80676d	0.25078908
43	0xbc6d50f8	-0.0144846365
44	0x3a83bf80	0.0010051578
45	0xbc2d58e0	-0.0105802715
46	0x3ccc3398	0.024926946
47	0xbc7baaa8	-0.015360512
48	0xbc493a48	-0.012281962
49	0x3b01cfe0	0.001980774
50	0xbc94ba86	-0.018155348
51	0x3e030800	0.1279602
52	0xbd55de54	-0.05221398
53	0x3cbc0950	0.02295366
54	0x3b164000	0.002292633
55	0x3cc1ac18	0.023641631
56	0x3cfc21e8	0.030777887
57	0x3d16a48e	0.036778025
58	0x3e333c77	0.17503534
59	0x3d132332	0.035922237
60	0x3d1e0ef6	0.038588487
61	0x3d1568fe	0.03647708
62	0x3e57e017	0.21081577
63	0xbd6a908c	-0.057266757
64	0xbd278664	-0.04089965
65	0xbfa6ccbf	-1.3031234
66	0xbd1a5e74	-0.037687734
67	0x3cf4bdf8	0.02987574
68	0x3df51cc5	0.11968378
69	0xbbbdd424	-0.0057931114
70	0x3d0ec8f8	0.034859627
71	0x3e5f5ea5	0.21813448
72	0xbd110132	-0.03540153
73	0xbc950330	-0.018189996
74	0xbe8e17c5	-0.2775251
75	0xbcd326a8	-0.025775269
76	0x3cfb4588	0.030672804
77	0x3c8de8a4	0.017322846
78	0x3d4fb6e6	0.050711535
79	0xbc4ea9f0	-0.012613758
80	0x3f9bf7d3	1.2185005
81	0xbd657646	-0.056020997
82	0xbf74ce92	-0.956277
83	0x3dc2985d	0.09501717
84	0x3d3f4246	0.046694063
85	0xbce8e428	-0.028429106
86	0xbd0ba0e0	-0.03408897
87	0x3ce858ac	0.028362595
88	0x3d43c39e	0.047793977
89	0xbc673ae0	-0.014113158
90	0xbbbe99e0	-0.005816683
91	0xbe931cc0	-0.28732872
92	0xbc9d2c0c	-0.019186042
93	0x3d60ed9c	0.054914102
94	0x3d320ff4	0.043472245
95	0xbcd176d4	-0.025569357
96	0xbe85a708	-0.26103997
97	0xbbac9a00	-0.0052673817
98	0x3c5ec120	0.013595849
99	0x3d0a5add	0.03377806
100	0xbd1d99e0	-0.038476825
101	0xbd3e257a	-0.04642246
102	0xbc23cdb0	-0.00999777
103	0xc061c6e5	-3.5277646
104	0x3e2c79d5	0.1684335
105	0x3e516323	0.20447974
106	0xbd537a78	-0.051630467
107	0xbd2dd299	-0.04243717
108	0xbabde780	-0.0014488548
109	0xbc26b7c0	-0.010175645
110	0x3fb78c56	1.4339702
111	0x3d39c362	0.045352347
112	0x3cc6821b	0.024231961
113	0xbd44e2fc	-0.04806803
114	0x3bb29270	0.0054495856
115	0x3d43e902	0.047829635
116	0xba210580	-0.0006142482
117	0xbcfb6a48	-0.030690327
118	0xbd58b556	-0.05290731
119	0xbd79bbce	-0.06097012
120	0xbd29ea5c	-0.04148327
121	0x3c12f750	0.008970097
122	0xb72ac000	-1.0177493e-05
123	0x3d7b9916	0.06142529
124	0xbd4f3ed5	-0.05059703
125	0xbd48775c	-0.048941955
126	0x3d449c48	0.048000604
127	0xbcc8a954	-0.024494804
128	0x3c556e58	0.013026796
129	0x3cc88644	0.024478085
130	0x3d34f93a	0.044182993
131	0x3e4ebbd9	0.20188846
132	0x3e0524b7	0.13002287
133	0x3ccb5850	0.024822384
134	0xbbbdbb30	-0.0057901368
135	0x40bdc391	5.930123
136	0x3f4c4a27	0.7980065
137	0x3d203cd2	0.039120503
138	0x3f7bbf23	0.98338526
139	0x3bfd8ea0	0.0077379495
140	0x3d250647	0.04028919
141	0x3b9d3b20	0.004798308
142	0xbd7e573a	-0.062094904
143	0x3cec25f8	0.028826699
144	0xbcfc645d	-0.030809576
145	0x3bfbd4f0	0.0076852962
146	0x3d08a474	0.03335996
147	0xbd04c4f6	-0.0324144
148	0xbc5210f8	-0.0128214285
149	0x4040895d	3.008384
150	0x3d250962	0.04029215
151	0xbe311998	-0.1729492
152	0x3d1a9a42	0.037744768
153	0xbd673814	-0.056449965
154	0xbd67aae6	-0.056559466
155	0xbd3dbe44	-0.04632403
156	0x3e1276d4	0.14303142
157	0x3d40102e	0.04689043
158	0xbb98a170	-0.0046579167
159	0x3a092700	0.00052319467
160	0x3d94f9b0	0.072741866
161	0x3d558002	0.05212403
162	0x3cbc6688	0.02299811
163	0xbf0a86e9	-0.54112107
164	0x3d16d8be	0.036827795
165	0x3dfd3f6a	0.12365611
166	0x3d0c1c4c	0.034206674
167	0xbe0cde5f	-0.13756703
168	0xbd0944c0	-0.03351283
169	0x3d2db1e2	0.04240597
170	0x3d72c5b4	0.059270576
171	0xbd5ef4e4	-0.054432765
172	0x3c1e6718	0.009668134
173	0x3b996fd0	0.0046825185
174	0x3d3a53b0	0.045489967
175	0xbd3b6902	-0.04575444
176	0x3d406df4	0.04697986
177	0xbbf41920	-0.007449284
178	0x3d2914f2	0.04127974
179	0xbf468f03	-0.7756197
180	0xbd37be9e	-0.04485952
181	0xbca8e5a4	-0.020617314
182	0xbccba26c	-0.024857722
183	0x3d4e2a0e	0.050333075
184	0x3cf4d858	0.029888317
185	0xbd3a3396	-0.045459352
186	0x3b6d4f20	0.0036210492
187	0x3b0a2100	0.0021076798
188	0xbb164c00	-0.0022933483
189	0x3d11df30	0.03561324
190	0xbd72515e	-0.05915963
191	0x3c1eb320	0.009686261
192	0x3cfea150	0.03108278
193	0x3c0102d0	0.007874206
194	0xbe173b8d	-0.1476881
195	0xbfa33d2e	-1.2753046
196	0xbd28aac6	-0.041178487
197	0x3c1ff850	0.009763792
198	0x3cce8994	0.025212087
199	0xbcd4d9a8	-0.025982693
200	0x3c938c74	0.01801131
201	0x3d73facc	0.05956535
202	0xbc9e1b18	-0.019300029
203	0x3e2ee11d	0.17078061
204	0x3cb943a8	0.022615269
205	0x3d68badf	0.05681884
206	0x3e25ebb1	0.1620319
207	0x3d4c61fa	0.049898125
208	0x3f46698f	0.7750482
209	0x3dbafab0	0.09129846
210	0x3d208a6a	0.039194502
211	0x3d6519a5	0.05593266
212	0x3d163e12	0.03668029
213	0xbc843750	-0.016139656
214	0xbd2fbf24	-0.042906895
215	0xbc344f40	-0.011005223
216	0xbd652c5c	-0.055950508
217	0x3f0653f7	0.5247187
218	0x3d0c5962	0.03426493
219	0x3dad4cbc	0.084619015
220	0x3ce29d80	0.027662992
221	0xbd7aed16	-0.06126126
222	0x3f7b23b9	0.98101383
223	0x3d0d1bb0	0.034450233
224	0x3cbce3f8	0.023057923
225	0xbd3fbf30	-0.04681319
226	0xbc8eea58	-0.017445728
227	0xbd7ddcde	-0.061978213
228	0x3e14c43b	0.14527981
229	0x3c1e0a08	0.009645946
230	0xbc092d80	-0.008372664
231	0xbc2a86d8	-0.010408126
232	0x3d153d30	0.036435306
233	0x3fc2a312	1.5206015
234	0x3d51bb28	0.051203877
235	0xbcf9b7ac	-0.03048309
236	0xbd0365aa	-0.032079376
237	0x3bbdaf90	0.005788751
238	0x3ce23358	0.027612373
239	0x3d4997c8	0.049217016
240	0xbc4f5e28	-0.012656726
241	0xbc9963bc	-0.018724315
242	0x3cf74ec0	0.030188918
243	0xbd067680	-0.032827854
244	0xbc17d400	-0.009266853
245	0xbd7bc460	-0.061466575
246	0xbd46b3e3	-0.048511397
247	0x3e9798a9	0.29608658
248	0x3e04e3ea	0.12977567
249	0xbd24af9a	-0.04020653
250	0xbc347458	-0.011014067
251	0xbcbc1fbc	-0.02296435
252	0x3d553ed0	0.052061856
253	0xbd31c48c	-0.043400332
254	0x3c9b46a8	0.01895459
255	0x3c7a3bb8	0.015273027

net.2.bias f4 [256]
0	0xbde2da84	-0.11076835
1	0xbf701ad6	-0.9379095
2	0xbe8714fb	-0.26383194
3	0xbc8c670c	-0.01713898
4	0xbda8efa6	-0.08248834
5	0xbd7b7207	-0.06138804
6	0xbde351db	-0.11099597
7	0xbda43bcd	-0.080192186
8	0xbe3c5265	-0.18390806
9	0xbd318435	-0.043338973
10	0xbce949a1	-0.028477492
11	0xbaf95b17	-0.0019024339
12	0xbe04b1d7	-0.12958466
13	0xbe97dcfd	-0.29660788
14	0xbf789904	-0.97108483
15	0xbe10d5bc	-0.14144033
16	0xbe43a3f2	-0.19105509
17	0xbcf57e33	-0.029967403
18	0xbe156bf3	-0.1459196
19	0xbda17ed5	-0.078855194
20	0xbd589884	-0.052879825
21	0xbe35284b	-0.17691152
22	0xbd6ee567	-0.058324244
23	0xbd922a2b	-0.07136949
24	0xbc57cd15	-0.013171454
25	0xbda68304	-0.08130458
26	0xbe5d2b11	-0.2159846
27	0xbdba2cfd	-0.09090612
28	0x3eb133d2	0.34609848
29	0xbe464ef5	-0.19366057
30	0xbd6e2841	-0.058143858
31	0xbdb45a33	-0.08806267
32	0xbd09f256	-0.033678375
33	0xbd48cec4	-0.049025312
34	0xbe813209	-0.25233486
35	0xbe011183	-0.12604336
36	0xbd0886ce	-0.033331685
37	0xbe1f7170	-0.15570617
38	0xbe0d8809	-0.13821425
39	0xbd6d644b	-0.057956975
40	0xbd386f1d	-0.04502784
41	0xbd6588d7	-0.056038704
42	0x3f08245a	0.5318047
43	0xbdf6feda	-0.12060328
44	0xbc0b1de8	-0.008491017
45	0xbe1c3176	-0.15253243
46	0xbe2c4eb0	-0.16826892
47	0xbdeba14e	-0.11505376
48	0xbe15a30b	-0.14612977
49	0xbe1fb109	-0.15594877
50	0xbdc1f465	-0.09470443
51	0xbd3ecde0	-0.046583056
52	0xbda9b2e5	-0.082860745
53	0xbdeb3934	-0.1148552
54	0xbd480f3a	-0.048842646
55	0xbe1886a1	-0.14895107
56	0xbd4cb67d	-0.049978722
57	0xbbd0083b	-0.0063486374
58	0xbd817c21	-0.06322504
59	0xbdd1270f	-0.10212528
60	0xbe28cd43	-0.16484551
61	0xbd9a673e	-0.07539223
62	0xbdb38bda	-0.08766909
63	0xbdefc8a0	-0.11708188
64	0xbd6c2541	-0.057652716
65	0xbe2aa7bc	-0.16665548
66	0xbcb4dc20	-0.02207762
67	0xbd01af1a	-0.03166113
68	0xbcee356a	-0.029078204
69	0xbe94ae8e	-0.29039425
70	0xbe7c4121	-0.2463422
71	0xbd94bbea	-0.07262404
72	0xbd0cb620	-0.034353375
73	0xbbe53889	-0.006995265
74	0xbce6b651	-0.028163107
75	0xbd6f0f9b	-0.058364492
76	0xbd3557b6	-0.0442731
77	0xbe443ba0	-0.1916337
78	0xbe2d0bba	-0.16899005
79	0xbe55fcbe	-0.20897195
80	0xbd6abe73	-0.057310533
81	0xbcfeae91	-0.0310891
82	0xbc64dbb7	-0.0139684
83	0xbc503103	-0.012706998
84	0xbca36422	-0.019945208
85	0xbcd57612	-0.026057277
86	0xbd030d20	-0.03199494
87	0xbdea0360	-0.11426425
88	0xbdf94b5d	-0.121725775
89	0x3bb08098	0.0053864233
90	0xbdcca55a	-0.09992476
91	0xbd97c84a	-0.07411249
92	0xbd02063f	-0.031744238
93	0xbe26048f	-0.16212676
94	0xbe190dac	-0.14946622
95	0xbe369195	-0.17828973
96	0xbcd1f3c3	-0.02562893
97	0xbd92cd58	-0.071680725
98	0xbd8ac849	-0.067764826
99	0xbac3e5cd	-0.0014945805
100	0xbd7c126e	-0.061541013
101	0xbd89e6b8	-0.06733459
102	0xbdbfc89d	-0.09364436
103	0xbdbfcf82	-0.09365751
104	0xbd7e09b6	-0.06202098
105	0xbd870c54	-0.06594148
106	0xbdcea8bb	-0.100907765
107	0xbcbd9041	-0.023140075
108	0xbe2c3b95	-0.16819604
109	0xbd7a1a25	-0.06106009
110	0xbda4c690	-0.08045685
111	0xbd81276d	-0.06306348
112	0xbd92fd0f	-0.07177173
113	0xbc0ae734	-0.008477975
114	0xbe4059f6	-0.18784317
115	0xbecf1ce2	-0.40451723
116	0xbe4b2eb1	-0.1984203
117	0xbd0f9262	-0.03505171
118	0xbd87ecbb	-0.0663695
119	0xbba4a612	-0.00502468
120	0xbc7fab76	-0.015604844
121	0xbe156ef3	-0.14593105
122	0xbaf99b95	-0.001904356
123	0xbc0bf04c	-0.008541178
124	0xbe19e7d3	-0.1502984
125	0xbbbefe8c	-0.005828684
126	0xbe1f412e	-0.15552208
127	0xbe98d7f5	-0.29852262
128	0xbdcaf310	-0.09909642
129	0xbc87d3c6	-0.016580474
130	0xbe2a73f4	-0.16645795
131	0xbdf6ed3b	-0.12056967
132	0xbdd11a6c	-0.10210118
133	0xbc8b4829	-0.017002182
134	0xbca76d1d	-0.020437771
135	0xbcbc3f3a	-0.022979368
136	0xbb5339cc	-0.0032230495
137	0xbd8acc4e	-0.06777249
138	0xbdbfafb2	-0.09359683
139	0xbcf7a7d4	-0.030231394
140	0xbda720e9	-0.08160574
141	0xbe079f38	-0.13244331
142	0xbe0047da	-0.12527409
143	0xbd622102	-0.05520726
144	0xbd528193	-0.051393103
145	0xbeb6ee82	-0.35728842
146	0xbd0f4261	-0.034975413
147	0xbc1ddd51	-0.0096352855
148	0xbcfc75e4	-0.030817933
149	0xbd99ffc6	-0.07519488
150	0xbdfe6b5f	-0.12422823
151	0xbe06e180	-0.13171959
152	0xbb7ddc6f	-0.0038736125
153	0xbd3c9d04	-0.04604818
154	0xbcf67e86	-0.030089628
155	0xbd0816ff	-0.033225056
156	0xbd86a835	-0.06575052
157	0xbe079110	-0.1323893
158	0xbe51de85	-0.2049504
159	0xbda1de45	-0.07903723
160	0xbf007a9e	-0.501871
161	0xbd08e134	-0.033417895
162	0xbe172d0c	-0.14763278
163	0xbe4d6f01	-0.20061876
164	0xbd0b61d9	-0.03402886
165	0xbd8529a1	-0.06502081
166	0xbdd1415e	-0.10217546
167	0xbe148110	-0.14502358
168	0xbdb9cdd2	-0.0907246
169	0xbe023c57	-0.1271833
170	0xbd3ae410	-0.045627654
171	0xbe384ddc	-0.17998451
172	0xbe075bc0	-0.13218594
173	0xbfbe1854	-1.4851174
174	0xbcb9f0b9	-0.022697793
175	0xbe574690	-0.21023011
176	0xbe15be66	-0.14623412
177	0xbc7d0f2d	-0.015445513
178	0xbd64995d	-0.05581032
179	0xbd0e1826	-0.034691
180	0xbba1744a	-0.004927193
181	0xbdfd9a10	-0.12382901
182	0xbdcef85b	-0.10105964
183	0xbe542218	-0.2071613
184	0xbda99b74	-0.082816035
185	0xbde9433c	-0.11389777
186	0xbf67f83e	-0.9061316
187	0xbd807cdb	-0.06273814
188	0xbe382fdd	-0.17987008
189	0xbe232264	-0.15931088
190	0xbdac1ac9	-0.08403546
191	0xbc206d67	-0.009791709
192	0xbe029cd4	-0.12755138
193	0xbd491df0	-0.049100816
194	0xbd9f66f0	-0.07783306
195	0xbd39a116	-0.04531964
196	0xbdb0f655	-0.08640734
197	0xbdec521d	-0.11539099
198	0xbcc6a04d	-0.02424636
199	0xbe514288	-0.20435536
200	0xbe2b76a5	-0.16744478
201	0xbdb473fb	-0.08811184
202	0xbd89bb76	-0.067252085
203	0xbe1a0f3e	-0.15044877
204	0xbbccffeb	-0.0062560937
205	0xbee6e5cc	-0.45097196
206	0xbdae20c3	-0.085023426
207	0xbd76fcdc	-0.06029974
208	0xbe0279cc	-0.12741774
209	0xbc918a12	-0.017766032
210	0xbf5faa67	-0.8736939
211	0xbd087ca4	-0.03332199
212	0xbc44806a	-0.011993507
213	0xbdabd948	-0.083910525
214	0xbd7d2730	-0.06180495
215	0xbe6ae272	-0.22937945
216	0xbd35c3c7	-0.04437616
217	0xbcfeb315	-0.031091252
218	0xbe1a693a	-0.15079203
219	0xbd8eeec9	-0.069791384
220	0xbd93da80	-0.0721941
221	0x3ea6038b	0.32424578
222	0xbf675d3c	-0.9037664
223	0xbc30278e	-0.010751618
224	0xbbde75bf	-0.006788939
225	0xbd9d4a96	-0.07680242
226	0xbdc71b90	-0.09722054
227	0xbc31b388	-0.010846026
228	0xbe0015e9	-0.12508358
229	0xbe52d91e	-0.20590636
230	0xbddc9f48	-0.10772568
231	0xbc642153	-0.013923961
232	0xbd725de3	-0.05917157
233	0xbdb3d6fb	-0.08781239
234	0xbe715468	-0.23567355
235	0xbd46d862	-0.048546202
236	0xbc9eb201	-0.019371988
237	0xbe6c3f76	-0.23071083
238	0xbe23a2de	-0.15980098
239	0xbd318532	-0.043339916
240	0xbd2559b3	-0.040368747
241	0xbd8a1832	-0.06742896
242	0xbcda3f9e	-0.026641663
243	0xbdfe6272	-0.12421121
244	0xbd21145f	-0.039326068
245	0xbc259677	-0.010106674
246	0xbad17548	-0.0015980387
247	0xbdc7c3e8	-0.09754163
248	0xbd14e4cd	-0.036351014
249	0xbd5176d7	-0.051138725
250	0xbdad8453	-0.084725045
251	0xbdaa4ba4	-0.083152086
252	0xbe02e8bf	-0.12784098
253	0xbc57a352	-0.013161497
254	0xbd7b5db8	-0.061368674
255	0xbc8dc01c	-0.017303519

net.4.weight f4 [1, 256]
0	0x3fec75bb	1.8473428
1	0xc037c880	-2.8716125
2	0xbee08c13	-0.43856868
3	0xbaed07ec	-0.0018084026
4	0xba2dc70b	-0.0006629086
5	0xbc1f471b	-0.009721543
6	0xbddda13c	-0.10821769
7	0xbcd5a0f3	-0.026077723
8	0xbd5a8e3f	-0.053358313
9	0xbcbb54af	-0.022867529
10	0x3d25b950	0.04045993
11	0x3df2471b	0.118299685
12	0x3c51ff78	0.012817256
13	0xbf512150	-0.81691456
14	0x402ad7e1	2.6694262
15	0x3c19949d	0.009373811
16	0xbc24b054	-0.0100518055
17	0x3ccb9d9a	0.024855424
18	0x3cc74ac7	0.024327649
19	0x3c66edca	0.014094779
20	0x3d3b37a1	0.04570735
21	0xbbd9f444	-0.006651433
22	0x3cd2bfa4	0.025726147
23	0xbc606824	-0.013696704
24	0x3be526f4	0.006993169
25	0x3c9e35f8	0.019312844
26	0x3e0af93a	0.13571635
27	0xbe079729	-0.13241257
28	0x3f9d921d	1.2310215
29	0xbdbb90dd	-0.0915849
30	0xbd06bf47	-0.03289726
31	0x3c92fb07	0.017941965
32	0x3cd2aad6	0.025716227
33	0x3c939035	0.0180131
34	0xbf7bc31f	-0.98344606
35	0xbcb4d8cb	-0.022076031
36	0xbcd981a6	-0.026551079
37	0xbdfcb199	-0.123385616
38	0xbdb8a1e7	-0.090152554
39	0xbc2b6d4d	-0.010463071
40	0xbbb153bb	-0.005411593
41	0x3da53033	0.08065834
42	0xbfbcc968	-1.4748964
43	0xbddad39a	-0.10684891
44	0xba6992ba	-0.00089101086
45	0xbe02b41b	-0.12764017
46	0xbc49a6dc	-0.012307849
47	0x3c9279ae	0.017880287
48	0xbe8145a3	-0.2524844
49	0xbb653174	-0.0034972103
50	0x3d12a052	0.035797425
51	0x3c6cedf0	0.014461026
52	0xbb9e9d24	-0.00484051
53	0x3d832eb8	0.06405395
54	0xbce9a4d0	-0.028520972
55	0x3caeced0	0.02133885
56	0x3caf186e	0.021373954
57	0x3da356c0	0.079755306
58	0xbc8091db	-0.01569455
59	0xbd84ac47	-0.06478172
60	0x3cb43e44	0.022002347
61	0xbc9d2dcc	-0.019186877
62	0xbcaa4379	-0.020784127
63	0x3d5a7f6f	0.053344186
64	0xbccac73a	-0.024753202
65	0xbdb658d7	-0.089036636
66	0xbcbb03cf	-0.022828965
67	0xbcb8786c	-0.02251836
68	0xbb8095f1	-0.0039241244
69	0xbd223e9d	-0.039610494
70	0xbc4947f3	-0.01228522
71	0xbc23ded5	-0.010001858
72	0xbc82fe58	-0.015990421
73	0x3cfa1672	0.03052828
74	0x3da9fbc9	0.08299977
75	0xbd0d2157	-0.034455623
76	0x3cf7a92a	0.03023203
77	0xbdd41db3	-0.10357227
78	0x3da27404	0.079322845
79	0x3e348801	0.17630006
80	0x3bc7854c	0.0060888883
81	0xbc6fc784	-0.014634971
82	0xbcf398d1	-0.029735954
83	0xbc97a44f	-0.018510966
84	0x3cdf8a2f	0.02728757
85	0x3c5b3b52	0.013380842
86	0x3c440321	0.011963637
87	0x3d17bc55	0.03704484
88	0x3caa7414	0.020807303
89	0x3e1c9799	0.15292205
90	0xbcbf5ed6	-0.023360651
91	0x3c21079e	0.009828476
92	0x3c9f8240	0.019471288
93	0xbd4f5510	-0.05061823
94	0xbe38d990	-0.18051744
95	0x3d3ed1ec	0.046586916
96	0xbcf43cdb	-0.029814174
97	0xbcd051df	-0.025429664
98	0xbc4e8b26	-0.012606418
99	0x3cfccb4e	0.030858662
100	0x3cc4fd37	0.024046523
101	0xbcab5f98	-0.020919606
102	0x3c95d8b5	0.01829181
103	0x3b088862	0.0020833244
104	0xbbf7ae93	-0.0075586527
105	0xbb1bc42c	-0.002376805
106	0xbdcab646	-0.09898047
107	0xbc73b83a	-0.014875466
108	0xbc99031c	-0.01867824
109	0xbc8e1653	-0.01734463
110	0xbc94965d	-0.018138105
111	0x3b9646d6	0.004586081
112	0x3ba44c8e	0.005014009
113	0xba5871e1	-0.00082567154
114	0x3eb3e9f3	0.35139427
115	0xbf40f89d	-0.75379354
116	0x3dae499b	0.08510133
117	0xbbd4576e	-0.006480149
118	0x3ce8b9a0	0.028408825
119	0xbce7349e	-0.028223332
120	0x3bf0831d	0.0073398487
121	0x3e3fe55e	0.1873984
122	0xbc21e0f2	-0.009880291
123	0x3bd8a66f	0.0066116373
124	0xbcdfc4af	-0.027315466
125	0xbafc7986	-0.0019262291
126	0x3d85b2db	0.065282546
127	0xbdfbcdab	-0.122950874
128	0xbcfd666d	-0.03093263
129	0xbc81d55f	-0.015848814
130	0x3d33c866	0.043892287
131	0xbc918bd6	-0.017766874
132	0xbd09baef	-0.03362554
133	0x39865b97	0.0002562671
134	0x3c7298dc	0.014806952
135	0xbc433dc2	-0.01191658
136	0xb94498e6	-0.00018748976
137	0xb863d530	-5.4319564e-05
138	0xbe78dc5c	-0.2430281
139	0xba1318a3	-0.0005611276
140	0x3c9df6ba	0.019282687
141	0x3e2aa34a	0.16663852
142	0x3cd9f363	0.026605314
143	0xbb5c12f9	-0.0033580645
144	0x3c4f5876	0.012655368
145	0x3e51dec6	0.20495138
146	0x3c862ac2	0.01637781
147	0x3c089bc4	0.008337919
148	0x3c02112d	0.007938665
149	0xbd821d25	-0.06353215
150	0xbc29b4dd	-0.010358063
151	0x3dbf63b9	0.093451925
152	0x3a170e9e	0.0005762371
153	0x3be0b4da	0.0068574967
154	0x3c8a4512	0.016878638
155	0x3d918ab9	0.07106537
156	0xbd15275d	-0.036414493
157	0x3e3b4627	0.1828848
158	0xbdb8bdd7	-0.09020584
159	0x3b0800c8	0.0020752419
160	0x3fb5c83c	1.4201732
161	0xbce11903	-0.027477747
162	0xbc8d3734	-0.017238237
163	0xbbb62a42	-0.0055592367
164	0x3d16872a	0.036749996
165	0xbc4c02ac	-0.012451809
166	0x3dcd259f	0.10016941
167	0x3c9ad94b	0.018902441
168	0x3cb422db	0.021989277
169	0x3d2a37cb	0.041557115
170	0xbccf5ae0	-0.025311887
171	0x3cb0e37b	0.021592846
172	0x3e152dd3	0.14568262
173	0x403ccad1	2.949879
174	0x37a334f5	1.9455774e-05
175	0x3e1e77e9	0.1547543
176	0xbdb05319	-0.086095996
177	0xbd359618	-0.044332594
178	0xbcda21f7	-0.026627524
179	0x3bfcfd82	0.00772065
180	0xbc91bb51	-0.017789515
181	0xbcc992b4	-0.024606086
182	0x3de27ade	0.11058591
183	0x3d8a95cb	0.06766852
184	0x3d3053e6	0.04304876
185	0x3d27e295	0.04098757
186	0x3fb9f721	1.4528543
187	0x3cedfc83	0.029051071
188	0x3e09c96a	0.1345574
189	0xbc984814	-0.018589057
190	0x3d4661d0	0.048433125
191	0xbd04ba94	-0.032404497
192	0xbe1a6a86	-0.15079698
193	0x3bea78c4	0.0071555097
194	0x3cecf688	0.028926149
195	0x3cd04ade	0.025426324
196	0xbcc00733	-0.023440933
197	0x3c94bf67	0.018157674
198	0xbd245f42	-0.040129907
199	0x3dff2063	0.12457349
200	0x3e185bd4	0.1487878
201	0xbb9c1e38	-0.0047643445
202	0x3c9c57c6	0.019084822
203	0x3d886ea4	0.06661728
204	0x3c581e51	0.013190822
205	0x3c8301c3	0.015992051
206	0x3caa51a5	0.020790884
207	0x3e1bf5fd	0.15230556
208	0x3e017cef	0.12645315
209	0x3cd09e0d	0.02546599
210	0xbec46496	-0.3835799
211	0x3b9f8706	0.004868391
212	0xbc8fe275	-0.017564038
213	0xbc986c17	-0.018606229
214	0xbc86d9ac	-0.016461216
215	0xbed22078	-0.41040397
216	0x3c882707	0.016620172
217	0x3cc0e551	0.023546847
218	0x3e02ef82	0.12786677
219	0x3c05bd46	0.008162802
220	0x3bcc35a3	0.00623198
221	0x3f29d67d	0.6634291
222	0x3fc9692a	1.5735219
223	0x3bbb30c3	0.0057126
224	0x3cd79fe2	0.026321355
225	0x3d0ff0b0	0.035141647
226	0x3df14582	0.11780836
227	0xbc2b84a7	-0.0104686385
228	0x3c9a8cfe	0.018866058
229	0xbd7bb310	-0.061450064
230	0x3cb5d65f	0.022196947
231	0xbc0d0a3c	-0.008608397
232	0xbbc0e480	-0.0058866143
233	0xbca897e1	-0.020580234
234	0x3cffd841	0.031231048
235	0x3c61bad0	0.01377745
236	0x3a1978ae	0.00058544695
237	0xbd8cef5f	-0.06881594
238	0xbb19c54e	-0.002346355
239	0xbc8e6559	-0.01738231
240	0xbcceb2cb	-0.02523174
241	0x3cc2478d	0.023715759
242	0x3c59ff66	0.013305521
243	0x3e127afb	0.14304726
244	0xbc8e3d62	-0.017363254
245	0x3cbbd0f6	0.022926789
246	0xbba9616b	-0.005169084
247	0xbe027931	-0.12741543
248	0x3cb39bab	0.021924814
249	0xbc88332e	-0.016625967
250	0x3bcc8c13	0.006242284
251	0xbc4e46e9	-0.0125901485
252	0x3e750381	0.23927118
253	0x3b9506a6	0.0045479117
254	0x3b9fbe23	0.004874961
255	0x3c9b6fcd	0.01897421

obs_net.0.weight f4 [256, 2]
0	0xbf50315b	-0.8132531
1	0xc15741e2	-13.453585
2	0xbebfc95c	-0.37458313
3	0xc08b759d	-4.358107
4	0xbe0ab1bf	-0.13544367
5	0x40d93b5e	6.788497
6	0x3efe3db6	0.49656457
7	0x3f1f7087	0.6228108
8	0xbebc2279	-0.3674505
9	0x3f0971df	0.5368938
10	0x3c79f780	0.0152567625
11	0x3e8e8f8c	0.27843893
12	0xbdab602f	-0.08367955
13	0x4015021d	2.328254
14	0xbf963e1c	-1.1737704
15	0x3fe5f625	1.7965742
16	0xbe1bab14	-0.1520198
17	0x40c57090	6.1699905
18	0x40789a07	3.884401
19	0x3e3f0ef8	0.18658054
20	0x3c506adb	0.012720789
21	0x4112adb0	9.167404
22	0x3e949002	0.2901612
23	0x40bcf3f7	5.904781
24	0x3e40f66a	0.18844
25	0x40c83d13	6.2574553
26	0x405e3266	3.471826
27	0x40206efa	2.5067735
28	0x3c42b869	0.011884787
29	0xbd6a5dcb	-0.057218354
30	0xbdab32c8	-0.08359295
31	0x3e1e2ed0	0.15447545
32	0xbe13565b	-0.14388411
33	0x40d63d8a	6.695012
34	0xbf1dee7b	-0.6169202
35	0xc0592e44	-3.3934488
36	0xbf7c946d	-0.9866398
37	0xc1635cc9	-14.210153
38	0x3e069d00	0.13145828
39	0x3f2966ab	0.66172284
40	0x406a79d7	3.6636865
41	0x3fa3b47c	1.2789454
42	0xbdbd11ec	-0.09231934
43	0xc1d1656f	-26.174528
44	0x40ac7409	5.3891644
45	0x419e8407	19.814466
46	0xbf197fcd	-0.59960634
47	0xc0a136e5	-5.037951
48	0x405a40cf	3.4102056
49	0x40a13d84	5.038759
50	0x3e52f110	0.2059977
51	0x3ea0d362	0.31411272
52	0x3e348c7b	0.17631714
53	0xc18a0069	-17.2502
54	0xbeb414ac	-0.3517202
55	0x41204d45	10.018865
56	0xbfa3621c	-1.2764316
57	0xc14c2bee	-12.760725
58	0xbe8f8dc6	-0.28037852
59	0xbed9b1bf	-0.42518422
60	0xbce6de32	-0.028182123
61	0xbc8a7b10	-0.016904384
62	0xbea8a273	-0.3293644
63	0x3ebd96b1	0.3702903
64	0x3fe11a42	1.7586138
65	0x3f4f09d8	0.80874395
66	0xbd716460	-0.058933616
67	0x3f0ec189	0.5576406
68	0xbe2a1bcf	-0.1661217
69	0xbfb417af	-1.4069728
70	0x3f0c93b0	0.54912853
71	0x4045cbcb	3.0905635
72	0x3e64cefc	0.22344583
73	0xbee35ac9	-0.444052
74	0x3e9389ed	0.28816167
75	0x40af2de1	5.4743505
76	0xbf0e3fc6	-0.5556606
77	0xc0ce3320	-6.443741
78	0x3f05aa73	0.5221321
79	0x3f181eff	0.59422296
80	0xbf96ba8a	-1.1775677
81	0xc15448f0	-13.267807
82	0x40375253	2.8643997
83	0x412d62c2	10.836611
84	0x3dc4ef90	0.096160054
85	0x3f25bc0d	0.6474007
86	0xbf6fe713	-0.93711966
87	0x40294c1f	2.645271
88	0x3e82af2e	0.25524276
89	0xc157a909	-13.478768
90	0x3f080db9	0.5314594
91	0x3f309419	0.6897598
92	0x3e9e081a	0.30865556
93	0xbf2a38a9	-0.66492707
94	0xbf1fd57e	-0.6243514
95	0x3e730499	0.23732223
96	0x3ed2cafe	0.41170496
97	0xbe847cee	-0.25876564
98	0x3e132e78	0.14373195
99	0xbdb80728	-0.0898574
100	0x3dc22130	0.09478986
101	0xbf2e1c9d	-0.6801241
102	0xbd590010	-0.052978575
103	0xbe725e08	-0.23668683
104	0xbed003d6	-0.40627927
105	0xc0656427	-3.5842378
106	0xbf690b25	-0.9103263
107	0xc1616a89	-14.08851
108	0x3dcd8bd8	0.10036439
109	0xbe866505	-0.26248947
110	0x3e008a75	0.12552817
111	0x409de0c3	4.9336867
112	0xbd989a7c	-0.074513406
113	0xc10d1981	-8.818727
114	0xbe8af595	-0.2714049
115	0xc0e49078	-7.1426353
116	0x3e903c58	0.2817104
117	0x3ebbad26	0.3665554
118	0x3e2c659d	0.16835637
119	0x40d4d16b	6.6505637
120	0xbf37b573	-0.71761245
121	0xc0a72f87	-5.2245517
122	0xbe850487	-0.25980017
123	0x3f027523	0.50959986
124	0x3f185896	0.5951017
125	0xbe8d1029	-0.27551392
126	0x3ea1f9a2	0.31635767
127	0x3e8e7d22	0.27829844
128	0x3e6e3b78	0.23264873
129	0xc1b40a58	-22.50505
130	0x3e951812	0.29119927
131	0x40960df1	4.689202
132	0x3ed9b462	0.42520434
133	0xbe8552a4	-0.26039612
134	0x3f6ec84d	0.93274385
135	0x4133ee1e	11.245634
136	0xbe88a4ba	-0.26688176
137	0x3e9c4162	0.30518633
138	0x3e385cdc	0.18004173
139	0x3e7a2eb0	0.24431872
140	0x409af329	4.8421826
141	0xc1444284	-12.266239
142	0xbdef0d38	-0.11672443
143	0x3ecdd42a	0.4020093
144	0xbe6dacf8	-0.23210514
145	0xbeb871ce	-0.36024326
146	0x3e3b237c	0.18275255
147	0x3ef07e8e	0.46971554
148	0xbebc535c	-0.36782348
149	0xc046ebab	-3.108134
150	0xbf1b3262	-0.60623753
151	0xc0a56e2a	-5.1696978
152	0x3f052124	0.52003694
153	0xc1de5b21	-27.794497
154	0xbef20259	-0.47267416
155	0xc0cfc883	-6.4932265
156	0xbf52fc96	-0.82416666
157	0xc0b460f4	-5.636835
158	0xbf74be4a	-0.9560286
159	0x3f9e9999	1.2390624
160	0xbe84d6ae	-0.25945038
161	0xc1a1b21f	-20.211973
162	0xbf99b2ec	-1.2007728
163	0x3f7d20d4	0.98878217
164	0x3f49e71d	0.78868276
165	0x402c8122	2.6953816
166	0xbe65b234	-0.2243126
167	0x3dac9db8	0.0842852
168	0xbd99788b	-0.07493695
169	0x40a19a36	5.0500746
170	0xbe6992b2	-0.22809866
171	0xbf3365f7	-0.7007746
172	0x3ebcc816	0.36871403
173	0xbdda4590	-0.10657799
174	0x3ec638de	0.3871526
175	0xbf0c62fa	-0.54838526
176	0xbf01c47d	-0.5069044
177	0xc1d1fe3b	-26.249136
178	0x409f4cac	4.9781094
179	0xc155ce53	-13.362872
180	0x3e48ced6	0.19610152
181	0x40426737	3.0375497
182	0xbf1643a9	-0.5869699
183	0x3fcecdba	1.6156533
184	0xbfc881c0	-1.5664597
185	0xc16a34ab	-14.637858
186	0xbe889608	-0.26676965
187	0x408123d0	4.0356216
188	0xbed65f1f	-0.41869447
189	0x3fbd85ef	1.4806498
190	0x3fe20500	1.7657776
191	0x412d188b	10.818492
192	0xbe163bf0	-0.14671302
193	0xbf07b580	-0.5301132
194	0xbebda8c3	-0.37042817
195	0xc0365314	-2.8488207
196	0x3e3c9180	0.18414879
197	0x3f16a625	0.58847266
198	0xbeab6ab4	-0.33479846
199	0xbef6fb34	-0.48238528
200	0xbf5f6214	-0.8725903
201	0x408e19ee	4.4406652
202	0x3e834556	0.25638837
203	0x3f28affd	0.65893537
204	0x3e0427d0	0.12905812
205	0x3d86d248	0.06583077
206	0xbe3be73c	-0.18349928
207	0x3e8e52d4	0.27797568
208	0x3db26930	0.08711469
209	0x3e1a4810	0.15066552
210	0x3ea4cf8a	0.3218959
211	0xbf19bde1	-0.6005536
212	0xbebc2665	-0.36748043
213	0x41383841	11.513734
214	0xbedfaaf6	-0.4368512
215	0x413960bd	11.586118
216	0xbd77d415	-0.06050499
217	0xbf23fa7c	-0.64054084
218	0x3e85a35a	0.2610119
219	0xbf1f9883	-0.6234209
220	0x3ebb9877	0.3663976
221	0x40a84a23	5.25905
222	0xbe6a01e8	-0.2285229
223	0x3f2dcad9	0.67887646
224	0x3fc8e26e	1.5694101
225	0xc158d08f	-13.550918
226	0xbee6ec12	-0.45101982
227	0x3e743400	0.23847961
228	0x3f0f9d29	0.5609918
229	0x40854aad	4.1653657
230	0xbe3a54af	-0.18196367
231	0x40a53b5b	5.1634955
232	0xbe0f586c	-0.13998574
233	0x3fa745a7	1.3068131
234	0xbf36d691	-0.7142115
235	0x403e6791	2.9750712
236	0xbeba33f5	-0.36367765
237	0x3f1f7c27	0.62298816
238	0xbe46a4fb	-0.19398873
239	0xbe61c90c	-0.2204935
240	0x3daa645c	0.08319923
241	0x410c1bcd	8.756787
242	0x3e4437bf	0.1916189
243	0x3ef4e86b	0.4783357
244	0xbdbe70e8	-0.09298879
245	0xc12ea2eb	-10.914775
246	0x3d675e90	0.056486666
247	0xbe3b6d10	-0.18303323
248	0x405156ec	3.2709303
249	0x4072a09f	3.7910535
250	0xbef30e1f	-0.4747171
251	0xc0c2ff80	-6.093689
252	0xbf0b63fb	-0.54449433
253	0x408b985d	4.362349
254	0x3f1567a1	0.5836125
255	0x3e8e2496	0.27762288

obs_net.0.bias f4 [256]
0	0x3eb1ba9b	0.3471268
1	0x3f3811eb	0.7190234
2	0x3f697758	0.9119773
3	0xbf31b14a	-0.69411147
4	0xbef359e4	-0.4752952
5	0xbeb3e1e9	-0.35133293
6	0x3f485435	0.7825349
7	0x3f3b2f41	0.7311898
8	0x3f63f20f	0.8904123
9	0x3faf0359	1.3672897
10	0x3f83b828	1.0290575
11	0x3e3294c4	0.17439562
12	0x3f83f0c3	1.030785
13	0x3f675b63	0.9037382
14	0xbdc08f13	-0.09402289
15	0xbe9ffb10	-0.31246233
16	0x3f6cab34	0.92448735
17	0x3f14d0eb	0.58131284
18	0x3eb1afb8	0.34704375
19	0xbf11e5d9	-0.56991345
20	0x3f9d395e	1.2283132
21	0x3f605f8c	0.8764579
22	0xbf0f547a	-0.55988276
23	0x3f1ebaaa	0.62003577
24	0x3f825f49	1.0185329
25	0xbdf70ed8	-0.12063378
26	0x3f1179f5	0.56826717
27	0x3f869097	1.0512875
28	0x3e4cf70a	0.20016113
29	0xbf06d2fc	-0.52665687
30	0xbd1fc7f1	-0.03900904
31	0x3f11b14e	0.5691117
32	0x3fe16e58	1.7611799
33	0xbe7a536e	-0.24445888
34	0x3f6c35c8	0.92269564
35	0x3fc99ff6	1.5751941
36	0xbdd49990	-0.10380852
37	0x3e296c3f	0.16545199
38	0x3f2f8241	0.68558127
39	0xbf074eb2	-0.52854455
40	0x3e6db7a3	0.23214583
41	0x3f8f3246	1.1187217
42	0xbf134a63	-0.5753538
43	0x3f571c2b	0.84027356
44	0x3f541c5c	0.8285577
45	0xbe97fb0c	-0.2968372
46	0xbeddcd59	-0.4332073
47	0x3f382abb	0.719402
48	0xbf250360	-0.64458275
49	0xbeee3e86	-0.46532077
50	0xbe1ed3b4	-0.15510446
51	0xbe9a3cad	-0.30124417
52	0x3efa326a	0.48866588
53	0x3ea48f5e	0.3214063
54	0xbf0dce62	-0.5539304
55	0x3f925665	1.1432616
56	0x3f1fec81	0.6247025
57	0x3f216a66	0.63052976
58	0xbea16a26	-0.31526297
59	0x3f855e35	1.0419375
60	0x3f309d94	0.68990445
61	0xbf0435aa	-0.51644385
62	0xbe9fd5b9	-0.31217745
63	0xbe28b224	-0.16474205
64	0x3f8e404c	1.1113372
65	0x3f930b93	1.1487907
66	0xbe68f918	-0.22751272
67	0x3f984df1	1.1898786
68	0xbeccfd1f	-0.40036866
69	0xbea60b81	-0.32430652
70	0x3fd3f520	1.6559181
71	0xbec8e7c1	-0.39239314
72	0xbf139eb4	-0.57664037
73	0xbe3d57e7	-0.18490563
74	0x3f847f72	1.0351393
75	0x3f2e5e39	0.6811252
76	0x3f84e0ae	1.0381067
77	0x3f32e572	0.69881356
78	0x3f3c1d45	0.7348216
79	0x3f44a861	0.76819426
80	0xbf43eee9	-0.7653642
81	0x3f270559	0.65242535
82	0x3fd2ecef	1.6478556
83	0xbf31b9e1	-0.69424254
84	0x3f4f598c	0.8099601
85	0xbf2d3ee8	-0.6767411
86	0xbf05e83c	-0.52307487
87	0xbea7b646	-0.3275625
88	0xbe73c265	-0.23804624
89	0x3e331b06	0.17490777
90	0x3f8dbd9c	1.1073489
91	0x3f3d20d2	0.73878205
92	0x3e226dd2	0.15862206
93	0x3f79aa9e	0.97525966
94	0x3ec68321	0.38771918
95	0x3f75acdc	0.9596689
96	0xbf1ea4c1	-0.61970145
97	0x3f167736	0.5877565
98	0xbe603f1d	-0.21899076
99	0xbefb12f4	-0.49037898
100	0xbc78e44d	-0.01519115
101	0xbf1ba69f	-0.6080112
102	0xbef2b987	-0.4740717
103	0xbea37a2e	-0.31929153
104	0xbed30b03	-0.4121934
105	0xbe57c52c	-0.21071309
106	0x3f4e6d52	0.8063556
107	0x3f83af4a	1.0287869
108	0xbdfb9ad8	-0.122853935
109	0xbe8d2cca	-0.27573234
110	0x3fadf48b	1.3590254
111	0xbefb04ca	-0.4902709
112	0x3f279ebb	0.6547658
113	0xbf2de548	-0.6792798
114	0x3fb8f3e5	1.4449431
115	0x3f556340	0.8335457
116	0x3f6e1dfa	0.9301449
117	0x3e09f1ad	0.13471098
118	0xbf05dba0	-0.52288246
119	0xbe99feab	-0.3007711
120	0x3f885fa9	1.0654193
121	0xbe301bd9	-0.17198123
122	0x3f3af5ba	0.730312
123	0xbd894270	-0.06702125
124	0x3f84efa3	1.0385631
125	0x3f26402a	0.64941657
126	0x3e9bd53d	0.30436125
127	0xbea545de	-0.32279867
128	0xbe93cb5b	-0.28866085
129	0x3f980dd4	1.187922
130	0xbf3454c9	-0.7044187
131	0xbf799dfe	-0.975067
132	0xbe66c040	-0.22534275
133	0x3f1e22cb	0.6177184
134	0xbebada7b	-0.36494812
135	0x3f2c76fb	0.6736905
136	0x3f1e7bac	0.6190746
137	0xbe85cf50	-0.2613473
138	0xbe6f4eea	-0.23369947
139	0xbf00d9e7	-0.5033249
140	0x3f485937	0.7826113
141	0xbdf6143d	-0.12015579
142	0xbe88b5c7	-0.26701185
143	0x3f4f7664	0.81040025
144	0xbee8d2ba	-0.45473272
145	0xbe24ed64	-0.16106182
146	0xbea8a385	-0.32937256
147	0x3f4fabc6	0.8112148
148	0x3f39d915	0.72596866
149	0xbeea61aa	-0.45777637
150	0x3f4735ce	0.77816474
151	0x3f32a61d	0.6978472
152	0x3f6f42cc	0.934613
153	0xbf0291a8	-0.51003504
154	0xbef2047f	-0.47269055
155	0xbede5d92	-0.43430763
156	0xbeb38fd1	-0.3507066
157	0xbf3076c2	-0.6893121
158	0x3f50e7c5	0.8160365
159	0xbf00d8c9	-0.5033079
160	0xbf24d9fd	-0.64395124
161	0xbf05345c	-0.5203302
162	0xbeadf20f	-0.3397374
163	0xbe1bbc15	-0.15208466
164	0xbed7500e	-0.42053264
165	0x3f6dd9fc	0.9291074
166	0x3f301e71	0.6879645
167	0xbef31d48	-0.47483277
168	0x3f0cb136	0.549579
169	0xbf327508	-0.69709826
170	0xbecc0d67	-0.39853975
171	0x3d88928f	0.06668579
172	0xbeaa26ed	-0.33232823
173	0x3f5b3c10	0.85638523
174	0xbea69840	-0.32538033
175	0x3f230773	0.6368324
176	0xbedd9f1c	-0.43285453
177	0x3f5f3f09	0.8720556
178	0x3f973396	1.1812618
179	0xbe85d30f	-0.26137587
180	0xbeb21025	-0.34777942
181	0x3ebabf87	0.3647425
182	0xbe33b98b	-0.17551248
183	0xbd68c2c0	-0.056826353
184	0xbf815912	-1.0105307
185	0xbe964237	-0.29347393
186	0x3e32d7f0	0.17465186
187	0xbcbfea3b	-0.02342712
188	0x3f464e53	0.77463263
189	0x3eb357dc	0.3502797
190	0xbec52d0f	-0.3851094
191	0xbeeb75ce	-0.45988315
192	0x3f31448c	0.6924522
193	0xbed6d423	-0.41958722
194	0x3f29b5f1	0.66293246
195	0x3e5f12a2	0.21784452
196	0x3eac0527	0.3359768
197	0xbed64a1b	-0.41853413
198	0x3fc99f1c	1.5751681
199	0xbe8935c0	-0.2679882
200	0x3f10fcca	0.56635725
201	0x3fb3ab4b	1.403665
202	0xbf170dea	-0.59005606
203	0x3e88459b	0.26615605
204	0x3fa10a33	1.2581238
205	0x3f3852f0	0.7200155
206	0x3f880c60	1.0628777
207	0x3ef7eaa7	0.48421213
208	0xbec2f9fe	-0.38081354
209	0x3f062174	0.52394795
210	0xbe68b46c	-0.22725075
211	0x3f6ed64e	0.93295753
212	0x3fa4d4f2	1.2877486
213	0xbedd8ac8	-0.43269944
214	0xbe91c658	-0.28471637
215	0x3f18758f	0.5955438
216	0x3f1e6ec5	0.6188777
217	0x3f853167	1.0405701
218	0x3f794d28	0.97383356
219	0xbed06d37	-0.40708324
220	0xbe7a5685	-0.24447067
221	0x3ed28b2a	0.411218
222	0xbee30f12	-0.44347435
223	0xbdc14617	-0.09437197
224	0x3f6eafba	0.9323689
225	0x3f78c447	0.97174495
226	0x3f22f157	0.63649505
227	0xbefab76e	-0.4896807
228	0x3fc5a4a0	1.5440865
229	0xbef0b7f5	-0.47015348
230	0x3f3d28b1	0.73890215
231	0xbe7ccd26	-0.24687633
232	0x3f886704	1.0656438
233	0xbe745f26	-0.23864421
234	0xbf33c97f	-0.70229334
235	0x3f292553	0.6607258
236	0x3f9097ff	1.1296386
237	0xbf09eb65	-0.5387481
238	0x3f4b1713	0.79332083
239	0x3eea7461	0.45791915
240	0x3e44e3b2	0.19227484
241	0xbedac0f5	-0.4272534
242	0x3f96e985	1.1790015
243	0x3f2ec3ea	0.6826769
244	0x3f1579c8	0.5838895
245	0x3f298506	0.662186
246	0xbec86ed1	-0.39147046
247	0xbe935d79	-0.2878225
248	0x3f16b62b	0.58871716
249	0x3ebbd0b3	0.36682662
250	0x3f57ae71	0.8425055
251	0x3f575e1e	0.84127986
252	0xbf26a818	-0.6510024
253	0x3f2ccb5d	0.6749781
254	0xbed1e7a4	-0.4099704
255	0x3f100b8e	0.5626763
